models/model_diabetes_8.pth (torch, 10735 bytes, 23 tensors)

weights f4 [2, 8]
00000000: 9965 8440 881e 9b40 6d85 9a3f e211 923f
00000010: 13c6 153f 892d 5541 8d68 6241 a943 1a41
00000020: 8278 32bf 26fc 0041 300e f03e c7cd b93e
00000030: d471 0a40 d1c8 6941 c133 7541 fac4 2641
4.137402 4.847477 1.2071968 1.1411707 0.5850536 13.323617 14.150525 9.641519
-0.6971513 8.06156 0.46885824 0.36289808 2.1631975 14.611527 15.325135 10.42309

autoencoders.0.encoder.layers.0.weight f4 [4, 8]
00000000: eaa5 8b81 b58c da80 dc3d b900 dfbf 4c80
00000010: fcc6 8381 3352 2801 be4c dd80 4e84 da80
00000020: 3acf df00 4a1b fb80 341f 5681 78c3 8781
00000030: 0980 0400 aadd 1e00 2fc4 1780 3a3a 9180
00000040: c3c7 a200 a2e1 1781 d2f4 a601 d7e2 f500
00000050: e4bc 9900 109d 2681 bd55 7c00 ddbe 7481
00000060: f657 a581 c125 9401 dcc9 7081 a0e7 5900
00000070: 1560 8480 ce9e 1301 196d 0801 634d 7e01
-5.129861e-38 -2.0070614e-38 1.7011758e-38 -7.048328e-39 -4.840733e-38 3.0915702e-38 -2.0323175e-38 -2.00676e-38
2.0553655e-38 -2.3060499e-38 -3.932798e-38 -4.987165e-38 4.13272e-40 2.834583e-39 -2.182594e-39 -1.3337035e-38
1.4949011e-38 -2.7896203e-38 6.133007e-38 2.2581071e-38 1.4118592e-38 -3.0602072e-38 1.1418359e-38 -4.495266e-38
-6.0737645e-38 5.442079e-38 -4.4225865e-38 8.25645e-39 -1.2156753e-38 2.7113573e-38 2.505753e-38 4.6707954e-38

autoencoders.0.encoder.layers.0.bias f4 [4]
00000000: 9d1d 0200 6ec3 f280 4c9a 9781 f376 fa00
1.94294e-40 -2.2294297e-38 -5.5690045e-38 2.3001545e-38

autoencoders.0.encoder.layers.2.weight f4 [2, 4]
00000000: 5134 4281 3af4 3480 55e5 9e81 9ea0 8201
00000010: 103f 5800 d4d3 8d81 aac1 1e81 c966 4a80
-3.5669708e-38 -4.863058e-39 -5.836911e-38 4.798493e-38 8.104146e-39 -5.209918e-38 -2.9158964e-38 -6.832699e-39

autoencoders.0.encoder.layers.2.bias f4 [2]
00000000: 307e 6d80 55dd 0701
-1.0055337e-38 2.4954382e-38

autoencoders.0.encoder.layers.4.weight f4 [1, 2]
00000000: e842 3f00 9f47 8381
5.809638e-39 -4.822457e-38

autoencoders.0.decoder.layers.0.weight f4 [2, 1]
00000000: 9e01 6a80 2852 f100
-9.735143e-39 2.2161827e-38

autoencoders.0.decoder.layers.0.bias f4 [2]
00000000: 8cb8 2e80 707e 5e81
-4.290636e-39 -4.0865675e-38

autoencoders.0.decoder.layers.2.weight f4 [4, 2]
00000000: 3727 1300 ab5f 4100 30ce ac81 78e5 5a00
00000010: 7c5e 0201 cde6 7300 b2f8 b801 c315 9c01
1.758942e-39 6.003626e-39 -6.3478686e-38 8.347513e-39 2.3945018e-38 1.0643878e-38 6.7947785e-38 5.7336576e-38

autoencoders.0.decoder.layers.2.bias f4 [4]
00000000: cc76 b880 b3b0 cb80 af76 70ae bd08 b280
-1.6940348e-38 -1.8705993e-38 -5.4675094e-11 -1.6349853e-38

autoencoders.0.decoder.layers.4.weight f4 [8, 4]
00000000: 2cdc 6800 1aa1 1f01 7202 c000 763e 3481
00000010: 0fe1 a981 a1cb 4981 7ca7 2180 d13c a000
00000020: 9686 1a01 3008 3d00 b448 f280 1a8e 5a81
00000030: 82f9 8600 9ec4 5a01 946c 5901 a208 3f01
00000040: 3af0 ac80 bc76 3a01 5c8f 0c81 5e40 b480
00000050: efb1 f700 9e4e 2300 c51f 2919 da7f 7c00
00000060: 24ef 2381 b8b9 5381 bc18 571b 9e40 7001
00000070: e0e8 8181 fe8d 0c01 4168 1d15 34de 8801
9.629874e-39 2.9319272e-38 1.7633292e-38 -3.3105592e-38 -6.240374e-38 -3.7063966e-38 -3.090653e-39 1.4715496e-38
2.8381893e-38 5.604902e-39 -2.2250271e-38 -4.014223e-38 1.2395463e-38 4.0181342e-38 3.9934506e-38 3.5087353e-38
-1.5881882e-38 3.4247992e-38 -2.5816794e-38 -1.655348e-38 2.2747198e-38 3.242445e-39 8.743511e-24 1.1433466e-38
-3.0109947e-38 -3.8887826e-38 1.7792375e-22 4.41274e-38 -4.7721275e-38 2.5815813e-38 3.178814e-26 5.0277356e-38

autoencoders.0.decoder.layers.4.bias f4 [8]
00000000: f5b6 373e 7de3 f93e ea42 6d3d f599 d33c
00000010: ce1d da3e 3f79 e83d 04e3 8f3e c476 503e
0.17940886 0.48806372 0.057925142 0.025830248 0.42600864 0.11351251 0.28102887 0.20357805

autoencoders.1.encoder.layers.0.weight f4 [4, 8]
00000000: 1e3c 9a00 afe0 7200 f662 a001 e8d9 6d80
00000010: 71b7 1280 509a a801 ea10 3601 8f0f 1d00
00000020: 98dd 8f01 84b4 2281 44a0 7a00 8083 4280
00000030: 7eac 1000 ccd7 1480 7c76 5a80 8091 9780
00000040: 435f 1081 c2ab 5901 d03a 3c80 3c01 9981
00000050: c4fe 8081 cc5e ba81 ae38 cc00 6a3d 9801
00000060: 589c aa01 f8fc be80 b672 7500 b019 1600
00000070: 1e2a 6401 3c73 bf81 5837 8180 04b9 2600
1.4164232e-38 1.0549848e-38 5.891672e-38 -1.0088239e-38 -1.718845e-39 6.193488e-38 3.3440256e-38 2.668811e-39
5.2847875e-38 -2.9884214e-38 1.1261423e-38 -6.108316e-39 1.531246e-39 -1.914123e-39 -8.307699e-39 -1.3919355e-38
-2.651697e-38 3.9979836e-38 -5.531228e-39 -5.6205095e-38 -4.7385345e-38 -6.8461636e-38 1.8754774e-38 5.5924107e-38
6.267248e-38 -1.7539492e-38 1.0785904e-38 2.029596e-39 4.1907204e-38 -7.032767e-38 -1.1866633e-38 3.55612e-39

autoencoders.1.encoder.layers.0.bias f4 [4]
00000000: 7de4 2401 151d 6300 827e be80 0c44 0080
3.0285975e-38 9.102147e-39 -1.7494127e-38 -2.441e-41

autoencoders.1.encoder.layers.2.weight f4 [2, 4]
00000000: dc51 a381 2b41 2701 a0ba cb00 843e 1b00
00000010: 2056 4681 5c4c 4701 da4c b280 6bbd 0f80
-5.9994206e-38 3.0719811e-38 1.8709554e-38 2.501985e-39 -3.6428648e-38 3.6605313e-38 -1.6374287e-38 -1.445483e-39

autoencoders.1.encoder.layers.2.bias f4 [2]
00000000: c667 1b00 eea5 1c81
2.516785e-39 -2.8771724e-38

autoencoders.1.encoder.layers.4.weight f4 [1, 2]
00000000: 46d1 1f01 d067 ec00
2.9353834e-38 2.1710418e-38

autoencoders.1.decoder.layers.0.weight f4 [2, 1]
00000000: ca78 8800 c051 4080
1.2532958e-38 -5.906798e-39

autoencoders.1.decoder.layers.0.bias f4 [2]
00000000: 7c0a 9f80 a513 ca80
-1.4605605e-38 -1.8557817e-38

autoencoders.1.decoder.layers.2.weight f4 [4, 2]
00000000: ca9e 2081 7b7f bd01 4a86 1c80 2ea8 5a00
00000010: f0e8 9f00 e059 7201 c541 a880 1cef b700
-2.9501284e-38 6.961056e-38 -2.619568e-39 8.325526e-39 1.4685406e-38 4.4512862e-38 -1.5451957e-38 1.6891672e-38

autoencoders.1.decoder.layers.2.bias f4 [4]
00000000: 7a8d 883e 585f 913e ab6a e3bc 270f 273f
0.26670438 0.28393054 -0.027760824 0.65257496

autoencoders.1.decoder.layers.4.weight f4 [8, 4]
00000000: c170 923e 875f 203f 7cd1 8c3a acdd d6bd
00000010: c43e 21bd 8998 103f afe0 223c 9248 463f
00000020: 61d7 d7be 4590 d03b 0310 3fb8 3b23 023e
00000030: e946 913e 99e5 63bd 04ee cabb f619 863e
00000040: 3bac a13e 6c78 483f e27d 963c 861a b13e
00000050: a768 24bd 0b96 953e 4ac9 8cbc 707a e23e
00000060: 4571 653e dd4e b73e e732 97bc 7bac c73e
00000070: f54e ab3e 1b04 8d3c f3ed 3ebc df3a d2bc
0.2860165 0.62645763 0.0010743584 -0.10491499 -0.0393665 0.5648275 0.009941264 0.77454484
-0.4215651 0.0063648545 -4.555286e-05 0.12708752 0.28374413 -0.055638883 -0.0061929245 0.26191682
0.31576714 0.7830875 0.018370572 0.34590548 -0.040138867 0.29216036 -0.017185826 0.44234037
0.2240649 0.35802355 -0.01845689 0.3899878 0.33458677 0.017213872 -0.011653411 -0.025662838

autoencoders.1.decoder.layers.4.bias f4 [8]
00000000: 8056 213d 938e e63d f70a 903e a0c9 99bd
00000010: d3c5 0a3d dfce debc 0576 823e 292f ef3e
0.039389133 0.112576626 0.28133366 -0.0750916 0.033880066 -0.027198253 0.25480667 0.46715668
