models/model_octminst_3.pth (torch, 563411 bytes, 27 tensors)

weights f4 [4, 784]
000000 65 3c 6e 3f af e9 62 3f 50 7a 53 3f 9d ad 4b 3f
       0.93060905 0.8863782 0.8260851 0.7956179
000010 ea 61 51 3f 89 27 42 3f 35 8c 3d 3f 57 60 4e 3f
       0.8179003 0.75841576 0.74042064 0.8061575
000020 60 23 4f 3f b2 86 3e 3f 81 2f 64 3f b4 46 52 3f
       0.8091335 0.7442428 0.89134985 0.82139134
000030 04 fc 19 3f b6 47 21 3f dc 52 26 3f 71 7a 27 3f
       0.6015017 0.6300005 0.64970183 0.65421206
000040 1f b9 3c 3f 53 d6 2a 3f 2e 22 2b 3f 28 9e 2b 3f
       0.7371997 0.6673328 0.6684903 0.670382
000050 7a 4b 5a 3f 03 86 5a 3f 53 7f 3c 3f 77 76 3e 3f
       0.8527142 0.85360736 0.7363178 0.74399513
000060 3d 67 65 3f 0f 3c 67 3f 14 53 21 3f 50 ff df 3e
       0.89610654 0.9032602 0.6301739 0.43749475
000070 80 f5 7c 3f 05 eb 47 3f 99 aa 5b 3f 7c c2 57 3f
       0.98812103 0.78092986 0.85807186 0.84281135
000080 cf 90 5c 3f b6 d5 24 3f cb be 67 3f f9 5f 3b 3f
       0.8615846 0.64388597 0.905255 0.7319332
000090 7c e3 4f 3f 79 f3 51 3f dd a2 6f 3f 79 1b 47 3f
       0.8120649 0.82012135 0.93607885 0.77776295
0000a0 33 78 5d 3f 1b cc 3c 3f dc 2d 6b 3f ea 2d 43 3f
       0.86511534 0.7374894 0.9186685 0.76241934
0000b0 ee 7b 4d 3f d3 1a 0f 3f c1 e6 07 3f 80 63 03 3f
       0.80267227 0.55900306 0.5308648 0.513237
0000c0 7a 4d 42 3f 14 b2 0f 3f 31 53 29 3f 63 df 15 3f
       0.7589947 0.561311 0.66142565 0.58543986
0000d0 30 ba 46 3f ea c8 30 3f 6b be 47 3f 58 17 18 3f
       0.7762785 0.6905657 0.7802493 0.5941062
0000e0 29 7a 1e 3f e0 ed 2b 3f 1e 53 0a 3f f3 e3 2f 3f
       0.6190515 0.67159843 0.54033077 0.687072
0000f0 36 f9 58 3f a8 73 54 3f 7f a6 28 3f 35 27 3f 3f
       0.84755266 0.8298898 0.6587905 0.746692
000100 2e ac 60 3f e2 b0 58 3f 39 c3 32 3f aa ca 36 3f
       0.87762725 0.846449 0.69829136 0.7140299
000110 ce 46 56 3f b8 38 5c 3f 31 4d 7d 3f 32 d9 5a 3f
       0.8370179 0.86024046 0.9894591 0.85487664
000120 84 42 7f 3f 3e 8b 68 3f 10 3a 54 3f 56 50 29 3f
       0.9971087 0.90837467 0.82901096 0.6613821
000130 70 d3 4c 3f 24 11 45 3f 15 9b 21 3f 54 d0 2b 3f
       0.8001013 0.7697928 0.6312726 0.6711476
000140 a2 cc 48 3f 18 35 29 3f bb 12 39 3f 3c 66 17 3f
       0.78437245 0.6609664 0.72294205 0.5914037
000150 c8 53 6f 3f 1c 6e 35 3f 65 89 16 3f 99 a9 19 3f
       0.93487215 0.7087114 0.588034 0.6002441
000160 73 0c 13 3f 06 9c 1c 3f a5 d9 50 3f a5 64 19 3f
       0.5744087 0.6117557 0.815821 0.59919196
000170 74 19 65 3f bf 07 34 3f 03 a5 21 3f 07 71 22 3f
       0.89491963 0.7032432 0.6314241 0.63453716
000180 9c a0 09 3f a0 d6 0f 3f 75 56 6a 3f 18 2e 55 3f
       0.53760695 0.56186867 0.9153817 0.8327346
000190 cf f9 69 3f ca 8c 54 3f 20 24 43 3f 98 0e 15 3f
       0.913968 0.8302733 0.76227 0.58225393
0001a0 ef cc 17 3f 6f 50 0f 3f 86 9c f6 3e f4 6b 1e 3f
       0.5929708 0.55982107 0.48166293 0.61883473
0001b0 d6 6c f0 3e 0e 7e 0d 3f 70 cc 35 3f 0a 4b 25 3f
       0.46958035 0.5527047 0.7101507 0.64567626
0001c0 22 d5 6d 3f d6 2a 5d 3f 4d e2 55 3f ce 49 47 3f
       0.9290334 0.8639349 0.8354843 0.7784699
0001d0 44 64 45 3f d7 7d 17 3f e5 1a 15 3f 4a 00 d9 3e
       0.7710612 0.5917639 0.5824416 0.42383033
0001e0 90 ec 21 3f e2 9e 29 3f d6 63 16 3f 01 b0 0f 3f
       0.6325159 0.6625806 0.5874609 0.56127936
0001f0 83 2a 0a 3f 01 d7 e5 3e 2a 59 29 3f 02 5f 53 3f
       0.5397112 0.44890597 0.6615168 0.82566845
000200 0c 8e 84 3f b4 59 3a 3f 23 da 23 3f 91 7e 20 3f
       1.0355849 0.72793126 0.64004725 0.62693125
000210 7e 4b 39 3f fc 51 41 3f 31 85 49 3f f6 b2 41 3f
       0.72380817 0.75515723 0.7871886 0.756637
000220 f0 5d 62 3f f2 41 49 3f 58 92 20 3f 25 7b 01 3f
       0.8842459 0.7861625 0.627233 0.5057853
000230 c4 23 34 3f 23 c1 33 3f 17 3d 35 3f d9 c8 39 3f
       0.70367074 0.7021658 0.7079634 0.72572094
000240 49 84 3c 3f a7 07 2c 3f a4 8a 58 3f 82 2f ee 3e
       0.7363935 0.67199177 0.8458655 0.4652062
000250 48 57 69 3f 6c fc 50 3f 6b 8d 67 3f 87 29 38 3f
       0.91148806 0.81635165 0.9045016 0.71938366
000260 4e 94 2a 3f ff 0e 55 3f b2 f9 87 3f 58 36 49 3f
       0.66632545 0.8322601 1.0623076 0.78598547
000270 a7 65 64 3f 14 17 24 3f d6 07 35 3f 2e c6 23 3f
       0.8921761 0.64097714 0.7071508 0.63974273
000280 29 24 0f 3f b7 0a 10 3f 01 d6 fa 3e 03 61 fc 3e
       0.5591455 0.5626635 0.48991397 0.49292764
000290 11 8a 3b 3f d3 38 40 3f 37 a4 4a 3f df bc 12 3f
       0.7325755 0.75086707 0.7915682 0.57319444
0002a0 e4 66 95 3f 50 b7 9a 3f 59 c6 77 3f 2c f1 76 3f
       1.1672025 1.2087193 0.9678703 0.9646175
0002b0 82 dd 9c 3f de e7 8e 3f 66 bb 60 3f df bb 61 3f
       1.2255099 1.116451 0.8778595 0.88177294
0002c0 0f 09 6b 3f b6 b2 70 3f 58 f0 5b 3f d1 84 3d 3f
       0.918107 0.9402269 0.8591361 0.74030787
0002d0 e4 b6 27 3f 2a 76 75 3f 2a b1 82 3f f4 84 60 3f
       0.65513444 0.9588343 1.0210316 0.8770287
0002e0 3b ed 3d 3f 5a 70 1f 3f ee ca 17 3f a0 10 47 3f
       0.7419011 0.6228081 0.5929402 0.7775974
0002f0 ca 8a d1 3e 96 6f 07 3f 27 d8 51 3f d3 e2 72 3f
       0.409262 0.5290464 0.8197045 0.94877356
000300 8b 40 41 3f a3 bf 4a 3f fa e8 61 3f 33 ff 53 3f
       0.7548911 0.79198664 0.8824612 0.8281128
000310 d5 fb a3 3f 49 3c b1 3f c7 53 94 3f 1f 30 79 3f
       1.2811228 1.3846523 1.1588067 0.9733905
000320 65 1a 36 3f a9 b3 33 3f c0 4b 07 3f 62 a9 26 3f
       0.71134025 0.70196015 0.5284996 0.6510221
000330 2f 16 85 3f 35 25 79 3f bc 48 3b 3f b0 59 33 3f
       1.0397395 0.973224 0.7315786 0.7005873
000340 42 11 2e 3f 38 42 6d 3f dd 78 4b 3f c3 85 c1 3e
       0.67995083 0.92679167 0.794813 0.37797365
000350 85 7f 50 3f 11 1e f2 3e 17 4a 3d 3f c1 eb 36 3f
       0.8144458 0.47288564 0.7394118 0.7145348
000360 ae 15 39 3f e7 ce 51 3f ba 6c 72 3f ba ce 3e 3f
       0.72298706 0.8195633 0.94697154 0.7453419
000370 70 0b 3e 3f 6c cc 35 3f 3e eb 49 3f 35 24 5b 3f
       0.742362 0.7101505 0.78874576 0.8560212
000380 e3 d7 b3 3f 6f 78 a3 3f bc 9d c2 3f 40 8a d0 3f
       1.4050258 1.2771128 1.5204387 1.629219
000390 e5 cc 9a 3f ff 00 ae 3f 9c 72 b0 3f 52 89 a2 3f
       1.2093779 1.3594054 1.3784976 1.2698157
0003a0 9c 1c 90 3f 19 8e 95 3f 4e 5f b1 3f d9 3b 9e 3f
       1.1258731 1.168399 1.385721 1.2362014
0003b0 6f e0 9f 3f 74 5c 99 3f e4 45 8f 3f 00 be 56 3f
       1.2490367 1.198134 1.1193204 0.83883667
0003c0 5e f2 89 3f 19 e6 50 3f 12 34 8c 3f 99 96 6b 3f
       1.077709 0.816011 1.0953391 0.9202667
0003d0 55 23 82 3f 2c 0a 7c 3f 68 94 a2 3f e4 24 d1 3f
       1.0167032 0.9845302 1.270154 1.6339383
0003e0 64 99 cb 3f 9e af a8 3f ca cf b0 3f 31 ab 8d 3f
       1.5906186 1.3178594 1.3813412 1.1067868
0003f0 d3 fc b4 3f 05 b4 6f 3f a4 8f a7 3f 5d d5 6d 3f
       1.4139656 0.93634063 1.3090711 0.9290369

encoder.model.0.weight f4 [8, 1, 3, 3]
000000 1f 62 05 80 31 5b 05 80 f9 57 05 80 aa 67 05 80
       -4.94377e-40 -4.91891e-40 -4.90736e-40 -4.96365e-40
000010 44 65 05 80 36 bd 05 80 38 59 05 80 f8 5d 05 80
       -4.95505e-40 -5.27054e-40 -4.91183e-40 -4.92887e-40
000020 1c 58 05 80 71 e2 96 3e 50 e3 aa 3d dc a7 95 3e
       -4.90785e-40 0.29469636 0.08344138 0.2922963
000030 0f 8c f2 be eb 73 88 be 35 34 ff be c0 f0 91 3e
       -0.4737248 -0.26650938 -0.49844518 0.2850399
000040 8a d9 39 3d 33 c9 cc 3e 58 57 5e 3e 78 bd b4 3e
       0.045373477 0.39997253 0.21713006 0.35300803
000050 60 1f b1 3d e5 c8 5a be 5c 98 b2 3e 92 6d ad be
       0.086485624 -0.21365698 0.34881866 -0.33872658
000060 d4 25 13 be bd c8 14 be 89 f1 a7 3c ea ad ca 3e
       -0.14369899 -0.145297 0.020500915 0.3958581
000070 8e 11 d1 be 00 7d 28 bf b6 32 90 3e f5 e2 23 bd
       -0.40833706 -0.65815735 0.2816369 -0.040011365
000080 09 46 5d bf e3 57 00 3f ed e3 91 be d9 d7 08 bf
       -0.8643499 0.50134104 -0.28494206 -0.5345436
000090 4f f7 88 bd 4c 3e 24 bf c0 29 1e 3f d0 cb 12 be
       -0.06687795 -0.6415756 0.61782455 -0.14335561
0000a0 30 16 cc be ac 58 02 3f ff 96 1d bd ca 53 0f bf
       -0.39860678 0.5091655 -0.03847408 -0.55987227
0000b0 ec 2e 1c 3f ba fd d1 be 2d a5 fa be 95 1c 79 be
       0.610091 -0.4101389 -0.48954144 -0.2432731
0000c0 ff 55 d0 3d 5f d8 02 3f bc 5d de 3e ac 46 83 be
       0.101726525 0.51111406 0.4343089 -0.25639856
0000d0 ac c1 18 be 93 59 26 3e df b4 c2 3e 6b 56 44 3e
       -0.1491763 0.16245107 0.3802862 0.19173591
0000e0 3a 01 07 bf 28 15 19 3f 70 30 20 3e c0 44 46 bf
       -0.52736247 0.59797907 0.15643477 -0.77448654
0000f0 2a 85 17 3f 7a 0b 79 3e 02 15 f4 be d3 af 6a be
       0.5918757 0.24320784 -0.47672278 -0.22918634
000100 78 f9 8f be f5 1d 7b 3e 15 8a 00 bf 0a d2 11 bf
       -0.28120017 0.24523146 -0.50210696 -0.5696112
000110 23 e4 e0 3e b3 bf 35 3d 6d d5 20 3e f2 34 30 3f
       0.43924055 0.04437227 0.15706415 0.6883079

encoder.model.0.bias f4 [8]
000000 17 f8 dd ae 6d 77 60 bd 5f b6 82 3d 13 28 a3 3e
       -1.0093986e-10 -0.054801393 0.06382441 0.31866512
000010 d4 00 8b 3c 2b 21 a1 3d dc 08 bb 3b 29 42 01 3e
       0.016968168 0.078676544 0.005707843 0.12622894

encoder.model.2.weight f4 [16, 8, 3, 3]
000000 6b 5c 05 00 ff 64 05 80 fc 5c 05 00 19 67 05 00
       4.92331e-40 -4.95408e-40 4.92534e-40 4.96162e-40
000010 57 82 05 00 9f 6a 05 80 a0 67 05 80 90 5d 05 00
       5.05935e-40 -4.97426e-40 -4.96351e-40 4.92741e-40
000020 dd 7d 05 00 63 27 a4 be 9e 1a e9 be d7 50 47 3e
       5.04329e-40 -0.320613 -0.4552812 0.19464432
000030 d1 24 3b bf 0c a9 96 bf ec 51 7a 3e 7c 97 05 bf
       -0.7310305 -1.1770339 0.24445313 -0.5218427
000040 2f 5b c3 be 98 12 b1 bd af 9b 51 bc df 5c 8b bc
       -0.38155505 -0.086461246 -0.0127934655 -0.017012058
000050 64 c2 70 bd 0b 51 8c 3e 03 bf 61 3e ab 2a 86 3d
       -0.058779135 0.2740558 0.22045521 0.06551107
000060 f4 8d b3 3d 58 e0 22 3d 94 4d 73 bb 8c 32 bf be
       0.0876731 0.039764732 -0.0037125098 -0.37343252
000070 a6 ae f2 bd 24 23 d3 bd c9 80 11 be e7 b1 6c be
       -0.11849718 -0.10309437 -0.14209284 -0.2311474
000080 f5 e4 03 bf 67 b3 c2 bd c7 d1 cb be 93 61 19 bf
       -0.51521236 -0.095068745 -0.39808485 -0.5991451
000090 fc 99 1a bf 31 dc 57 bf 3f f5 91 be ad df 8d 3f
       -0.6039121 -0.8432036 -0.2850742 1.1083885
0000a0 7d 36 38 bf ba 73 3b be 2e f6 e6 3e a5 c4 9e be
       -0.7195814 -0.18305865 0.45109695 -0.31009403
0000b0 42 b7 d9 be 9b 78 a8 be d3 a1 0c be 1a a3 80 3d
       -0.42522627 -0.32904515 -0.13733606 0.06281109
0000c0 80 b4 df be 86 55 17 bf e7 74 80 3c b6 52 d7 be
       -0.43692398 -0.59114873 0.015680743 -0.4205529
0000d0 3f 95 cc bd 4a 53 0f 3e cc e8 99 bd fc c0 2b bd
       -0.09989404 0.13996616 -0.075151056 -0.04193209
0000e0 46 bb 50 bc a2 e2 d8 3d bb ec 61 be ae 9d d8 3d
       -0.012739962 0.10590102 -0.22062962 0.1057695
0000f0 f6 c8 84 bd 89 51 58 be 34 61 41 3e 53 6f 04 3e
       -0.06483643 -0.21124853 0.18884736 0.12933092
000100 15 4e b8 bc f9 03 96 3d 2c bf 7b 3b 9d fb 9c bd
       -0.02249817 0.073249765 0.0038413508 -0.07665179
000110 41 d5 8b 3e 13 95 4b 3e 8f 07 ab 3b 23 2f 88 3e
       0.27311137 0.19881086 0.005219407 0.26598462
000120 35 91 05 00 8c c1 05 00 a9 a5 05 80 d8 8c 06 80
       5.11268e-40 5.28609e-40 -5.18605e-40 -6.01538e-40
000130 6a c6 05 80 2a b9 05 00 af 78 05 80 b8 7a 05 00
       -5.30355e-40 5.25602e-40 -5.0247e-40 5.032e-40
000140 d9 bf 05 80 5c 98 58 be 38 83 4b bb 73 00 de 3d
       -5.28e-40 -0.2115187 -0.0031053554 0.108399294
000150 8d 0d 90 3e 33 e4 52 bf 89 49 23 bf 1e 59 76 ba
       0.28135338 -0.82379454 -0.6378408 -0.0009397435
000160 27 3f 41 3c e1 a1 5c 3d 5c c5 02 3e d4 4a c9 3d
       0.011794842 0.053865317 0.12770599 0.098287255
000170 87 ec a1 bc a7 b8 8d bd 01 d1 69 bc 2a 1d 81 3a
       -0.019766105 -0.06919985 -0.014271022 0.000985061
000180 f3 89 16 bf a5 fb 01 bf 6a ce 98 be 7a b2 a4 bc
       -0.58804244 -0.50774604 -0.2984498 -0.020104636
000190 5c 5a 07 3f c0 40 18 3e 7e 6f 4a 3e f1 b3 20 3f
       0.5287225 0.1486845 0.19769093 0.6277457
0001a0 c8 7f 48 3e d7 64 17 be 48 01 91 3e f9 52 66 bd
       0.19579995 -0.14784561 0.2832129 -0.056231473
0001b0 0b 6d 04 bf ce b5 66 bf 93 38 97 3e 92 90 06 bf
       -0.51728886 -0.9012116 0.2953535 -0.52564347
0001c0 74 69 6e 3f 01 22 1b 3f 02 e6 22 bf 1b 18 07 3f
       0.9312966 0.6059876 -0.63632214 0.5277116
0001d0 1b b1 07 3f 64 5d 5b be 98 5c c4 be 95 4a 1e 3d
       0.53004616 -0.21422344 -0.38351893 0.038645346
0001e0 3a 49 87 be 62 1d 3b be 82 a5 0e 3e e6 b9 04 3e
       -0.26423055 -0.18272927 0.13930324 0.1296154
0001f0 b9 6f d9 bd e5 2c 11 bd 8f 8a bd 3e ad e4 0f be
       -0.106170125 -0.035443205 0.37019774 -0.14052077
000200 5f 15 e4 bd e2 aa 44 3e 07 6b c3 bd 5f 14 24 bf
       -0.11136889 0.19205812 -0.09541898 -0.64093584
000210 12 3a 1d 3f f7 f5 c8 3e bf 5a 22 bf 7e 8f f8 bd
       0.61416733 0.39250156 -0.6341972 -0.12136744
000220 ca 2b 9e 3d 58 61 80 3c b0 be 1c bd 71 fa d7 bc
       0.07723196 0.015671417 -0.03826779 -0.026364537
000230 df 5b 12 3e 6d 1d 76 be 9f fb 1a be d7 2b 0b 3e
       0.14292859 -0.24034663 -0.15135048 0.13590942
000240 d6 6d 06 80 bc 5c 05 00 6f 6a 05 80 24 5a 05 80
       -5.90415e-40 4.92444e-40 -4.97359e-40 -4.91514e-40
000250 3d 5f 05 00 d1 71 05 80 27 5e 05 00 bd 6a 05 00
       4.93343e-40 -5.00007e-40 4.92953e-40 4.97468e-40
000260 52 64 05 80 2c 87 90 be f1 17 27 be 52 33 9c 3c
       -4.95166e-40 -0.28228128 -0.16317727 0.01906744
000270 ec 9a ef be be 9f e2 be 0f 83 14 bf fa 72 e9 be
       -0.46797884 -0.442625 -0.5801248 -0.45595533
000280 d7 fe d2 3d f8 55 47 be ee 7b 07 bf 63 b1 17 bf
       0.10302513 -0.19466388 -0.52923477 -0.59255046
000290 9f 32 66 3d 85 a9 a3 3e df 6f 9c 3e 50 a2 23 3e
       0.05620062 0.3196527 0.305541 0.15979886
0002a0 6a 48 d7 be 6e 7a c7 be b5 e2 14 bd d8 ec b0 bd
       -0.42047435 -0.38960594 -0.036349017 -0.08638924
0002b0 a4 b6 75 3c 6d 6a 80 bd fd 7e ae 3d 7a 87 03 bd
       0.014997158 -0.06270299 0.08520315 -0.032111622
0002c0 69 c5 30 3e 44 f7 55 be 85 9c a6 3d 96 70 45 bd
       0.17262806 -0.20895106 0.081353225 -0.048203073
0002d0 26 66 33 3e 82 f7 d4 3d 6f 1c 2e be bc 75 2a 3f
       0.17519435 0.10398771 -0.17003034 0.665859
0002e0 86 35 d1 3e e0 47 02 3f fb d8 b1 3c e2 43 2d 3e
       0.40861148 0.5089092 0.02170991 0.16920426
0002f0 1e 52 2e bf f9 e5 2a 3e af ed 63 3e 2d ec e6 bd
       -0.6809405 0.1668929 0.22258638 -0.11275516
000300 72 f0 0e bc ba 54 d7 bc ea cd 06 3e ba dc e2 3b
       -0.008724319 -0.026285518 0.13164487 0.0069232853
000310 02 7a 88 be 1b de 6b be 92 17 a1 3d 4e f1 c4 bc
       -0.26655585 -0.23033945 0.07865824 -0.024040844
000320 a8 86 3b be 90 ac a5 bd c5 b7 ec 3d 20 71 95 bd
       -0.18313086 -0.08089554 0.11558489 -0.072969675
000330 0c dd 2c 3d 4b ba 79 3c 51 cc 6c be a5 49 84 3e
       0.042202994 0.01524217 -0.23124816 0.25837436
000340 a2 9d be 3e 75 c3 db 3d a8 7c fb be 8f 55 36 bf
       0.3722964 0.1073064 -0.49118543 -0.712243
000350 ee 45 05 bf 78 e2 be 3e 87 11 f9 3e 61 8a 4e 3e
       -0.5205983 0.37282157 0.48646185 0.20169975
000360 ac 6c 05 00 6c 8e 05 80 a7 9c 05 80 f2 92 05 80
       4.98162e-40 -5.10269e-40 -5.15374e-40 -5.11892e-40
000370 2a 8b 05 00 48 89 05 80 8b 5c 05 80 f6 be 05 80
       5.091e-40 -5.08425e-40 -4.92376e-40 -5.27681e-40
000380 25 a3 05 00 a5 28 fe 3e 26 1b 4b 3f 3a f1 d7 3e
       5.17703e-40 0.49640384 0.793383 0.4217623
000390 07 02 6b bd 18 0b c1 3d 95 10 b4 3d 4f 21 4b bf
       -0.05737498 0.09425944 0.08792225 -0.793477
0003a0 66 8a ae bf 50 4c b3 be 3a 98 d8 bd 26 26 3f bd
       -1.3635986 -0.3501916 -0.1057591 -0.04666724
0003b0 02 5f e2 bc 97 e9 7e 3c ec ca 90 3d 5b 98 1d bb
       -0.027633194 0.015558622 0.07069954 -0.002404711
0003c0 18 38 e8 3d 6c 4f 69 3d 05 77 91 3d 0b be 02 bf
       0.11338824 0.05696051 0.07102779 -0.5107123
0003d0 e7 17 16 bf ac 5f 07 bf dd 93 e1 3e 45 c5 84 3e
       -0.5863022 -0.5288036 0.44058123 0.25931755
0003e0 db 39 9c 3a 00 85 aa 3e 92 d4 ae 3e 14 a2 58 3e
       0.0011919098 0.33304596 0.34146553 0.21155578
0003f0 d4 f5 2d bf 5a 4d e5 be 6c 48 55 bf c6 52 18 3e
       -0.6795323 -0.44785577 -0.8331363 0.14875326

encoder.model.2.bias f4 [16]
000000 0b 36 7d 3e ba 52 0c bd f0 97 e3 3d 3c c6 b8 3c
       0.24727647 -0.03425858 0.11112964 0.022555463
000010 16 24 f8 bc a1 42 34 3e 54 aa fb bc 35 97 b2 3d
       -0.030290645 0.17603542 -0.030720867 0.08720247
000020 83 ed 15 3e 29 81 45 3e 41 87 2a 3e 2a 67 e6 3d
       0.14641385 0.19287552 0.16653158 0.11250146
000030 81 37 61 b8 0d 2d 16 be 3b 2c 2a 3e ab f8 4a 3e
       -5.3695872e-05 -0.14665623 0.16618435 0.19821422

encoder.fc.weight f4 [32, 784]
000000 dd d2 82 bd 49 34 1f bd 75 bf 33 3d e2 cb 09 bd
       -0.06387875 -0.038868222 0.04388376 -0.033641703
000010 86 5a 77 3e f4 27 6a be 8a 2a 48 be 37 ec fe bb
       0.24155626 -0.22866803 -0.19547477 -0.007779624
000020 0d 7f 11 3d c9 e5 90 3d 9f a2 39 3e 36 0b 33 3d
       0.035521556 0.07075078 0.18128441 0.043711863
000030 ac 60 31 3e 50 f8 04 be e4 e9 7b 3e 0e e9 91 bd
       0.17322034 -0.12985349 0.24600941 -0.0712453
000040 0d 98 f4 3b c8 d1 3f be 9a ff 31 3e c4 58 c3 3e
       0.007464415 -0.18732369 0.1738266 0.3815366
000050 a2 c6 03 bf 55 c0 36 3e cd 7f 42 bd de 3b 87 3c
       -0.51474965 0.17846806 -0.04748516 0.01650804
000060 bc ca ac 3e a0 b0 10 3f d2 35 44 be 33 ed 01 be
       0.33748424 0.5651951 -0.19161156 -0.1268814
000070 8b f7 c3 3e 10 50 8d 3e 04 a9 29 be ac fb 8c be
       0.38274798 0.27600145 -0.1656838 -0.2753576
000080 f8 31 0e 3d ce fe dd bd 16 7d 17 bf 3f d7 07 3e
       0.034715623 -0.10839616 -0.5917524 0.13265704
000090 33 9d c8 3e 90 8c 53 3e de 18 7d be cb c5 d6 be
       0.39182433 0.20659089 -0.24716517 -0.4194778
0000a0 bc 6d 62 bd 44 09 97 be 87 d5 2e 3e 47 4d 29 3e
       -0.055280432 -0.29499257 0.17073642 0.16533385
0000b0 41 5f d9 bd 1c b4 8b be d7 ce c7 39 54 6b d7 3d
       -0.10613871 -0.2728585 0.00038110345 0.10518518
0000c0 4a 59 1e be e0 f7 e7 3d 7d 78 bf bd 9d 1c 59 3e
       -0.15463749 0.11326575 -0.09349153 0.21202321
0000d0 e1 2f e8 3e b4 e3 23 bf 61 70 80 3e da c5 84 bc
       0.4534903 -0.6401932 0.25085738 -0.016207624
0000e0 41 a3 dc 3e 87 8e 92 3e 0a 09 bc bd c0 60 60 be
       0.43093303 0.28624365 -0.091814116 -0.21911907
0000f0 ac b9 36 be 31 19 0f 3e 12 49 8e 3e 43 21 b8 3e
       -0.17844266 0.13974454 0.27790123 0.35962877
000100 22 82 ee 3e d8 7a f5 be bd a8 43 be 9c b1 ae 3d
       0.46583658 -0.47945285 -0.19107337 0.0852997
000110 f2 f1 0a be 38 33 a9 3d fc 50 a3 bd cb 47 4f 3f
       -0.13568857 0.08261722 -0.07974431 0.8096892
000120 af 2d 9d be 7b f6 1d be cc 69 a5 be 0e 11 80 be
       -0.30698916 -0.15426056 -0.3230728 -0.25013012
000130 8c 41 de 3d fa 34 36 3e 2c 0a 24 3d 4f c8 8a be
       0.10852346 0.17793646 0.040048763 -0.27105948
000140 12 9b 8b be 91 85 28 bf 72 06 14 bf 30 36 07 bf
       -0.27266747 -0.65828806 -0.57822335 -0.5281706
000150 7b f0 04 bd 8f 4a e2 3c 9a b1 06 3d 0d a5 0b 3f
       -0.032455903 0.027623443 0.032884218 0.5454872
000160 50 0f d8 3c e2 fb f2 bc bc 44 8d 3d 4a 00 7f be
       0.02637449 -0.029661123 0.06897876 -0.24902454
000170 e7 e4 e8 bd f2 71 34 3c e2 b4 b9 bd 3a 04 8c bc
       -0.11371785 0.011013495 -0.09067704 -0.01709186
000180 30 e9 94 3d 84 a0 7d bc 92 18 e9 bb c0 92 12 be
       0.072710395 -0.015480164 -0.0071135247 -0.14313793
000190 b2 63 34 3e 10 db a1 3e 53 26 ca bd 71 a1 a2 be
       0.17616156 0.31612444 -0.09870591 -0.31763795
0001a0 c3 19 fb 3d c3 a1 8d be d6 06 5e 3d 25 ad 82 3d
       0.12260773 -0.27662477 0.054205738 0.06380681
0001b0 e7 dc 2c 3e 35 7f 7f be 8a 4c 9b 3e c5 03 a3 3e
       0.16881143 -0.2495087 0.30331832 0.31838813
0001c0 4a 64 4e be 76 4f fa 3e 84 57 a0 bd 16 ac 77 be
       -0.20155445 0.4888875 -0.07829192 -0.2418674
0001d0 c7 16 b3 bc 65 62 f4 3e 4b 06 9f 3c c6 5c 59 bb
       -0.021861447 0.4773132 0.01941218 -0.003316687
0001e0 ae b5 18 3f 1b 1b ad 3e 85 01 c3 3c 2b a6 47 bd
       0.5965222 0.33809742 0.023804436 -0.048742454
0001f0 b0 e9 70 be d9 90 a6 3e f6 3f 19 be 9c cf a3 3d
       -0.23526645 0.32532385 -0.14965805 0.07998583
000200 28 1f d5 3e cb 16 6f 3e 47 03 d0 3d c7 98 46 3d
       0.41625333 0.23348539 0.10156875 0.048485544
000210 6f 43 32 bd a9 67 1a bf c3 c7 0c be 32 67 79 3e
       -0.04352134 -0.6031442 -0.13748078 0.24355772
000220 de 25 94 3b a7 d7 bb 3e 23 fc 81 3e f0 fb 43 be
       0.0045211157 0.36687967 0.25387678 -0.19139075
000230 61 ec d4 bd 3b bf c6 3e 5d 06 81 3d ed 3b fb bc
       -0.10396648 0.38817772 0.06300042 -0.030668223
000240 a5 24 30 bd 97 9c 72 be 90 2f 4a be 7c ef 2f be
       -0.043003697 -0.23692547 -0.19744706 -0.171812
000250 3b 57 5f 3b 70 5b 87 be ff be 15 be a7 2c ee 3d
       0.0034079093 -0.2643695 -0.1462364 0.116296105
000260 10 03 50 3d 99 81 06 3e be 50 94 be 36 59 fe bc
       0.05078417 0.13135375 -0.2896785 -0.031048398
000270 5b 0a 26 3e 6b da 34 3d 78 f0 9c bd 17 62 9d bd
       0.16214888 0.044153612 -0.07663053 -0.07684725
000280 9d 66 e7 bc b7 4f df be e9 82 1f be 10 47 7d 3d
       -0.028247172 -0.43615505 -0.15577282 0.06183535
000290 d1 4e a1 3d 95 d9 1f 3e f0 47 3c 3e 7c bc 2a 3e
       0.07876361 0.15610345 0.18386817 0.16673464
0002a0 8f bb 92 be b8 bf 27 bd f5 6e 25 be 0f cb 1a be
       -0.2865872 -0.04095432 -0.16155608 -0.15116523
0002b0 82 37 40 bd 59 6c 0f 3e c2 e1 01 3f 4a 02 f7 3d
       -0.046927936 0.14006175 0.50735104 0.120609835
0002c0 67 e5 5f 3e 4a 02 de 3e 44 22 5d be 8d 36 b7 bd
       0.21864854 0.4336112 -0.21595103 -0.089459516
0002d0 ae c5 fe 3d 68 88 94 3e f2 b6 c5 be 0c 6f 04 3d
       0.12440048 0.2901032 -0.3861614 0.032332465
0002e0 e0 3b bb 3e cc c2 b8 bd ee 23 28 be 56 63 f6 bd
       0.36569118 -0.090215296 -0.16419956 -0.120306656
0002f0 31 ae a3 bc 89 88 18 3d 0e a3 ec 3d 2c d8 8b 3e
       -0.019980522 0.037239585 0.11554538 0.27313364
000300 c3 df cb 3e e6 90 88 3e cb 2d b9 3d 2b 76 f0 bd
       0.39819154 0.2667305 0.090419374 -0.11741289
000310 6f 3b 7e 9d 7f 6e 39 a7 35 c4 03 a8 fd 86 8d a7
       -3.3647347e-21 -2.5733807e-15 -7.3145064e-15 -3.9281716e-15
000320 30 33 42 a8 dd 9a 80 a8 df 17 bf a6 bf 95 6a a2
       -1.0780263e-14 -1.4278016e-14 -1.3259758e-15 -3.1792188e-18
000330 a6 dc 83 aa 14 31 6c aa 62 d7 b5 aa c5 f7 85 aa
       -2.342338e-13 -2.0978038e-13 -3.230151e-13 -2.379747e-13
000340 59 fa aa a9 1a 32 9c a8 5f 22 a4 a2 e7 c1 85 a9
       -7.592945e-14 -1.7341207e-14 -4.448868e-18 -5.940023e-14
000350 9c 2e 46 a9 d1 19 0b aa 43 d0 ac aa a6 42 21 ab
       -4.400526e-14 -1.2354637e-13 -3.0697848e-13 -5.7291184e-13
000360 5a 32 c0 aa 01 a0 8f a7 2b 36 eb aa f9 09 24 ac
       -3.414099e-13 -3.986395e-15 -4.1781972e-13 -2.3311338e-12
000370 68 b1 80 ac 79 22 b6 aa b7 84 00 aa 21 d9 71 ab
       -3.657675e-12 -3.2353615e-13 -1.1414728e-13 -8.5921727e-13
000380 27 35 29 a6 23 67 63 a7 35 c8 a0 a6 76 0f 1e a9
       -5.870569e-16 -3.1558489e-15 -1.1156496e-15 -3.5096458e-14
000390 40 29 4c a7 e5 67 60 a4 46 8c 2d a5 be be ec a0
       -2.8333049e-15 -4.866026e-17 -1.5052885e-16 -4.0106178e-19
0003a0 53 71 8f a4 c9 f5 89 a3 ae 23 2f a3 8a f1 08 a3
       -6.220834e-17 -1.4957664e-17 -9.4943245e-18 -7.423723e-18
0003b0 01 9f 24 a4 fa 86 e7 a5 d1 5d 02 ac 53 d3 36 b0
       -3.5696513e-17 -4.0163576e-16 -1.852619e-12 -6.6511524e-10
0003c0 40 70 b0 af e0 c2 0d af c7 62 49 ad 0a af de aa
       -3.2093972e-10 -1.2893109e-10 -1.144746e-11 -3.955658e-13
0003d0 c8 57 08 a9 96 b3 b8 be 72 98 aa bd e5 4c ac 3e
       -3.0274204e-14 -0.36074513 -0.08329858 0.33652416
0003e0 ac 7f 77 bd 7d 21 7d be 73 1d 91 3e 27 e5 22 3e
       -0.06042449 -0.24719806 0.2834278 0.15907727
0003f0 2e 47 ac 3e 49 9e b3 3d 45 6a e9 bc 2a 64 bd 3c
       0.33648056 0.08770425 -0.028493056 0.023119051

encoder.fc.bias f4 [32]
000000 24 26 e1 bd 8c b4 47 bd 01 54 ae bd d8 52 f2 bd
       -0.10993603 -0.048756167 -0.08512116 -0.118322074
000010 9a 37 25 be 88 45 fa bd c5 0f 16 3d b9 4f d7 bd
       -0.16134492 -0.12220293 0.036636133 -0.10513253
000020 5e 05 42 bd 1a be 55 bd d4 ee 9f 3d dd 47 62 be
       -0.0473684 -0.052183248 0.07809225 -0.22097726
000030 5d 37 55 3e 89 a4 de bd 96 1f ae bd 55 b5 b5 bd
       0.208219 -0.10871226 -0.08502118 -0.08872477
000040 1d d9 5a be 18 19 c7 3b bd be a0 3d 54 7b 4d 3e
       -0.21371885 0.0060759895 0.078488804 0.20066577
000050 0c 0e 9a 3d a4 63 4f be 8f 77 07 3e 49 30 42 be
       0.075222105 -0.20252854 0.13229202 -0.18963732
000060 1c bd b7 bd cc c5 03 be a6 63 d1 bd 16 68 e0 3d
       -0.089716166 -0.12868422 -0.102240846 0.10957353
000070 4b fd 4e 3e 5d 74 ea 3c f1 d0 24 be 7a 07 24 3e
       0.20213811 0.02861994 -0.1609533 0.16018477

decoders.0.model.0.weight f4 [16, 8, 3, 3]
000000 7c 03 fa bb b2 0d 62 3c 5a b1 65 be 11 47 81 3e
       -0.00762981 0.0137972105 -0.22430936 0.25249532
000010 6e 63 10 3e 76 67 9b 3e ca 4c ec 3e 5f 73 63 3d
       0.1410043 0.30352372 0.46152335 0.05552995
000020 6d c4 ef bc 1d 2e 1f be ca d8 ea 3d 63 fa bd 3b
       -0.029268468 -0.15544935 0.114671305 0.0057976707
000030 2a 2f ea bc ab 00 84 bd 8f 8a 79 3d af a1 32 be
       -0.028586943 -0.0644544 0.060923155 -0.1744449
000040 77 ca a6 bd bd 00 0c 3d a7 7a 8e be ad e9 58 3e
       -0.08144086 0.03418039 -0.2782795 0.2118289
000050 45 e2 09 be ed 2c e6 3d 46 43 5b 3d 57 60 6d bd
       -0.13465221 0.11239038 0.053530954 -0.057953205
000060 90 3a bf 3a ca 81 f8 3d 2d f2 33 bd e4 55 26 3d
       0.0014589597 0.1213413 -0.04393213 0.040609255
000070 17 7a cf 3e 55 6b 9e 3d fb c4 ba bd 3a 4b 05 3e
       0.40522835 0.07735316 -0.09119602 0.13016978
000080 31 ec 9d 3d 71 c0 29 be cd fc f8 bc ca 20 b0 3c
       0.077110656 -0.16577317 -0.030393982 0.02150001
000090 23 c6 25 be b6 a0 8a 3d 1f de 10 3e 3e 34 90 3d
       -0.16188864 0.067689344 0.14147232 0.070412144
0000a0 95 c6 44 bd 00 ad 80 be cf 8f 31 be b9 de 0e be
       -0.048040945 -0.2513199 -0.17340015 -0.1395215
0000b0 3e fc 5f be 23 ca 89 3e 83 92 61 3e 98 ee 24 bf
       -0.21873567 0.2691203 0.22028546 -0.64426565
0000c0 27 94 43 be 4f 38 b2 bd b4 24 41 3e 2c 1b ad 3d
       -0.19099484 -0.08702146 0.18861657 0.08452448
0000d0 d6 be 87 3e ec d1 bc 3d 6f 1f 5d 3e c6 a8 c5 3d
       0.26512784 0.09219727 0.21594022 0.096513316
0000e0 5d 9a e0 3d a7 3c 0b bf 98 c9 90 be 96 3d 78 3c
       0.109669425 -0.54389423 -0.28278804 0.015151402
0000f0 fc 10 33 3c 86 be 50 bf f7 ca ac be 53 9b f5 3c
       0.010929342 -0.81540716 -0.337486 0.02998129
000100 bd f6 8a be f4 2c 1e bd 5e b7 dc be dd 19 56 3e
       -0.2714137 -0.03861709 -0.43108648 0.20908304
000110 67 dc 9a 3e 71 3b 87 be 7f 80 85 bc fb 26 fb 3c
       0.3024628 -0.26412538 -0.016296623 0.030658236
000120 8d ab 65 be 86 a2 62 be 76 2b 7a bd 02 fd 9e bd
       -0.22428723 -0.2213231 -0.061076604 -0.07763101
000130 31 68 77 be 2e 2b c9 be c1 92 e8 bd 82 c3 c2 3e
       -0.2416084 -0.39290756 -0.11356116 0.38039786
000140 d4 76 fb 3e 18 51 fa 3b ea b4 26 be 48 05 13 bd
       0.49114096 0.0076390617 -0.1627995 -0.03589371
000150 2d 64 f4 3d ab 7c 49 bd 39 d4 41 3e 8c ad a0 bd
       0.119331695 -0.04919116 0.18928613 -0.078456014
000160 e2 8d 9f be 37 52 db bd 3e ea 2d 3c a7 8f ec be
       -0.31162935 -0.107090406 0.01061493 -0.46203348
000170 db 87 7b be 0d 2f 5b 3d cd 28 39 bd b2 d1 34 be
       -0.24563543 0.053511668 -0.045204926 -0.17658117
000180 a3 cc 12 be 5b 0f 21 3e 78 2c 24 3e bb e0 1a 3e
       -0.14335875 0.15728514 0.16032588 0.1512479
000190 98 e4 21 bd 45 90 8f 3e 5c 14 db 3e f0 fb 10 3f
       -0.039524645 0.28039756 0.4278897 0.56634426
0001a0 92 4b a2 be a3 fe 8d bd 77 ea 62 be 8d c5 95 3e
       -0.3169828 -0.06933334 -0.22159754 0.29252282
0001b0 7f 2c 35 3e a2 3e 38 be 8d 89 0a bf 0e ee 3e 3e
       0.17692755 -0.17992643 -0.54116136 0.18645498
0001c0 95 d5 96 3d 87 44 d0 be 32 9b f0 3c 6a 27 a2 be
       0.07364956 -0.40677282 0.029370878 -0.31670696
0001d0 f1 84 00 bc 42 50 1b be 22 07 c6 3e e7 1b 34 3e
       -0.007844196 -0.15167335 0.38677317 0.17588769
0001e0 9e 5c c5 be 4a e0 a8 be 32 76 bb bd 9e 80 68 3d
       -0.38547224 -0.3298362 -0.09153403 0.056763284
0001f0 f5 05 8b 3d 79 8a 0e be 14 d4 bf be ba 50 59 bd
       0.067882456 -0.1392001 -0.3746649 -0.053055502
000200 0a 79 c2 be f1 e4 88 bb bb d8 ce 3e 7d 63 8a 3e
       -0.3798297 -0.0041776826 0.40399727 0.2702903
000210 03 ec b9 3d df 43 7f bc 63 06 e5 be f9 df 6e be
       0.09078219 -0.015580147 -0.44731435 -0.23327626
000220 2b 7a 20 3d ed 43 c2 bc b4 a4 0e be 41 db 4b be
       0.03917901 -0.02371403 -0.13930017 -0.19907857
000230 ca 7e 54 3e cb 46 d4 be 6a 00 3e be f1 19 fd bd
       0.20751491 -0.4146026 -0.18554845 -0.123584636
000240 97 f2 19 be 13 ef aa be 6d 5c c3 3c 39 7a b7 be
       -0.15033947 -0.33385524 0.023847783 -0.35835436
000250 16 cd 1f bf 22 e4 89 be 6c 1c 48 be 91 e2 73 3e
       -0.6242231 -0.26931864 -0.19542092 0.23816897
000260 56 27 50 be d3 cc 05 be 59 5f 9d be bc bc f6 3c
       -0.20327505 -0.13066415 -0.30736807 0.030119292
000270 fc bd 65 bd ef b7 88 be 95 fa 10 bd d7 94 8f be
       -0.056089386 -0.2670283 -0.035395224 -0.28043243
000280 59 17 10 bf 76 fa a9 3d 0a 3f ca bb e6 dc 82 3e
       -0.56285626 0.08299725 -0.0061720656 0.25559157
000290 e5 fd 5b bd 09 2e 9f 3d 3c 0f cf be 8e 18 07 bd
       -0.05370893 0.077724524 -0.4044131 -0.0329824
0002a0 34 66 d5 3d 59 6f 9b 3d a9 ec 8c bd e8 7f 08 3e
       0.10419884 0.07589597 -0.06881077 0.13330042
0002b0 b1 48 cd bd d6 bc 8f bd ba 68 94 bd 2a f8 a0 be
       -0.100236304 -0.070184395 -0.072465375 -0.31439334
0002c0 4a 92 6d 3e 78 b3 45 3e 65 87 09 3e c0 11 a9 bb
       0.23200336 0.19306743 0.13430555 -0.0051595867
0002d0 6c 4a b8 3e 37 5d c6 3d ae ce 2b bd 4d 69 ab 3e
       0.3599428 0.09685748 -0.041945152 0.33478776
0002e0 a9 99 b3 bd ee 75 c5 be 26 d6 c0 bd c7 28 4b be
       -0.08769543 -0.38566536 -0.094158456 -0.19839774
0002f0 fc 6d 34 be 2e 39 9e be 6b 61 ac 3e ce e1 4e 3e
       -0.1762008 -0.30903 0.33668074 0.20203325
000300 55 f3 98 3e 32 cf de 3e c5 ff 04 3f a2 95 18 3e
       0.29873148 0.43517452 0.51952773 0.1490083
000310 21 41 49 be 4d 17 87 be 62 07 d4 3d c8 06 b6 3e
       -0.19653751 -0.26384965 0.10352971 0.3555205
000320 6f 69 75 3e c8 ab 51 3e e5 2a f3 3e cb 95 b9 3d
       0.23966001 0.20475686 0.47493663 0.09061774
000330 de 54 bb bc db 41 85 be bb 22 9b 3d 5e ce 0a bd
       -0.022867616 -0.26026806 0.07574984 -0.033888213
000340 3e 75 6d be f2 ba 6a be 29 e6 cb 3e 2f f5 5b bd
       -0.23189256 -0.22922876 0.39824036 -0.053700622
000350 aa 89 b2 3e c8 cd 38 3e be 2b b3 be 9f 0f d4 bb
       0.34870654 0.1804725 -0.3499431 -0.0064715887
000360 4a b0 57 be 0e 4b bf be 4d 27 db 3c 20 c8 97 3d
       -0.21063343 -0.3736195 0.026752139 0.07411218
000370 ab c7 2d bd 3f ea a8 bc 4f 32 c6 3d 8a 59 81 be
       -0.042426746 -0.02061951 0.09677564 -0.25263625
000380 78 68 03 3e 18 74 3b be c0 b8 c8 bd 8e 8b 04 bd
       0.1283282 -0.18306005 -0.09800863 -0.032359652
000390 c5 56 76 be 35 3c ba be f5 5b 31 3e 18 ae df bd
       -0.24056537 -0.3637406 0.17320235 -0.109218776
0003a0 76 62 3e bc 78 ed d6 3e 3f 1f 11 bd 89 9d 99 bd
       -0.011620155 0.4197805 -0.03543019 -0.075007506
0003b0 9c bb 93 be 93 38 69 be 2d c6 69 be 61 6e 64 3c
       -0.28854072 -0.22775488 -0.22829504 0.013942332
0003c0 15 86 44 3e 05 e0 58 be a2 a8 35 bd e8 ac 32 bd
       0.19191773 -0.21179207 -0.044350274 -0.043621927
0003d0 28 5b 54 be 1f 99 61 3d 28 9e 93 be c0 be ef bd
       -0.20737898 0.05507767 -0.288316 -0.117063046
0003e0 9c 24 9c bd db ac d6 bd 32 ab 80 be f1 49 65 bc
       -0.0762417 -0.10482188 -0.25130612 -0.01399468
0003f0 fd df 45 3d 48 ee d2 3c c9 f3 9b bc 3e 7e c1 3d
       0.048309315 0.025748387 -0.019037144 0.09447907

decoders.0.model.0.bias f4 [8]
000000 66 83 1d bd f6 50 5f be bd b3 15 bd af f6 5e 3e
       -0.03845539 -0.21808228 -0.036548365 0.2177379
000010 2e 36 dd bd db f1 f0 3c 6d 88 da bd e2 c0 60 be
       -0.108013496 0.0294122 -0.106705524 -0.21948579

decoders.0.model.2.weight f4 [8, 1, 3, 3]
000000 09 ec 2a be 70 7e 38 be 8a c3 34 be 24 b3 21 be
       -0.16691603 -0.18016982 -0.17652717 -0.15790993
000010 22 88 35 bf 63 a0 f2 be 3a b8 2c be af aa 77 be
       -0.7091085 -0.4738799 -0.16867152 -0.24186204
000020 8c e0 98 bd ee 75 93 bc 63 f1 6a bd fa 87 e4 3d
       -0.07464704 -0.01800057 -0.05735911 0.11158748
000030 98 96 c1 bd 6a 2f f0 be b7 8a 34 be 7f 1c a3 bd
       -0.094525516 -0.46911174 -0.1763104 -0.079644196
000040 5d 93 fa be 6a 4e 04 be 51 2f 18 3e 04 b8 74 be
       -0.48940554 -0.12920538 0.148618 -0.23898321
000050 47 16 ae bd a1 af a4 3e cf 7e cd 3d 02 e1 7d bd
       -0.08500343 0.32165244 0.100339524 -0.061982162
000060 bb 36 c8 be 32 be 10 bf 72 1c 94 be 36 8f 97 bd
       -0.39104256 -0.56540215 -0.28927952 -0.07400362
000070 ba 5c db bc e9 0d 91 be 42 41 0e be 7e a1 1b bf
       -0.026777614 -0.28330925 -0.13892081 -0.6079329
000080 15 93 f8 be 03 1c 53 be e6 3c e0 be 69 1a 43 be
       -0.48549715 -0.20616154 -0.43796462 -0.19053043
000090 51 11 dd 3d 42 ba 0b 3e 4d 0c 4f be bb 08 82 be
       0.107943185 0.1364527 -0.20219536 -0.25397286
0000a0 02 b7 06 bf 86 98 0e bf ad d4 47 be 33 aa 56 be
       -0.52623 -0.5570148 -0.19514723 -0.20963363
0000b0 ef 36 9d be 8e 72 c4 3d 0f 95 24 be f1 ee 7f be
       -0.30705974 0.09592162 -0.16072486 -0.24993493
0000c0 9d 09 4e bb 7b e5 23 bf 10 78 11 bf 5f c1 74 be
       -0.0031438835 -0.64022034 -0.56823826 -0.2390189
0000d0 79 d8 20 bf 4a 48 69 be dc 66 c4 3e 21 4d 61 3e
       -0.6283031 -0.22781482 0.38359725 0.22002079
0000e0 05 23 18 bc a6 f3 1d 3e 2e 0b f4 be 61 5a 01 bf
       -0.009285693 0.15424976 -0.4766478 -0.5052853
0000f0 c5 d8 09 be 2b 3d 16 bf 4d 19 1c be 84 d2 bb be
       -0.13461597 -0.58687085 -0.15244026 -0.36684048
000100 6c 25 ac bd 91 a6 86 3e c4 6e f0 be bc c0 73 bd
       -0.08405575 0.26298955 -0.46959507 -0.059509978
000110 1b 59 0c bd f8 6e 25 3e ce e7 9d 3e 3d 90 12 3e
       -0.034264665 0.16155612 0.30840915 0.14312835

decoders.0.fc.weight f4 [784, 32]
000000 11 6c 02 bd 66 c9 22 be e2 62 57 3e 40 40 17 bd
       -0.03184134 -0.1589714 0.21033815 -0.036926508
000010 29 0e 98 3e 7f ec c5 3d b9 d6 0d 3d 25 40 21 3e
       0.29698303 0.09664249 0.034628604 0.15747125
000020 da 2f 1b 3d 78 82 3c 3d 4e 93 0a 3d 05 3f 27 be
       0.03788743 0.046022862 0.033831887 -0.16332634
000030 19 e2 8c be 78 eb 39 3e d8 8e 8b 3e 47 bd 86 bc
       -0.2751625 0.1815623 0.2725742 -0.016447676
000040 1c c2 0f 3e 60 e8 07 be ac 7d ce be fc 0f 6c be
       0.1403889 -0.13272238 -0.40330255 -0.23052973
000050 14 6f 87 bd 03 c9 a7 3d be b3 2e bc 8e 06 55 3e
       -0.06612983 0.08192637 -0.010662971 0.20803282
000060 6e fa ec bc 63 dd b5 bd f3 d2 be ba 6a 79 3f 3d
       -0.028928008 -0.08880117 -0.0014558717 0.04674665
000070 6b 80 f7 bd 2d 42 46 be 66 51 ce bd 0c 3f 90 bd
       -0.12085041 -0.19361182 -0.10074119 -0.07043275
000080 b9 64 41 3e 6c 1c 30 be 84 4b 87 bd dc 81 2c 3d
       0.18886079 -0.17198342 -0.066062 0.04211603
000090 16 f5 83 3c 81 b8 4a 3e 3b e7 87 bd c3 e4 b5 bd
       0.016108077 0.19796945 -0.066359006 -0.088815235
0000a0 f2 fc 9a ba 31 e1 2e 3e 6b 9b 9c 3d c9 c6 01 be
       -0.0011824651 0.17078091 0.07646831 -0.12673487
0000b0 91 c9 59 be 69 01 ba 3e 4c 06 8b 3d dc 81 b7 be
       -0.21268298 0.363292 0.067883104 -0.35841262
0000c0 c6 8b c3 bd c6 8a 1d 3c 08 a5 23 3d 50 f4 05 bd
       -0.09548144 0.009615606 0.039952308 -0.032703698
0000d0 44 82 bf 3c 67 90 c4 3d 52 0c 74 be f1 41 1b be
       0.023377545 0.09597855 -0.23832825 -0.15161873
0000e0 fc 69 87 3d 52 5b c1 3d 2c a3 8f 3e 6f 88 04 be
       0.06612012 0.09441246 0.28054178 -0.1294267
0000f0 e5 6f 5f bd 61 ab 25 be a2 98 97 3d 71 8d ed 3c
       -0.05455007 -0.16178657 0.07402159 0.028998109
000100 64 64 46 be c9 97 63 bc 39 c5 f8 3d 36 d2 4e be
       -0.19374233 -0.013891169 0.12146992 -0.20197377
000110 37 3b 77 3e 94 30 6b 3e 7f 67 bb 3d f9 85 4b 3d
       0.24143682 0.2296775 0.091506 0.049688313
000120 97 77 05 be 73 fa 71 be aa 46 40 3e 0e 9d 26 3d
       -0.13033901 -0.23630695 0.18776956 0.040677123
000130 47 79 f3 3a 32 c4 75 bd 26 6f 6c bd 47 f8 66 be
       0.0018575572 -0.06000156 -0.057723187 -0.22555648
000140 30 60 78 be 1e fc b1 bd b8 2f e8 3b 25 20 69 3c
       -0.24255443 -0.08690666 0.0070857666 0.014228855
000150 5b 0e d1 ba 4e 88 16 be 4b bc 27 3d 97 a7 38 3d
       -0.0015949713 -0.14700434 0.040951055 0.0450817
000160 25 a8 65 3d 31 3c 26 be a5 fc c8 3d 9e fc 05 3c
       0.05606856 -0.16233899 0.09813813 0.008177904
000170 ab 1b 9b bd 36 71 96 3d af 2d 7e 3d d8 48 26 3e
       -0.075736366 0.07345812 0.062055286 0.16238725
000180 1c 7e 39 3e 2a 19 df bc a0 6c 93 be 4c d2 ca 3c
       0.18114513 -0.027233679 -0.28793812 0.02475848
000190 28 8f 48 bb 32 bf 7f 3d 40 da 91 bd ff b2 67 bd
       -0.0030602906 0.062438197 -0.07121706 -0.05656719
0001a0 f4 8e 03 3e 7e 93 25 3e ff 36 0d be d3 8f 48 bd
       0.12847501 0.16169545 -0.1379051 -0.048965286
0001b0 02 7b 0d 3e d1 2a 3b bd 76 c0 f2 3d 40 d4 1d be
       0.13816455 -0.04569513 0.11853115 -0.15412998
0001c0 11 47 77 3d 82 06 a5 3d e0 ad 77 3b 71 56 ec 3c
       0.06037051 0.08057882 0.0037792847 0.028849812
0001d0 2e 3d 59 3d 32 c4 02 3e bc a4 17 be 74 e7 16 3d
       0.05303686 0.12770155 -0.14808935 0.036841825
0001e0 95 ec 36 be 9f 6c 72 3e d1 ec 87 3d 76 04 9d 3d
       -0.17863686 0.23674248 0.06636966 0.076668665
0001f0 13 e1 e9 3d 17 df c7 bd 23 b0 20 3e 47 6f 04 bd
       0.114198826 -0.09759348 0.15692191 -0.032332685
000200 5e 58 9d bb 6b 5f 58 3c 3e b5 da 3a 8e 72 53 3e
       -0.004801794 0.013206343 0.0016686094 0.20649168
000210 c1 81 ab 3b 21 91 7e 3b 70 ab 13 bc b8 d0 6e 3d
       0.0052339737 0.0038843828 -0.009013042 0.05830452
000220 90 85 b0 3e b6 96 55 bd d5 16 37 be 99 0f a0 bd
       0.344769 -0.052145682 -0.17879803 -0.07815475
000230 b8 89 e3 bd ce f4 26 3d 46 2d 3f be cb cf 0b bc
       -0.11110252 0.040760808 -0.18669614 -0.008533428
000240 d7 c6 9d 3e 4b 08 06 be 33 9f 97 be 1f 0f 5c be
       0.30815765 -0.13089101 -0.29613647 -0.21490143
000250 ef 33 37 3d 50 73 90 be 86 59 47 3c 59 80 af 3e
       0.044727262 -0.28212976 0.01216734 0.3427761
000260 9f 65 70 be 97 cf 1b 3e c3 aa 83 3a 10 16 d7 bc
       -0.23476265 0.15215908 0.0010045398 -0.026255637
000270 f5 f7 8c be f8 38 44 3e f1 2b 81 be 01 b2 df 3d
       -0.27532926 0.19162357 -0.25228837 0.109226234
000280 22 8f ae bc 10 39 20 3e 3e 26 67 be 11 e6 41 bd
       -0.021308485 0.15646768 -0.22573182 -0.04733855
000290 c1 cc c7 3d 91 e1 a4 bd 9d 2b 0a be 4c 16 6a bc
       0.097558506 -0.08050836 -0.134932 -0.014287543
0002a0 71 c6 2a 3e 26 27 2e be 3a be 37 3e 02 6f 80 3c
       0.16677262 -0.17007121 0.1794366 0.015677933
0002b0 e5 b9 22 be 04 a5 32 be ae 9a 53 bd 4d c6 98 bc
       -0.15891226 -0.17445761 -0.051661186 -0.018649245
0002c0 1d fe 75 3e de c6 3e 3e 57 b9 90 3e 9f 70 ea 3c
       0.24022718 0.1863055 0.28266403 0.028618155
0002d0 e2 99 0b 3e f5 e4 f0 3d 7f 3f 49 be 3f 58 27 bd
       0.1363292 0.1176242 -0.19653128 -0.040855642
0002e0 1d 3f 86 be e2 5e b4 3e 88 b5 a6 bd dc 9d f8 bd
       -0.26220027 0.3522864 -0.08140093 -0.12139484
0002f0 2a 81 b8 ba a2 fd 05 3e f6 07 c7 be 4a 37 c4 bd
       -0.001407658 0.13085034 -0.3887326 -0.09580858
000300 1e 87 ec 3e 5d cc 7b 3d 13 6e 66 bd c5 25 42 bd
       0.46196836 0.061474193 -0.05625732 -0.0473993
000310 88 2e 81 bd 22 78 a1 3c a0 8b 5a 3e 38 9c 5a 3d
       -0.06307703 0.019710604 0.21342325 0.053371638
000320 ba c2 e8 3d 39 98 1b be 7d e9 ba bd 5d b1 c4 bc
       0.11365266 -0.15194787 -0.091265656 -0.024010355
000330 30 ec 99 be 0f 03 2c be 53 2a f6 3d 9e a9 a2 3a
       -0.3006301 -0.16798042 0.120197915 0.0012410169
000340 36 c9 09 3f 0f f8 ac be b8 b8 a9 be 9f b9 55 be
       0.5382265 -0.33783004 -0.33148742 -0.2087159
000350 74 72 f6 3d 4a a6 2b bd 43 8e f7 bc df 13 76 3c
       0.12033549 -0.041906632 -0.030219203 0.015019386
000360 e3 eb f1 bd f0 e9 fd bd 9e ca 1d be 33 a5 29 3d
       -0.1181257 -0.12398136 -0.15409324 0.041417312
000370 00 19 90 be 44 8e 41 bd b5 68 97 3d 83 f8 87 bc
       -0.28144073 -0.047254816 0.07393018 -0.016597992
000380 81 54 a8 bc 07 3f dc bd 23 3f e3 bd 59 c9 3f 3e
       -0.020548107 -0.10754209 -0.11096027 0.18729152
000390 db e7 6f be a7 e7 32 be d7 46 96 3e 27 b4 9d 3e
       -0.2342829 -0.17471181 0.29350922 0.30801508
0003a0 2b a0 64 3d e1 4f 29 3e 93 f1 1b 3e b4 1a 08 be
       0.05581681 0.16534378 0.15228872 -0.13291436
0003b0 db 97 99 3e 04 d4 1f 3d b5 e5 ce 3d 0a ed c7 bd
       0.2999867 0.039020553 0.10102407 -0.097620085
0003c0 af af 20 be a4 99 31 3e fd 5e ea 3d 3c 09 d3 3c
       -0.15692018 0.17343765 0.11443899 0.02576124
0003d0 15 79 2f be f0 3a 91 3d 8e 90 5a be 6b 33 18 3e
       -0.17136033 0.070913196 -0.21344206 0.14863364
0003e0 7d d5 34 3e 70 d0 80 3e 82 69 25 be 94 4f 9e bd
       0.17659564 0.25159025 -0.1615353 -0.07730022
0003f0 c1 e9 29 3e c6 4d 8c bd 53 69 e3 3d ea 18 2c 3d
       0.16593076 -0.068507716 0.111040734 0.042015947

decoders.0.fc.bias f4 [784]
000000 35 5c eb bc 7f d0 64 3d 82 b8 51 3e d4 d4 38 3d
       -0.028730491 0.0558629 0.2048054 0.045124844
000010 2c 5f 5d 3b 91 34 e3 bd 4f 4a e3 bd 22 79 b1 3d
       0.003377865 -0.110940106 -0.110981576 0.086656824
000020 fa dd 84 3e 11 ad b6 bc 3f 8a 96 3e 44 df 05 bc
       0.25950605 -0.022299321 0.29402348 -0.008170906
000030 c8 80 8d bc 7c 6a 1e be c9 5f bf be 78 de 77 3e
       -0.017273322 -0.15470308 -0.37377766 0.24205959
000040 25 1b 04 bd 3e 2b c4 bd 3d 1d 57 bd c4 cc 87 3d
       -0.03225245 -0.0957856 -0.05251812 0.06630853
000050 4a c5 d2 bc 8f 38 a8 3d e9 74 79 bd 94 00 2e be
       -0.02572884 0.08213913 -0.06090251 -0.16992408
000060 eb ea 53 3e cb 89 dd 3d 8d d8 70 bc 26 ea cc 3d
       0.20695083 0.108172975 -0.014700067 0.10005598
000070 0a 9c a0 3e 95 7b 9d be 47 1b 42 3e f4 a8 95 3d
       0.31369048 -0.30758348 0.18955718 0.07307616
000080 54 4b 82 bc 12 e8 c5 3d 89 2c f7 3d a5 f4 f2 bd
       -0.01590506 0.096634045 0.12069041 -0.118630685
000090 b5 22 eb 3e 0e cb 27 be 50 ed 9f 3d 2e c2 8b be
       0.45924917 -0.16386053 0.07808936 -0.27296585
0000a0 9f b9 c2 3d 8b e4 26 be c6 76 8e be 23 c1 1a 3d
       0.09508061 -0.1629812 -0.27824992 0.037781846
0000b0 6e 55 b2 3e 2a 17 ea bd 2c 94 97 bd ce 9a 56 3e
       0.34830803 -0.114301994 -0.074013084 0.20957491
0000c0 e2 0f 18 bd 73 0a 70 bd 87 11 28 3e a8 3b 52 bd
       -0.037124522 -0.058603715 0.16412936 -0.051326424
0000d0 10 28 94 be 52 9a ff bd 82 8b 00 be e1 1b 00 3e
       -0.28936815 -0.12480606 -0.12553218 0.12510635
0000e0 28 9d 72 3e b6 ee b4 3e 2a 9e 5b 3e e1 e2 5b be
       0.23692763 0.35338372 0.21447054 -0.21473266
0000f0 74 16 7d 3d 5d 59 0e be 3b b7 e9 bc e6 f6 a7 3e
       0.06178899 -0.13901277 -0.028529754 0.32805556
000100 ca fc b9 3d f7 4d 2f 3e b6 71 ad 3e 61 ed aa be
       0.09081419 0.17119585 0.33875817 -0.3338423
000110 42 f4 20 bd 1d fe 8d 3e 1d 1d 1f bd 19 3f 8f bc
       -0.039295442 0.27732936 -0.038846124 -0.017486142
000120 d4 0d c5 bd 41 07 f0 3c 6e 1b bf 3c da 0b 08 3e
       -0.09621778 0.029300334 0.02332851 0.13285771
000130 77 73 88 3e 06 27 f9 3d 29 52 b9 be 38 21 15 3f
       0.26650593 0.12165646 -0.36195496 0.5825381
000140 36 b1 9d 3e 3f d1 e0 3b 9c 56 f7 3e 58 27 21 3c
       0.30799264 0.0068608816 0.48308265 0.00983604
000150 94 08 22 be ea cb f6 bd 9d f2 1f bd cc b7 d2 3d
       -0.15823585 -0.12050612 -0.039049733 0.10288963
000160 1a 9c 23 be a0 15 0b 3f 6d 4f d0 be f6 11 69 3e
       -0.15977517 0.5432987 -0.40685597 0.22760758
000170 d7 f3 3f 3d d5 bc e3 bd 5f dc 9d be 19 9a 21 3d
       0.046863403 -0.11120001 -0.30832192 0.0394536
000180 e8 94 e9 bc df 45 c3 bd 7d 9e 90 bd 30 cd f5 bd
       -0.028513387 -0.09534811 -0.07061479 -0.12002027
000190 4b 1f 6f be ef 62 61 3e 1c 0b 89 ba 48 76 33 3e
       -0.23351781 0.22010396 -0.0010455581 0.1752559
0001a0 91 8d 2c be 8c 29 e9 be f9 75 cc 3c 4d 0c f3 3c
       -0.16850878 -0.4553951 0.024958597 0.029668951
0001b0 83 b6 a5 be bd 59 29 bd 3f 8e 51 3e 9a 8c 96 3d
       -0.32365808 -0.041345347 0.20464419 0.07351036
0001c0 27 80 44 3e b6 c2 a3 be b3 3c 9e 3e 64 7d 79 3c
       0.19189511 -0.3198449 0.30905685 0.015227649
0001d0 f7 68 89 bd 47 59 14 bc d7 f6 d4 3d b1 7e 98 be
       -0.067094736 -0.0090544885 0.103986435 -0.29784158
0001e0 65 94 69 be e2 3a a3 3d 3a ca d5 bd 75 38 f6 3d
       -0.22810514 0.079702154 -0.10438962 0.12022487
0001f0 32 ca 61 be f7 04 39 bd fb f3 88 3e 59 b5 b5 bc
       -0.22049788 -0.04517075 0.26748642 -0.0221812
000200 eb 31 17 bd 42 c7 79 3d 4c b6 fc 3d d8 bc cd be
       -0.03691284 0.060981043 0.12339458 -0.4018314
000210 97 c4 ef bd 23 ac 48 3d ed 1f 93 bb 60 d2 19 be
       -0.117074184 0.048992287 -0.00448989 -0.15021658
000220 e2 65 83 be f8 c0 ef 3e 67 3e f3 3e 99 c5 9f 3e
       -0.25663668 0.4682691 0.47508547 0.31205443
000230 ec f3 9e 3e 73 6a 5e be 77 71 aa bd d1 99 01 3e
       0.31045473 -0.21720295 -0.08322423 0.12656333
000240 93 a7 38 3e 6c f3 b9 bd cc fb f4 be 5c 5e be 3b
       0.18032674 -0.09079632 -0.47848356 0.0058095884
000250 ad 72 9a 3e 17 41 51 be b7 87 9e 3d 74 8c 1e bc
       0.30165616 -0.20434986 0.07740729 -0.009677041
000260 10 24 37 be 78 9c 98 be e5 38 89 3d 0f 12 ea bc
       -0.1788485 -0.29806876 0.06700305 -0.028573064
000270 a5 59 c1 bc 7c e2 d5 3e dd d7 0c be 2c e6 5a be
       -0.023602316 0.41774356 -0.1375422 -0.21376866
000280 c7 21 99 bd b6 9f 39 bd ac 1a c6 3d 32 1c 09 bd
       -0.07477146 -0.045318328 0.09673056 -0.033474155
000290 52 cc 81 3e 0f 0f 3c be 11 5e c6 3d 60 12 65 3d
       0.25351197 -0.1836512 0.096859105 0.055925727
0002a0 d4 05 4b bd b7 73 02 3d c1 9e f4 bc 16 7c 60 3e
       -0.049566105 0.031848636 -0.029860856 0.21922335
0002b0 73 17 a4 3c 21 a9 6b 3e 7f f2 bc 3e 4b 22 a9 be
       0.020030713 0.23013736 0.3690376 -0.33033976
0002c0 fe 86 05 be 0d 19 ba bd e6 87 ab 3d cb a1 64 3d
       -0.13039777 -0.09086809 0.0837553 0.05581836
0002d0 29 26 21 be 75 29 94 be 4f 41 06 be 30 e2 46 3d
       -0.15737213 -0.2893788 -0.13110851 0.048555553
0002e0 0f e6 59 be 07 82 87 be 44 cf 17 3e 0e f4 9d be
       -0.21279167 -0.2646639 0.1482516 -0.3085026
0002f0 08 c1 ba be 1b fe 90 be 23 aa 7e bd c6 06 5d be
       -0.36475396 -0.28318867 -0.062173974 -0.21584615
000300 61 71 64 bd 39 e5 6b be 12 d1 a6 be 95 2c ac be
       -0.05577219 -0.2303666 -0.32581383 -0.33627763
000310 54 7c f0 3c aa be b4 3d 11 1f 91 3e ff 49 2f 3d
       0.02935616 0.08825429 0.28344014 0.042795178
000320 01 2b 19 be cd 4c 13 be b1 3d bd bd 6d 22 f4 3d
       -0.14957811 -0.14384766 -0.09240282 0.11920629
000330 b6 bd d5 bd 82 55 b9 bc c7 6c 90 3d 35 c9 63 be
       -0.10436575 -0.022623781 0.07051998 -0.22244723
000340 4d 4d 57 be 4d ae 04 be a5 8f cd 3d 1d be 07 be
       -0.21025582 -0.12957115 0.10037164 -0.13256116
000350 62 97 c8 bd a9 e4 f3 3d cf 2f 54 bb 3e 5d 88 3c
       -0.09794499 0.11908848 -0.003237713 0.016646024
000360 ad 93 6d 3e 7b 29 2a bd 78 03 85 3d 64 7d b9 bd
       0.23200865 -0.041543465 0.06494802 -0.090571195
000370 bd 5d 6f bc d5 1a 71 bd 4a ae d3 3c e1 9d d5 3d
       -0.014609751 -0.05886348 0.025839943 0.10430504
000380 24 d9 ec be 8b 76 7e be 00 e0 e6 be f9 16 c5 3d
       -0.46259415 -0.24849908 -0.45092773 0.09623522
000390 32 0f 71 3d 12 84 f4 be f6 06 99 be fa a5 5d be
       0.058852382 -0.47757012 -0.29888123 -0.21645346
0003a0 28 47 e8 be dd 97 84 be 3f 78 76 be f5 cd c3 be
       -0.45366788 -0.25897112 -0.24069308 -0.3824307
0003b0 0e 52 6c be 09 cb ff be b0 98 35 be df 25 80 be
       -0.23078176 -0.4995959 -0.17734027 -0.25028893
0003c0 7c 3a 13 be 0c 95 97 be d4 71 93 be d1 93 b1 be
       -0.14377779 -0.296059 -0.2879778 -0.34683087
0003d0 a5 43 8d be 9f b2 5f be 94 1d fe 3c d4 d5 4f 3e
       -0.2759067 -0.21845482 0.031019963 0.20296413
0003e0 9a dd b1 bc 2c 79 9e bd 26 4a 98 3c 0e b2 90 bd
       -0.021712113 -0.077379555 0.018590044 -0.07065211
0003f0 24 d8 e5 3d 58 9d 6f 3e c2 20 4c bb 9b d3 b4 3e
       0.11222866 0.23399866 -0.0031147455 0.35317692
