models/model_octminst_7.pth (torch, 563411 bytes, 27 tensors)

weights f4 [4, 784]
0.8727411 0.8682696 1.0405443 0.8546656 0.7628513 0.7132942 1.0312048 0.8493321
0.9880853 0.8364538 1.1334172 0.92806166 0.845305 0.754163 0.99251413 0.8251121
0.97588056 0.86674774 1.0470476 0.869782 0.87278306 0.7144972 0.9142213 0.8342662
0.9264854 0.918066 1.0787376 0.9196364 1.0159059 0.74560636 0.70799476 0.5788499
0.6376367 0.2595513 0.45338663 0.3399546 0.6810923 0.5492187 0.86110187 0.689817
0.7054193 0.6575138 0.72458375 0.79046494 0.5633063 0.50173914 0.59900194 0.7108375
0.8182935 0.71076965 0.79031855 0.73895836 0.79894495 0.7164429 0.72795796 0.7575293
0.52617675 0.5364522 0.7804025 0.7850219 0.8556261 0.91915697 1.0844141 0.9582171
0.79244614 0.76957893 1.0846891 0.8721577 0.73304415 0.6865998 0.9447764 0.8143266
0.7890063 0.6558757 0.87818235 0.73411196 0.90219074 0.86477315 0.9791261 0.8873233
0.9869529 0.7954333 0.54624766 0.56804645 0.8656899 0.7143926 0.79809695 0.8012437
0.8000898 0.7133656 0.7407273 0.70201826 0.74388534 0.6733915 0.83535635 0.5773874
0.51261353 0.40538985 0.6800152 0.543464 0.68688065 0.5356057 0.73136634 0.5871925
0.69919455 0.4690176 0.6564427 0.42782298 0.4873667 0.5060715 0.57282615 0.5336798
1.2323068 1.0788369 1.1635704 1.1155952 1.2800022 0.9139999 0.97870964 0.81441236
0.7395844 0.6692938 1.0988522 0.9395231 0.98094064 0.6817496 0.70328575 0.6496035
0.7187551 0.5712504 0.82644683 0.5702752 0.9637743 0.8608956 0.91488355 0.6818381
0.5539553 0.48637226 0.73110443 0.6328082 0.7009839 0.6978854 0.76720506 0.7190052
0.8277002 0.5920982 0.46695232 0.5282329 0.57779706 0.94495404 1.11396 1.1743097
1.1388954 0.8980767 0.7565242 0.7589571 0.73289365 0.6541383 0.6735195 0.6599452
0.6024521 0.56095374 0.80268997 0.690001 0.6361573 0.67722017 0.93042475 0.9564481
0.9756086 1.0445777 1.2548511 1.2253896 1.1313761 1.1032773 1.0729178 0.90176773
0.7942122 0.8245384 1.1182888 1.0215006 1.3916034 1.1765542 1.1722836 1.0903568
0.8350251 0.6814156 0.73223823 0.7137356 0.86517173 1.0152506 1.1640097 1.0736895
0.9382274 0.8346474 1.0836723 1.0127635 1.4433044 1.5683452 1.5008445 1.3337803
1.0164292 1.0792453 1.0327865 0.9270087 0.80792946 0.9080578 0.58562726 0.4316157
0.8883964 0.92153454 0.7023988 0.72364455 0.74211365 1.1030617 0.9599606 1.0952852
0.8736111 0.8145216 0.76369417 0.78680897 0.4938561 0.68089545 0.78109205 0.7459567
1.4156493 1.3194408 1.4165598 1.4491819 1.155022 1.0320072 0.9283553 1.0762218
1.258572 1.0616624 1.1335541 0.96165097 0.97920847 0.93883085 0.63160884 0.67430323
1.3271924 0.99678767 0.7980365 0.7146439 0.9482167 0.9004302 1.0295532 1.4021424
1.4416562 1.2862195 0.9105348 0.71639204 1.1029005 1.1192738 0.84691626 0.71828973
00000000: f66b 5f3f eb46 5e3f 8e30 853f 5dcb 5a3f
00000010: 394a 433f 739a 363f 85fe 833f d46d 593f
00000020: 29f3 7c3f d621 563f d113 913f 7395 6d3f
00000030: e965 583f d410 413f 6815 7e3f 8c3a 533f
00000040: 4fd3 793f 2ee3 5d3f a805 863f 08aa 5e3f
00000050: b66e 5f3f 4ae9 363f 680a 6a3f 7892 553f
00000060: 262e 6d3f 6006 6b3f 1314 8a3f 4b6d 6b3f
00000070: 3409 823f 0fe0 3e3f 253f 353f 822f 143f
00000080: 293c 233f e8e3 843e 4b22 e83e 880e ae3e
00000090: 115c 2e3f 9999 0c3f 2c71 5c3f d997 303f
000000a0: 5c96 343f d352 283f 527e 393f e95b 4a3f
000000b0: d734 103f fa71 003f 3158 193f 72f9 353f
000000c0: af7b 513f 00f5 353f 5152 4a3f 602c 3d3f
000000d0: a887 4c3f cd68 373f 745b 3a3f 71ed 413f
000000e0: 85b3 063f ee54 093f 75c8 473f 32f7 483f
000000f0: 500a 5b3f df4d 6b3f 15ce 8a3f b74d 753f
00000100: c0dd 4a3f 2003 453f 18d7 8a3f ba45 5f3f
00000110: c8a8 3b3f 01c5 2f3f dedc 713f b577 503f
00000120: 51fc 493f 78e7 273f 8fd0 603f c3ee 3b3f
00000130: f9f5 663f c661 5d3f 02a8 7a3f 9f27 633f
00000140: f2a8 7c3f 84a1 4b3f e3d6 0b3f 7e6b 113f
00000150: da9d 5d3f 6fe2 363f 1550 4c3f 4f1e 4d3f
00000160: afd2 4c3f 219f 363f 4ea0 3d3f 78b7 333f
00000170: 456f 3e3f 6363 2c3f ead9 553f a9cf 133f
00000180: a43a 033f 428f cf3e 7a15 2e3f 7520 0b3f
00000190: 69d7 2f3f 751d 093f d33a 3b3f 3f52 163f
000001a0: 6afe 323f 1323 f03e a10c 283f 9d0b db3e
000001b0: 2188 f93e e78d 013f bca4 123f 3d9f 083f
000001c0: 3bbc 9d3f 5417 8a3f e0ef 943f d3cb 8e3f
000001d0: 1dd7 a33f e6fb 693f b78c 7a3f 547d 503f
000001e0: 6755 3d3f d756 2b3f 30a7 8c3f 9684 703f
000001f0: ed1e 7b3f 2487 2e3f 890a 343f 6a4c 263f
00000200: 5600 383f 773d 123f 0592 533f 8efd 113f
00000210: eab9 763f a763 5c3f cf35 6a3f f18c 2e3f
00000220: 04d0 0d3f c905 f93e a929 3b3f b8ff 213f
00000230: ae73 333f 9ea8 323f 8d67 443f ba10 383f
00000240: 29e4 533f bf93 173f 6014 ef3e 453a 073f
00000250: 82ea 133f 82e8 713f 3e96 8e3f c84f 963f
00000260: 53c7 913f 5be8 653f 92ab 413f 034b 423f
00000270: eb9e 3b3f 9c75 273f c66b 2c3f 2bf2 283f
00000280: 4d3a 1a3f aa9a 0f3f 177d 4d3f e8a3 303f
00000290: 34db 223f 4d5e 2d3f 5130 6e3f c8d9 743f
000002a0: 7cc1 793f b9b4 853f f69e a03f 91d9 9c3f
000002b0: efd0 903f 3138 8d3f 5f55 893f 40da 663f
000002c0: 7e51 4b3f f314 533f 1624 8f3f 88c0 823f
000002d0: 0f20 b23f 5499 963f 640d 963f d090 8b3f
000002e0: 34c4 553f 4171 2e3f f773 3b3f 60b7 363f
000002f0: e57b 5d3f bbf3 813f 45fe 943f a86e 893f
00000300: ac2f 703f 74ab 553f c6b5 8a3f 3ca2 813f
00000310: 33be b83f 89bf c83f ac1b c03f 50b9 aa3f
00000320: 5a1a 823f b624 8a3f 5932 843f 7150 6d3f
00000330: 77d4 4e3f 7a76 683f abeb 153f bcfc dc3e
00000340: f26d 633f b0e9 6b3f 68d0 333f c540 393f
00000350: 29fb 3d3f 2031 8d3f fabf 753f 4e32 8c3f
00000360: faa4 5f3f 7d84 503f 7681 433f 506c 493f
00000370: b5da fc3e 2a4f 2e3f a6f5 473f 05f7 3e3f
00000380: ff33 b53f 70e3 a83f d551 b53f cb7e b93f
00000390: c3d7 933f d018 843f b1a8 6d3f a3c1 893f
000003a0: e318 a13f 8ee4 873f 4d18 913f c22e 763f
000003b0: 68ad 7a3f 3857 703f 1eb1 213f 239f 2c3f
000003c0: 71e1 a93f 7a2d 7f3f 1f4c 4c3f e7f2 363f
000003d0: 54be 723f 9882 663f 66c8 833f 6779 b33f
000003e0: 3188 b83f d7a2 a43f cf18 693f 7865 373f
000003f0: d82b 8d3f 5d44 8f3f 81cf 583f d6e1 373f

encoder.model.0.weight f4 [8, 1, 3, 3]
0.44350186 -0.6094016 -0.13297552 0.86571646 -0.8158805 -0.5742197 0.25727782 -0.44745162
-0.31764868 0.40256235 0.51009613 0.20685214 -0.3907056 -0.26400992 -0.20296684 -0.015773576
0.4024008 -0.12842463 0.036560316 -0.3615105 0.6155063 -0.39494604 0.017905984 0.80057734
-0.35628808 -0.062445655 0.9391143 -0.17255782 0.09980379 -0.16292074 -0.45055142 0.078791685
0.71323824 -0.86543083 0.11312275 0.87004715 -0.4958021 -0.37407926 -0.12150676 -0.39256537
-0.09785346 -0.30057472 -0.10892998 0.5948549 0.7171542 0.031960845 0.018535132 0.042250324
-0.102884054 -0.67226887 -0.6899534 0.46953282 0.41093478 0.0914328 -0.4554821 -0.22685546
-0.32343772 0.3311071 0.5304219 0.41092345 -0.21928783 -0.07361611 -0.04575179 -0.02382711
-0.019206917 -0.017638545 -0.035037145 -0.030485004 -0.028032798 -0.026851589 -0.02202867 -0.020694088
00000000: ad12 e33e be01 1cbf bc2a 08be 989f 5d3f
00000010: 8bdd 50bf 1000 13bf ebb9 833e 6118 e5be
00000020: d9a2 a2be a71c ce3e a995 023f 0cd1 533e
00000030: 900a c8be 4f2c 87be 8ad6 4fbe 9637 81bc
00000040: 7a07 ce3e bf81 03be 45c0 153d e717 b9be
00000050: d291 1d3f 5e36 cabe 92af 923c a3f2 4c3f
00000060: 646b b6be 04c7 7fbd cb69 703f ffb2 30be
00000070: ee65 cc3d b2d4 26be adae e6be 895d a13d
00000080: c896 363f e08c 5dbf e6ac e73d 69bb 5e3f
00000090: c6d9 fdbe 5187 bfbe 89d8 f8bd 54fe c8be
000000a0: 6567 c8bd eee4 99be ae16 dfbd 6948 183f
000000b0: 6b97 373f 60e9 023d fdd6 973c ad0e 2d3d
000000c0: e0b4 d2bd d019 2cbf c9a0 30bf 9b66 f03e
000000d0: 0b66 d23e 1f41 bb3d f334 e9be cc4c 68be
000000e0: a199 a5be df86 a93e bbc9 073f 8f64 d23e
000000f0: fd8c 60be 0bc4 96bd 3b66 3bbd 1231 c3bc
00000100: d357 9dbc b67e 90bc 1c83 0fbd b0bb f9bc
00000110: 0aa5 e5bc ddf7 dbbc 7875 b4bc a686 a9bc

encoder.model.0.bias f4 [8]
0.44754794 -0.24557003 -0.03398479 0.025924835 0.20231175 0.07093187 0.011171833 -0.019752374
00000000: 0125 e53e b676 7bbe a333 0bbd 5260 d43c
00000010: d02a 4f3e ba44 913d 100a 373c bbcf a1bc

encoder.model.2.weight f4 [16, 8, 3, 3]
-6.271826e-10 -3.770412e-09 -2.347038e-10 -1.7182705e-08 -8.6221654e-08 -4.2804917e-08 -1.6479825e-07 -3.0599344e-07
-5.7713764e-06 -1.4531844e-15 -5.988426e-11 -1.2826306e-13 4.95631e-40 4.91906e-40 4.93448e-40 5.65872e-40
-4.91752e-40 4.95935e-40 -5.996303e-08 -0.00012697377 -2.3958099e-05 -2.6551485e-09 -1.3353377e-05 -2.4470678e-06
-3.2190616e-14 -1.4738978e-14 -8.946311e-16 -1.19364e-40 -5.389657e-06 -2.3255895e-15 -3.9915846e-19 -1.334531e-07
-6.042549e-15 -4.90725e-40 -4.91151e-40 -4.93515e-40 -1.2000336e-25 -1.1606386e-09 -1.13237334e-20 -1.0789606e-12
-3.3749557e-14 -4.0645148e-19 -1.0480124e-20 -2.7523451e-14 -3.736472e-20 4.95887e-40 -4.91183e-40 4.93488e-40
-4.9317e-40 4.90843e-40 -4.95693e-40 -4.93449e-40 -4.91072e-40 -4.91458e-40 -4.92952e-40 -2.301418e-22
-4.90645e-40 8.2831e-41 -8.601328e-16 -6.420168e-25 4.96312e-40 4.95321e-40 4.93952e-40 5.26092e-40
4.92439e-40 -4.91852e-40 -4.95694e-40 5.24911e-40 -4.98243e-40 -5.12882e-40 5.05835e-40 -4.93705e-40
0.10794683 0.101404496 0.3207797 -0.3175473 -0.48864615 -0.047897693 0.18063515 0.046306424
-0.057988096 -0.23222774 -0.31075874 0.047217615 -0.33408615 -0.55119133 -0.21245807 -0.31934586
-0.18322596 -0.12624885 0.14200069 0.067185745 0.20154679 0.045813188 -0.006096598 0.06791458
-0.33135787 -0.34960258 -0.09632063 -0.21918046 -0.037797794 0.035819847 0.088232145 0.17871615
-0.014994771 -0.07766081 -0.32023597 0.17323877 -0.049196042 -0.2551423 -0.017794622 0.25028062
0.52252084 -0.044164643 -0.6288426 -0.11207812 -0.091674455 0.26389217 0.1717204 0.23235519
0.21727316 0.61456585 0.2376039 -0.018990548 -0.6000109 0.029951036 0.16184919 0.22096042
-0.14667156 0.20292822 0.64043826 0.091662385 -0.11999289 0.03728885 0.1402794 0.01520291
0.014386513 0.013812935 0.0113632735 0.015208056 0.016391547 0.009641162 0.012331033 0.013890233
-5.355126e-17 -1.1660213e-18 -3.152132e-18 -1.2667886e-16 -9.006957e-17 -1.5051976e-17 -1.8346332e-18 -1.3672837e-20
-4.9079588e-26 -5.7533e-40 5.62378e-40 5.9954e-40 5.3907e-40 5.61035e-40 -5.93343e-40 -6.08948e-40
-5.86344e-40 5.81508e-40 -4.91891e-40 4.94094e-40 4.95161e-40 -4.91056e-40 -4.92237e-40 -4.94103e-40
4.92398e-40 4.9106e-40 -2.443359e-38 -4.94433e-40 -4.92615e-40 -4.91703e-40 -4.90827e-40 -4.94297e-40
-4.93812e-40 4.94162e-40 4.94024e-40 4.94196e-40 4.92587e-40 4.90777e-40 4.94894e-40 4.94926e-40
4.9317e-40 -1.00926e-40 -6.587409e-22 -1.2216509e-16 -9.717095e-16 -4.9323e-40 4.91107e-40 4.9284e-40
4.9538e-40 -4.9081e-40 -4.92429e-40 4.93452e-40 1.3190377e-35 -4.812959e-31 4.92528e-40 -4.93816e-40
4.98533e-40 -5.05268e-40 5.18747e-40 4.9085e-40 -4.97083e-40 -5.8274e-40 4.94134e-40 -4.95997e-40
4.9193e-40 -5.01962e-40 -5.39049e-40 -4.91211e-40 -4.97269e-40 5.22634e-40 5.87047e-40 4.98932e-40
-0.73356235 0.5236629 0.010862324 -0.38975856 0.47064 0.019167192 -0.32786304 0.2442611
0.0020792244 -0.021537375 -0.0386428 -0.14447662 0.18615384 -0.009510685 -0.05417564 0.12835422
0.17272323 0.10661986 0.33653152 -0.544018 -0.059973884 0.4874047 -0.5698152 0.09636649
0.08822224 -0.2337918 0.07817369 0.39094365 -1.1340096 0.5419607 0.26109335 -0.7613103
0.41486728 0.04543625 -0.07052323 0.036120564 0.033297982 -0.34256044 0.2481366 -0.31747928
00000000: 0d66 2cb0 e58c 81b1 a007 81af 2b99 93b2
00000010: db28 b9b3 81d8 37b3 66f3 30b4 6b47 a4b4
00000020: bfa7 c1b6 0b6d d1a6 d7af 83ae 4f69 10aa
00000030: 9e65 0500 3c5b 0500 885f 0500 6c29 0600
00000040: ce5a 0580 7766 0500 06c5 80b3 4324 05b9
00000050: a0f9 c8b7 de75 36b1 5108 60b7 4e38 24b6
00000060: 41f9 10a9 c5c1 84a8 10ee 80a6 bd4c 0180
00000070: cdd8 b4b6 8e93 27a7 1f9f eba0 4f4b 0fb4
00000080: adb4 d9a7 f157 0580 2159 0580 b85f 0580
00000090: 958e 1496 5784 9fb0 37e6 559e a7d9 97ab
000000a0: 97fe 17a9 36ed efa0 c5f6 459e c2e8 f7a8
000000b0: 2d73 309f 5566 0500 3859 0580 a55f 0500
000000c0: c25e 0580 4558 0500 ca65 0580 895f 0580
000000d0: e958 0580 fc59 0580 265e 0580 b81c 8b9b
000000e0: b857 0580 e6e6 0000 99ea 77a6 d0b1 4697
000000f0: 8467 0500 c164 0500 f060 0500 88ba 0500
00000100: b85c 0500 155b 0580 cb65 0580 3db7 0500
00000110: e66c 0580 b595 0580 1082 0500 4060 0580
00000120: 3a13 dd3d 29ad cf3d 3d3d a43e 8f95 a2be
00000130: d42f fabe 5f30 44bd 6cf8 383e ceab 3d3d
00000140: ed84 6dbd 1ccd 6dbe c51b 9fbe 4267 413d
00000150: 570d abbe e01a 0dbf 9c8e 59be 4d81 a3be
00000160: 969f 3bbe 6147 01be a168 113e ae98 893d
00000170: 4862 4e3e 9ca6 3b3d f9c5 c7bb cd16 8b3d
00000180: bda7 a9be 1cff b2be c043 c5bd d870 60be
00000190: dcd1 1abd d5b7 123d 0eb3 b43d 5e01 373e
000001a0: a1ac 75bc a10c 9fbd f8f5 a3be 8165 313e
000001b0: ca81 49bd 03a2 82be 07c6 91bc c824 803e
000001c0: edc3 053f fce5 34bd d4fb 20bf 3789 e5bd
000001d0: d1bf bbbd e01c 873e 79d7 2f3e 85ee 6d3e
000001e0: db7c 5e3e 3054 1d3f 704e 733e 1192 9bbc
000001f0: 509a 19bf e05b f53c cbbb 253e 7343 623e
00000200: 1231 16be 6acc 4f3e c3f3 233f 7db9 bb3d
00000210: d5be f5bd 31bc 183d 67a5 0f3e a015 793c
00000220: 69b5 6b3c a64f 623c 062d 3a3c 362b 793c
00000230: 9147 863c f7f5 1d3c 1a08 4a3c dc93 633c
00000240: 2bf6 76a4 0a13 aca1 1796 68a2 000d 12a5
00000250: b1af cfa4 79d4 8aa3 3e5f 07a2 e422 819e
00000260: c507 7395 c943 0680 ae1f 0600 4687 0600
00000270: b5de 0500 f01b 0600 0076 0680 80a1 0680
00000280: 7d62 0680 0255 0600 315b 0580 5561 0500
00000290: 4f64 0500 dd58 0580 285c 0580 5c61 0580
000002a0: 9b5c 0500 e058 0500 7407 0581 4762 0580
000002b0: 365d 0580 ab5a 0580 3a58 0580 e661 0580
000002c0: 8c60 0580 8661 0500 2361 0500 9e61 0500
000002d0: 225d 0500 1658 0500 9063 0500 a763 0500
000002e0: c25e 0500 5719 0180 9c17 479c c5d8 0ca5
000002f0: c109 8ca6 ed5e 0580 0259 0500 d65d 0500
00000300: eb64 0500 2e58 0580 b15c 0580 8b5f 0500
00000310: 9f43 8c05 8030 1c8d f85c 0500 8f60 0580
00000320: b56d 0500 7b80 0580 0ea6 0500 4a58 0500
00000330: aa69 0580 7158 0680 7261 0500 a366 0580
00000340: 4d5b 0500 4477 0580 a6de 0580 4c59 0580
00000350: 2f6a 0580 e4b0 0500 7364 0600 d26e 0500
00000360: beca 3bbf c60e 063f e4f7 313c 6f8e c7be
00000370: baf7 f03e 8404 9d3c aadd a7be 951f 7a3e
00000380: 9943 083b 266f b0bc ea47 1ebd aef1 13be
00000390: 1d9f 3e3e b4d2 1bbc 47e7 5dbd 4a6f 033e
000003a0: 5cde 303e 835b da3d dc4d ac3e c344 0bbf
000003b0: 2da7 75bd 1c8d f93e 69df 11bf cb5b c53d
000003c0: ddad b43d 1e67 6fbe 8719 a03d c429 c83e
000003d0: 3a27 91bf f0bd 0a3f 07ae 853e 3be5 42bf
000003e0: 7c69 d43e 5c1b 3a3d 7c6e 90bd 28f3 133d
000003f0: 7763 083d 1564 afbe 8517 7e3e a58c a2be

encoder.model.2.bias f4 [16]
-0.0023563257 0.02309107 -5.9336395e-07 0.117386796 -6.1223305e-05 -0.03459164 0.12475615 -5.045223e-07
0.16686669 0.06531653 0.33328047 0.079069376 0.103246115 -0.025393689 0.11137863 0.08580516
00000000: 966c 1abb 7c29 bd3c a947 1fb5 7d68 f03d
00000010: 0365 80b8 f7af 0dbd 2780 ff3d 826e 07b5
00000020: 1adf 2a3e acc4 853d bda3 aa3e 20ef a13d
00000030: b372 d33d 6d06 d0bc 7b1a e43d 9eba af3d

encoder.fc.weight f4 [32, 784]
-3.6055898e-11 -9.082456e-11 -1.221341e-10 -8.190782e-11 -5.5458353e-11 -2.3802346e-11 -1.0232775e-11 -6.3923885e-08
-7.7993345e-09 -1.1495623e-08 -1.89374e-08 -1.48573776e-08 -8.510637e-09 -4.6619424e-09 -3.636958e-14 -4.3889094e-16
-1.3154479e-16 -9.148386e-16 -1.7930661e-14 -8.2673846e-16 -2.4077142e-15 -1.6963637e-21 -8.093416e-18 -5.173446e-15
-7.098468e-13 -7.527222e-13 -4.416497e-17 -2.4726626e-17 -1.0767208e-21 -1.2227426e-17 -6.6301185e-14 -1.7026407e-13
-1.2345281e-14 -7.793712e-24 1.4536714e-33 -4.4890632e-17 -7.0161015e-16 -6.422718e-16 -2.6529797e-16 -1.8863752e-16
-2.2111058e-16 -4.036654e-17 -3.8156324e-19 -3.496784e-17 -3.8128262e-16 -7.195118e-16 -1.5399297e-15 -1.958074e-15
-2.5099263e-15 -0.029666327 -0.03845865 -0.123538986 -0.03198782 -0.031208118 -0.19637628 -0.12661837
0.06024411 0.17363115 -0.014672124 -0.5279597 -0.11197191 -0.69761205 -0.11112321 0.06428002
-0.1192987 -0.06590685 0.5794825 -0.1699406 0.014919096 -0.3082924 0.22953548 -0.2921392
0.12349599 -0.52227986 -0.54820055 -0.4817906 -0.072255805 -0.010201802 -0.06435335 -0.26419783
-0.3834989 -0.3083452 -0.026826128 0.26456577 0.08309662 -0.21833166 -0.13451111 -0.097897
-0.1034233 -0.14904067 -0.13072222 -0.12059143 0.2585307 0.20908512 0.1102251 -0.13480122
0.051310163 0.330386 -5.00772e-40 -5.09746e-40 -4.92048e-40 -4.9755e-40 -4.9597e-40 5.11246e-40
-5.08149e-40 5.39895e-40 -5.09588e-40 -4.96624e-40 4.92924e-40 4.98396e-40 -5.0196e-40 4.91654e-40
-5.57787e-40 4.9547e-40 4.93334e-40 5.10167e-40 -5.08807e-40 5.09691e-40 5.09762e-40 -5.1829e-40
-5.09041e-40 5.00734e-40 5.02637e-40 -4.95058e-40 -5.01599e-40 5.16891e-40 -5.13935e-40 5.10127e-40
-5.17068e-40 5.13636e-40 5.03317e-40 5.0773e-40 5.13525e-40 -4.93362e-40 4.9205e-40 5.01418e-40
4.91724e-40 4.97329e-40 4.9578e-40 4.97703e-40 -5.13394e-40 -4.95243e-40 -4.92646e-40 4.92593e-40
4.91e-40 -4.97602e-40 4.96032e-40 -0.0962479 -0.066913426 0.27658764 -0.09314163 -0.2175564
-0.3897162 -0.12099756 0.15411983 -0.44175467 0.0902741 -0.11142649 0.21643989 -0.4114695
-0.1425846 0.0051519843 0.42545134 -0.42409796 0.47318545 -0.040662486 0.12150956 0.10778561
-0.38646325 -0.17069502 0.19987129 -0.10103404 -0.55657417 0.2065056 0.6223436 -0.26704502
0.46143207 0.14886016 -0.03299006 0.22460455 0.1102375 0.25339422 -0.10203584 0.162283
-0.116406344 0.41329047 0.21413118 0.74875194 -0.1635368 -0.41497323 0.2502455 -0.1794628
-0.15769148 -0.08503754 -0.067897744 -0.040844996 -4.94402e-40 -4.92973e-40 -4.94692e-40 4.90599e-40
4.91908e-40 4.90523e-40 4.92691e-40 -4.91926e-40 -4.94689e-40 -4.90735e-40 -4.90759e-40 -4.92397e-40
-4.94478e-40 4.94186e-40 -4.93327e-40 -4.93216e-40 -4.90679e-40 -4.90667e-40 -4.94835e-40 -4.91759e-40
-4.91107e-40 -4.90532e-40 -4.91235e-40 -4.92231e-40 -4.94684e-40 -4.94912e-40 -4.91451e-40 -4.92115e-40
-4.92587e-40 -4.91138e-40 -4.92638e-40 -4.9477e-40 -4.90948e-40 -4.94499e-40 -4.91576e-40 -4.94081e-40
-4.93022e-40 -4.9512e-40 -4.93623e-40 -4.9434e-40 -4.92282e-40 -4.92343e-40 -4.92694e-40 -4.92583e-40
-4.92115e-40 -4.93888e-40 4.91288e-40 -4.93239e-40 -4.91922e-40 -6.026517e-11 -4.0879414e-11 2.4248919e-12
6.317934e-11 7.754052e-11 1.8302271e-10 2.2448074e-10 1.4773563e-08 2.168661e-08 1.4420341e-08 7.550363e-09
00000000: 5593 1eae afb9 c7ae b149 06af 011e b4ae
00000010: 8ee8 73ae 1e5e d1ad 5204 34ad 8746 89b3
00000020: d6fd 05b2 497e 45b2 c8ab a2b2 703f 7fb2
00000030: 2d36 12b2 e12e a0b1 45cb 23a9 df00 fda5
00000040: 2ba9 17a5 96d7 83a6 4a81 a1a8 884a 6ea6
00000050: 7d7e 2da7 722c 009d 144c 15a3 9e64 baa7
00000060: dacd 47ab 5adf 53ab cbac 4ba4 1810 e4a3
00000070: 9eb5 a29c 638e 61a3 084c 95a9 47b3 3faa
00000080: 8f64 5ea8 98c0 1699 5888 f108 8105 4fa4
00000090: b139 4aa6 4b1f 39a6 12ef 98a5 f87b 59a5
000000a0: 53ec 7ea5 6628 3aa4 353c e1a0 bd42 21a4
000000b0: 62cb dba5 9a62 4fa6 61ed dda6 1718 0da7
000000c0: f8db 34a7 cc06 f3bc d186 1dbd 0202 fdbd
000000d0: a905 03bd 2ba8 ffbc dd16 49be 3fa8 01be
000000e0: 87c2 763d 5dcc 313e 5963 70bc 5e28 07bf
000000f0: 8751 e5bd b496 32bf 9194 e3bd 3ea5 833d
00000100: e052 f4bd 2cfa 86bd f758 143f e904 2ebe
00000110: 396f 743c 80d8 9dbe 590b 6b3e 4593 95be
00000120: 77eb fc3d 22b4 05bf df56 0cbf 42ad f6be
00000130: dafa 93bd 7525 27bc b0cb 83bd f044 87be
00000140: f859 c4be 6cdf 9dbe 78c2 dbbc 2a75 873e
00000150: 902e aa3d 5692 5fbe 48bd 09be 397e c8bd
00000160: 98cf d3bd 1e9e 18be 0cdc 05be a4f8 f6bd
00000170: 235e 843e 691a 563e b2bd e13d 5509 0abe
00000180: 9b2a 523d 5b28 a93e f373 0580 f78c 0580
00000190: a15b 0580 f86a 0580 9066 0580 2591 0500
000001a0: 8388 0580 02e1 0500 868c 0580 6368 0580
000001b0: 125e 0500 536d 0500 4377 0580 885a 0500
000001c0: e212 0680 2b65 0500 375f 0500 238e 0500
000001d0: 598a 0580 d08c 0500 028d 0500 c8a4 0580
000001e0: 008b 0580 d873 0500 2679 0500 0564 0580
000001f0: 4176 0580 e2a0 0500 a498 0580 078e 0500
00000200: 60a1 0580 cf97 0500 0b7b 0500 5887 0500
00000210: 8097 0500 4b5f 0580 a35b 0500 c075 0500
00000220: ba5a 0500 5a6a 0500 0866 0500 656b 0500
00000230: 2297 0580 8964 0580 4c5d 0580 265d 0500
00000240: b558 0500 1d6b 0580 bc66 0500 9e1d c5bd
00000250: e809 89bd e59c 8d3e 0ac1 bebd 1bc7 5ebe
00000260: e288 c7be 92cd f7bd 97d1 1d3e ab2d e2be
00000270: a1e1 b83d 9233 e4bd 6ba2 5d3e 21ac d2be
00000280: b301 12be fad1 a83b c2d4 d93e 5e23 d9be
00000290: 5d45 f23e b58d 26bd 01da f83d b4be dc3d
000002a0: 83de c5be adca 2ebe 0fab 4c3e efea cebd
000002b0: a57b 0ebf 3476 533e e951 1f3f 20ba 88be
000002c0: d340 ec3e cc6e 183e 9620 07bd bcfe 653e
000002d0: 33c4 e13d e3bc 813e 2bf8 d0bd 842d 263e
000002e0: 7366 eebd cf9a d33e 3445 5b3e 35ae 3f3f
000002f0: 3176 27be 5f77 d4be 2e20 803e 19c5 37be
00000300: e079 21be 2928 aebd f90d 8bbd 154d 27bd
00000310: 3162 0580 355e 0580 0063 0580 9757 0500
00000320: 3d5b 0500 6157 0500 6c5d 0500 4a5b 0580
00000330: fe62 0580 f857 0580 0958 0580 9a5c 0580
00000340: 6762 0580 9761 0500 325f 0580 e35e 0580
00000350: d057 0580 c857 0580 6663 0580 d35a 0580
00000360: 0259 0580 6757 0580 5d59 0580 245c 0580
00000370: fa62 0580 9d63 0580 f759 0580 d15b 0580
00000380: 225d 0580 1859 0580 465d 0580 3863 0580
00000390: 9058 0580 7662 0580 505a 0580 4c61 0580
000003a0: 585e 0580 3164 0580 0560 0580 0562 0580
000003b0: 485c 0580 745c 0580 6e5d 0580 1f5d 0580
000003c0: d15b 0580 c260 0580 8359 0500 f35e 0580
000003d0: 475b 0580 4686 84ae 21ca 33ae f8a2 2a2c
000003e0: ceee 8a2e 6f83 aa2e 503c 492f b6d1 762f
000003f0: d1ce 7d32 5c49 ba32 55bd 7732 d9b6 0132

encoder.fc.bias f4 [32]
0.0840002 -0.11117667 -0.08098763 0.054601684 0.10931856 -0.003972158 -0.034121536 -0.22119138
0.08675894 0.09815719 -0.30009323 -0.07481981 -0.111509405 -0.14278133 0.0085953465 0.13855365
-0.14767857 -0.036264695 -0.07113378 -0.09893678 0.0018509607 -0.25472987 -0.19718482 -0.03297292
0.006886533 0.17257176 0.13966268 -0.0038556503 0.12540765 -0.09209377 -0.16257171 -0.033715453
00000000: 4c08 ac3d 98b0 e3bd d8dc a5bd 04a6 5f3d
00000010: 69e2 df3d e028 82bb 06c3 0bbd fe7f 62be
00000020: acae b13d a306 c93d d2a5 99be 213b 99bd
00000030: 0b5f e4bd 4535 12be 7fd3 0c3c 02e1 0d3e
00000040: 0d39 17be 4a8a 14bd 96ae 91bd 5e9f cabd
00000050: ef9b f23a f46b 82be d1ea 49be 9d0e 07bd
00000060: 6da8 e13b a7b6 303e bc03 0f3e 14af 7cbb
00000070: dd6a 003e a99b bcbd 3379 26be 3719 0abd

decoders.0.model.0.weight f4 [16, 8, 3, 3]
-0.027521543 0.44218695 -0.28572926 0.2945033 -0.19999866 -0.47044736 0.16131997 0.60734546
-0.040630415 -0.09558211 0.03926202 0.030815668 0.09363787 -0.060187165 -0.25995174 -0.22191304
0.30870053 0.09341566 -0.105963126 -0.33464608 -0.1777558 0.05428413 0.09220874 0.06082572
0.4643515 0.028125837 -0.21776499 -0.034566905 0.11381989 0.22930707 0.09490778 -0.37297612
0.23047538 -0.038141005 0.33763465 0.19710623 -0.2780612 -0.04100825 0.37641144 -0.15442675
0.32024065 0.10384668 0.19186468 0.25669447 -0.3320439 -0.1478744 -0.022804657 0.029703362
0.14768346 0.5611791 0.037636004 0.30191144 0.095300674 -0.013089281 0.0004042244 0.25807908
0.10400381 0.20980352 -0.22732812 0.08762813 0.1436215 -0.09604891 -0.30461186 -0.0069870665
-0.2915797 -0.036470097 -0.055498328 0.031965084 -0.2077933 0.3840632 0.09862566 -0.33334827
0.24162474 -0.19005977 0.06622622 -0.10632526 0.018671997 0.2141519 -0.33609265 0.38039395
0.053973317 0.1699297 0.19970806 0.025376424 0.22802958 -0.3000019 -0.2845462 0.3588808
-0.31812114 -0.32824168 -0.26741937 -0.3973734 0.17950587 0.016399492 -0.062963374 -0.00022261837
0.49940664 0.37209913 0.31836462 -0.18941571 0.12959616 -0.26051876 0.0725904 -0.22559787
0.3012665 -0.30682343 0.26162362 -0.06890654 0.09334174 -0.085124806 -0.43653768 -0.090610676
0.29239482 -0.15455733 0.17129286 0.72015125 0.50667834 -0.09239032 0.10778995 0.16475245
-0.0640481 0.30118018 -0.10590604 0.40340307 0.12924428 0.06785252 -0.29532298 0.21671923
-0.40188769 -0.6370076 0.09202274 -0.030091636 -0.07603479 -0.10182975 -0.2606712 -0.36035934
-0.35016674 -0.08557309 -0.42650193 0.21503569 0.16927132 0.21412118 0.020614171 0.21978258
0.19730185 0.5145501 0.31898478 0.3478088 -0.5987322 0.41078582 -0.03966399 -0.39243934
0.10911939 0.18600714 -0.14339764 0.09741143 -0.24686328 0.5651027 0.32067624 0.07730218
0.05580911 -0.52643025 -0.038638163 0.16843575 -0.12077446 -0.08543096 0.19915943 0.23344648
-0.20261404 0.06795908 0.17979032 -0.2206877 -0.1713202 0.027844382 -0.47174495 -0.43922353
0.16664943 0.06282221 -0.40983453 -0.088305436 -0.18180722 -0.45785034 -0.30374444 0.033751257
0.20215538 0.3998037 0.33921927 -0.37532556 -0.11392355 -0.16693212 -0.0404526 -0.016404252
-0.028303813 0.4709735 0.34133813 -0.049737927 -0.04872664 0.10346115 0.17202999 -0.029142402
-0.15695783 0.005431944 -0.4696629 0.17074317 -0.20329723 -0.16219214 0.10798375 -0.19717811
-0.22489432 -0.5402743 0.2950393 0.39482236 -0.32633242 -0.12841637 -0.11050553 -0.27284628
-0.22395368 -0.121178605 -0.41798624 0.1365694 0.58344465 0.26024574 0.1627307 0.11825459
0.41741344 0.017373929 0.23026718 0.34081486 0.10889934 0.19449681 -0.059960686 -0.30363944
-0.1451391 -0.38463587 -0.09982029 0.10911005 0.41129482 0.05600829 -0.01604573 0.10972472
-0.02760844 -0.089274704 0.15434656 -0.12300548 0.05966763 -0.26308095 -0.20620915 0.27625084
-0.6288905 0.16714984 0.4726829 -0.11743286 0.040488508 -0.24356882 0.15648946 0.34220022
00000000: dc74 e1bc 5466 e23e 1b4b 92be 23c9 963e
00000010: 73cc 4cbe 7ade f0be 1031 253e fe7a 1b3f
00000020: 146c 26bd 8ec0 c3bd 36d1 203d 2471 fc3c
00000030: 36c5 bf3d d186 76bd 6518 85be 2c3d 63be
00000040: ff0d 9e3e b650 bf3d 3203 d9bd bb56 abbe
00000050: 9e05 36be 0959 5e3d f0d7 bc3d 6424 793d
00000060: 7bbf ed3e 2868 e63c c9fd 5ebe 0796 0dbd
00000070: 671a e93d 79cf 6a3e 035f c23d baf6 bebe
00000080: bd01 6c3e be39 1cbd 73de ac3e 37d6 493e
00000090: 0a5e 8ebe 44f8 27bd 00b9 c03e 0c22 1ebe
000000a0: 95f6 a33e 91ad d43d 2d78 443e 756d 833e
000000b0: a801 aabe 636c 17be d5d0 babc 7754 f33c
000000c0: 553a 173e 6fa9 0f3f 3628 1a3d 2394 9a3e
000000d0: 002d c33d 6c74 56bc 15ee d339 f122 843e
000000e0: f3ff d43d bcd6 563e b4c8 68be 6176 b33d
000000f0: 8411 133e 4ab5 c4bd 16f6 9bbe c3f3 e4bb
00000100: ef49 95be ab61 15bd 3752 63bd d2ed 023d
00000110: c4c7 54be efa3 c43e 40fc c93d a0ac aabe
00000120: 7a6c 773e 079f 42be 9da1 873d 0fc1 d9bd
00000130: 04f6 983c a34a 5b3e 5614 acbe ffc2 c23e
00000140: 2013 5d3d 0d02 2e3e 4580 4c3e 38e2 cf3c
00000150: 9680 693e d999 99be 0ab0 91be 39bf b73e
00000160: c6e0 a2be 4b0f a8be 31eb 88be 8774 cbbe
00000170: 63d0 373e 3a58 863c f1f2 80bd aa6e 69b9
00000180: 3ab2 ff3e c783 be3e b000 a33e 31f6 41be
00000190: dbb4 043e b762 85be 47aa 943d 2103 67be
000001a0: 9a3f 9a3e f617 9dbe 88f3 853e df1e 8dbd
000001b0: f429 bf3d ea55 aebd de81 dfbe 1792 b9bd
000001c0: c6b4 953e 4744 1ebe 6567 2f3e d55b 383f
000001d0: acb5 013f 2337 bdbd fac0 dc3d deb4 283e
000001e0: a62b 83bd 4a34 9a3e 44e5 d8bd d98a ce3e
000001f0: 9d58 043e 43f6 8a3d 9334 97be a5eb 5d3e
00000200: 39c4 cdbe ee12 23bf 6b76 bc3d bc82 f6bc
00000210: 21b8 9bbd 1e8c d0bd b276 85be 0581 b8be
00000220: 0e49 b3be f240 afbd 765e dabe 5132 5c3e
00000230: 7655 2d3e 9542 5b3e 0ddf a83c af0e 613e
00000240: 7f09 4a3e 8eb9 033f f951 a33e ff13 b23e
00000250: 8346 19bf 8552 d23e b576 22bd cfed c8be
00000260: fd79 df3d a878 3e3e d5d6 12be a57f c73d
00000270: bac9 7cbe 92aa 103f ad2f a43e 9b50 9e3d
00000280: 1898 643d 22c4 06bf 0d43 1ebd 6c7a 2c3e
00000290: 9a58 f7bd 6df6 aebd 73f0 4b3e 980c 6f3e
000002a0: 0e7a 4fbe 212e 8b3d f41a 383e f5fb 61be
000002b0: 906e 2fbe e719 e43c 8e88 f1be e8e1 e0be
000002c0: 26a6 2a3e eea8 803d d5d5 d1be 7bd9 b4bd
000002d0: ac2b 3abe 5c6b eabe 6484 9bbe c23e 0a3d
000002e0: d201 4f3e 12b3 cc3e 26ae ad3e ac2a c0be
000002f0: c050 e9bd 41f0 2abe a0b1 25bd 3662 86bc
00000300: 66dd e7bc 7023 f13e dfc3 ae3e ffb9 4bbd
00000310: 9695 47bd 70e3 d33d a128 303e 0cbc eebc
00000320: 8eb9 20be 73fe b13b a877 f0be 4cd7 2e3e
00000330: 262d 50be b215 26be 9626 dd3d 0fe9 49be
00000340: b24a 66be 6b4f 0abf 640f 973e 2826 ca3e
00000350: 0b15 a7be 957f 03be b950 e2bd 82b2 8bbe
00000360: 1d54 65be 7d2c f8bd 4b02 d6be d9d8 0b3e
00000370: a15c 153f ee3e 853e e0a2 263e 762f f23d
00000380: 37b7 d53e c553 8e3c 29cb 6b3e 497f ae3e
00000390: 9e06 df3d 2c2a 473e 5699 75bd a176 9bbe
000003a0: 589f 14be feee c4be 956e ccbd 1775 df3d
000003b0: 3c95 d23e f368 653d 5672 83bc 5bb7 e03d
000003c0: 182b e2bc a8d5 b6bd 060d 1e3e 4cea fbbd
000003d0: 0b66 743d 8cb2 86be 7e28 53be c070 8d3e
000003e0: f8fe 20bf 5429 2b3e 7e03 f23e a480 f0bd
000003f0: 47d7 253d 1b6a 79be c63e 203e de34 af3e

decoders.0.model.0.bias f4 [8]
0.030032663 -0.067133754 -0.07763656 -0.13457215 -0.08282204 0.0625844 -0.26074234 -0.0063448637
00000000: 0f07 f63c 6c7d 89bd ebff 9ebd 48cd 09be
00000010: 9a9e a9bd 402c 803d 0580 85be 93e8 cfbb

decoders.0.model.2.weight f4 [8, 1, 3, 3]
-0.152731 -0.19908148 -0.10192098 -0.16722545 -0.5716045 -0.4428849 -0.16363646 -0.2898769
-0.25213528 -0.0038127305 -0.25565508 -0.2800846 -0.015179402 -0.51666117 -0.51647526 0.049356334
-0.16974777 -0.1437981 -0.11441885 -0.2041338 0.11170678 -0.009145959 -0.16591798 0.1251635
-0.3193762 -0.39122498 0.022582283 -0.14553136 -0.29291165 -0.41524538 -0.3801315 -0.45617807
-0.4072577 -0.21815401 -0.3033889 -0.18187161 -0.24969625 -0.25155035 -0.31115514 -0.23217149
-0.48654088 -0.43780032 -0.32533398 -0.32648233 -0.31995463 -0.0053264555 -0.30949327 -0.34509063
0.04188724 -0.3729936 -0.10228692 -0.10692793 -0.22552517 -0.22619238 -0.2844507 -0.5327377
-0.7256758 0.1651179 -0.20260265 0.040784605 0.4399112 0.30582276 0.3023375 0.27323112
0.09813238 0.29206535 -0.21834683 -0.63566035 -0.4679269 0.119430155 -0.106070794 0.06455759
00000000: 8465 1cbe 04dc 4bbe f2bb d0bd 263d 2bbe
00000010: ac54 12bf cfc1 e2be 5190 27be bf6a 94be
00000020: e017 81be 01df 79bb 39e5 82be 4067 8fbe
00000030: 07b3 78bc e843 04bf b937 04bf de29 4a3d
00000040: 5cd2 2dbe cf3f 13be 6e54 eabd 7308 51be
00000050: 86c6 e43d efd8 15bc 67e6 29be dc2a 003e
00000060: 4785 a3be a44e c8be 7bfe b83c 2c06 15be
00000070: 84f8 95be 0b9b d4be 99a0 c2be 2c90 e9be
00000080: 1584 d0be c463 5fbe ca55 9bbe 8d3c 3abe
00000090: 60b0 7fbe 35cb 80be ba4f 9fbe 5dbe 6dbe
000000a0: e31b f9be 5d27 e0be 2d92 a6be b128 a7be
000000b0: 18d1 a3be 8c89 aebb e775 9ebe b8af b0be
000000c0: f491 2b3d 04f9 bebe ce7b d1bd 08fd dabd
000000d0: 12f0 66be fa9e 67be 86a3 91be 7f61 08bf
000000e0: e4c5 39bf ab14 293e 1277 4fbe c20d 273d
000000f0: 0a3c e13e cd94 9c3e fbcb 9a3e f3e4 8b3e
00000100: a1f9 c83d 9789 953e 5096 5fbe a3ba 22bf
00000110: 1d94 efbe cc97 f43d a53b d9bd c536 843d

decoders.0.fc.weight f4 [784, 32]
0.06078617 0.060765978 0.07364009 0.035617337 0.009230826 0.0029644775 -0.007689825 0.024999
0.05158929 0.064134575 0.006056143 -0.004464755 -0.12420398 0.045270775 -0.20392029 0.12517238
0.027323117 -0.026505187 0.14191502 0.09856197 0.058181196 -0.07015328 0.027897323 -0.041406326
0.02430716 0.07984298 0.19005632 0.17442526 0.10600228 -0.055972315 -0.01815483 -0.012697345
0.28511056 -0.18033886 0.10179704 0.1754411 -0.023140958 0.103468776 0.087649465 -0.00581186
0.09788774 -0.16369687 -0.20571288 0.023069007 -0.121675536 0.09451509 0.19054468 -0.062223192
0.08843134 -0.041775823 -0.054395095 0.025208145 0.015914207 -0.23859668 -0.10234156 0.0059161405
-0.1560576 -0.027087646 -0.0512227 0.09116144 0.043577034 0.067095794 0.061894145 0.08129513
-0.03888193 0.16560607 0.047134954 0.09805988 -0.097947486 0.10158586 -0.17008248 0.05148718
0.06482101 0.07742831 -0.14434175 -0.2697976 -0.18387175 -0.13510229 -0.1098541 0.17410107
-0.06312326 -0.017196137 0.07884927 -0.23002636 -0.04970571 -0.22091646 -0.11163586 -0.039861493
0.3291165 0.007920842 -0.45861068 0.11701586 0.012912852 -0.044667337 -0.06702895 0.09713245
0.03857972 -0.18383788 0.035135765 0.024255177 -0.007231236 0.22536853 -0.25842604 -0.04157191
-0.18685667 0.2862901 -0.11303545 -0.14151412 -0.2973976 0.07032895 -0.04664565 -0.007267849
-0.07095092 0.074649245 -0.17983156 0.07767245 0.027688345 -0.17759997 -0.061705973 -0.10261683
-0.15610483 -0.085492246 0.08300404 0.0698757 0.0043268492 0.22482568 0.022257417 0.06172369
0.0428012 0.12298972 0.23606798 0.120050766 0.14081886 0.37642163 0.018633606 -0.21241412
0.015789255 0.11203134 -0.14477989 -0.16954985 -0.26287037 -0.079356365 -0.03681813 -0.16554138
0.0064849495 -0.15714972 -0.06396388 -0.03233876 -0.02619636 -0.18605919 -0.23782218 0.085657746
0.295078 0.23202747 -0.15744528 -0.019191824 0.05382284 0.22570805 -0.040411692 0.034313787
0.26009464 0.011577151 -0.036626484 -0.15172854 -0.091385275 -0.0094235735 0.19787136 0.1311207
0.07779465 -0.0106671415 0.24931222 -0.24570526 -0.03976049 0.045256868 0.09225793 0.084739536
0.012828195 -0.020404356 -0.033685375 0.013810822 0.31515178 -0.15930977 -0.010581312 -0.02452738
0.22857682 -0.1773769 0.011499904 0.101866476 0.026370183 -0.12529269 -0.22890402 0.23235306
-0.21272485 -0.044154163 -0.10800243 -0.029707663 0.059665952 -0.2304731 0.06027553 0.017923716
-0.10242316 0.04509378 0.3439374 -0.08508033 0.0447036 0.15346415 0.19280589 -0.1719052
-0.07630079 -0.12440523 -0.09600893 0.08677146 0.19413164 -0.20155607 0.36652753 -0.13223742
0.009864399 -0.20811039 -0.2573104 -0.10277752 0.17061895 -0.13069838 0.30318755 0.10463043
0.18921502 -0.4556467 -0.051182505 0.18474522 0.17726937 0.15101317 -0.14187536 0.00719822
-0.23629853 -0.105375625 -0.22329737 -0.2772929 -0.29837707 0.033060458 0.08062237 -0.065663606
-0.14428799 0.048298627 0.12841769 -0.20411848 0.031979404 -0.14895122 0.26183203 -0.111982666
-0.010543196 -0.25314075 0.0641871 -0.19405173 0.39387378 0.31862313 -0.09784851 -0.30763277
00000000: ebfa 783d bfe5 783d 9ed0 963d 7ce3 113d
00000010: e43c 173c ae47 423b edfa fbbb b4ca cc3c
00000020: 4b4f 533d fd58 833d 9c72 c63b 144d 92bb
00000030: a85e febd d96d 393d 7bd0 50be 302d 003e
00000040: bbd4 df3c 6821 d9bc 2c52 113e dcda c93d
00000050: 684f 6e3d 86ac 8fbd ed88 e43c ae99 29bd
00000060: cf1f c73c b784 a33d 209e 423e 899c 323e
00000070: b917 d93d 3a43 65bd 70b9 94bc 8608 50bc
00000080: 03fa 913e c0aa 38be f77a d03d d5a6 333e
00000090: 1b92 bdbc 70e7 d33d 9081 b33d 6a71 bebb
000000a0: 5e79 c83d 27a0 27be 66a6 52be 37fb bc3c
000000b0: 0631 f9bd 2191 c13d 251e 433e bfdd 7ebd
000000c0: 7e1b b53d 201d 2bbd 64cd 5ebd 5081 ce3c
000000d0: 835e 823c b052 74be 7498 d1bd 2fdc c13b
000000e0: 90cd 1fbe e9e6 ddbc e5ce 51bd d9b2 ba3d
000000f0: d57d 323d 8569 893d b784 7d3d 107e a63d
00000100: a942 1fbd a394 293e 9510 413d 9ed3 c83d
00000110: b198 c8bd 3f0c d03d 1a2a 2ebe 39e4 523d
00000120: e1c0 843d bc92 9e3d 53ce 13be e922 8abe
00000130: e048 3cbe 4158 0abe 30fb e0bd 8d47 323e
00000140: c546 81bd eade 8cbc ba7b a13d 088c 6bbe
00000150: 3798 4bbd ed37 62be 57a1 e4bd ce45 23bd
00000160: f581 a83e 6bc6 013c 05cf eabe 03a6 ef3d
00000170: 6d90 533c 19f5 36bd 7946 89bd 61ed c63d
00000180: c505 1e3d ff3f 3cbe 85ea 0f3d cbb2 c63c
00000190: 01f4 ecbb 02c7 663e 6b50 84be 4f47 2abd
000001a0: 5b57 3fbe 9e94 923e 217f e7bd 14e9 10be
000001b0: 8044 98be a008 903d 820f 3fbd 2327 eebb
000001c0: b74e 91bd b4e1 983d c425 38be bc12 9f3d
000001d0: abd2 e23c c4dc 35be 67bf 7cbd c628 d2bd
000001e0: f2d9 1fbe 8f16 afbd 06fe a93d fe1a 8f3d
000001f0: 3ec8 8d3b b438 663e 3055 b63c fbd1 7c3d
00000200: 5050 2f3d 09e2 fb3d cebb 713e 2ddd f53d
00000210: d232 103e 56ba c03e 81a5 983c 1683 59be
00000220: 7858 813c b070 e53d 2e41 14be 7a9e 2dbe
00000230: f296 86be 9785 a2bd 9cce 16bd ae83 29be
00000240: b37f d43b dbeb 20be 7fff 82bd a675 04bd
00000250: c099 d6bc 4d86 3ebe a887 73be 546d af3d
00000260: 7714 973e 9c98 6d3e 5639 21be 2c38 9dbc
00000270: 5775 5c3d 0320 673e bb86 25bd 9d8c 0c3d
00000280: 202b 853e 17ae 3d3c a705 16bd ba5e 1bbe
00000290: 3428 bbbd 5565 1abc ca9e 4a3e 8144 063e
000002a0: cd52 9f3d 3cc5 2ebc b44b 7f3e 299a 7bbe
000002b0: e5db 22bd 445f 393d baf1 bc3d ec8b ad3d
000002c0: 592d 523c 0927 a7bc adf9 09bd c946 623c
000002d0: 935b a13e 1a22 23be 3d5d 2dbc a5ed c8bc
000002e0: 0b10 6a3e 4aa2 35be 186a 3c3c 5f9f d03d
000002f0: 4806 d83c ba4c 00be d165 6abe f6ed 6d3e
00000300: 8bd4 59be ffda 34bd 6130 ddbd 7c5d f3bc
00000310: 4964 743d 2401 6cbe 79e3 763d c2d4 923c
00000320: 3cc3 d1bd 41b4 383d 9018 b03e 993e aebd
00000330: 1f1b 373d b525 1d3e e86e 453e eb07 30be
00000340: 9743 9cbd 2bc8 febd 54a0 c4bd 3cb5 b13d
00000350: 72ca 463e b764 4ebe 7fa9 bb3e 3f69 07be
00000360: 4a9e 213c e41a 55be 30be 83be 057d d2bd
00000370: bcb6 2e3e ccd5 05be 663b 9b3e 7b48 d63d
00000380: 95c1 413e 864a e9be bfa4 51bd da2d 3d3e
00000390: 1a86 353e 32a3 1a3e c647 11be 0cdf eb3b
000003a0: 3ef8 71be 2dcf d7bd 11a8 64be 56f9 8dbe
000003b0: e1c4 98be 676a 073d 571d a53d a47a 86bd
000003c0: 3bc0 13be c8d4 453d ed7f 033e 6f04 51be
000003d0: d6fc 023d ab86 18be d90e 863e 2b57 e5bd
000003e0: 5fbd 2cbc aa9b 81be 8774 833d 7fb5 46be
000003f0: d3a9 c93e 9222 a33e cd64 c8bd 0b82 9dbe

decoders.0.fc.bias f4 [784]
-0.26215795 -0.04135787 -0.060064487 0.10094749 0.03921208 -0.29783076 -0.20115384 0.09382447
0.24869014 -0.09354435 -0.43843254 0.21279657 -0.414428 -0.072485276 -0.12378555 -0.3729506
-0.04155741 -0.073289745 -0.2850175 0.07583489 -0.006607185 0.32916224 0.080178194 0.28367078
-0.1684006 0.03883988 -0.015741056 -0.06400554 -0.21680185 0.10551169 0.08642019 -0.387874
0.3110147 0.07127026 0.051943198 0.326981 0.11903792 -0.029375587 -0.31942847 0.47897503
-0.18979661 0.25430566 0.2826881 0.050902728 0.098256156 0.08026075 -0.32916147 -0.115986235
0.3206864 -0.044370145 -0.05808464 -0.12622945 0.31608564 -0.21041529 -0.28110597 -0.13097484
-0.20119426 0.08222124 0.25638488 -0.46489942 -0.15812428 0.08618415 -0.09526651 -0.13005997
-0.019026212 0.095828496 -0.09764353 -0.14519815 -0.100169055 -0.22551273 0.13839065 -0.18952845
-0.023701277 -0.00407447 0.1478301 0.00014650055 -0.046572972 -0.22089262 0.05767981 0.07959564
-0.15781195 0.09451412 0.0635346 0.29609546 -0.09986537 0.068907864 0.05976539 0.030764233
-0.26927528 -0.24876767 -0.0234547 0.48866376 0.26809883 0.15684569 -0.01706134 0.27185377
0.14422013 -0.06418388 -0.060357295 0.3355846 -0.24443951 -0.23458222 0.09193087 0.08902028
0.10045719 0.45870405 -0.26779425 -0.3233613 0.122934096 0.35168076 -0.124106534 0.4293149
-0.10406438 -0.29453343 0.24137272 0.2873842 -0.14441197 -0.22957386 0.31977123 -0.051298257
-0.13492768 -0.06997812 0.0100293355 0.032568194 0.09203756 -0.10077984 -0.15072891 -0.056646068
-0.15006064 0.004374887 -0.04457369 -0.33714062 0.14921203 -0.12997442 0.0029995989 -0.11089419
0.063470274 0.22132549 -0.08032668 0.34492677 -0.11924747 -0.20277466 0.23860304 -0.14625897
0.07979016 0.2823022 -0.11109649 0.17229469 -0.24814424 -0.46509072 -0.17938416 -0.29836574
0.21298444 0.2675707 0.106392294 0.087198034 0.20689616 0.02270946 -0.33865383 -0.020054208
-0.08666438 0.116226435 0.5052078 -0.24427599 -0.03270726 0.25343552 0.013303104 -0.16090763
-0.08442251 -0.13293417 -0.15152241 -0.03209067 -0.0022342096 0.05975905 0.19876316 0.2624044
-0.06776989 -0.0077273617 -0.03151115 0.038745195 0.5208707 -0.07325438 0.020090582 0.11228829
0.068045184 -0.2265017 -0.032461703 0.26993582 -0.47888827 -0.031891473 -0.03134276 0.0043587373
0.08833531 -0.4514645 -0.040288668 0.47256798 -0.11033802 -0.14522709 -0.0929217 -0.4061189
-0.2693087 -0.03470894 -0.14621423 -0.23977904 0.31131595 -0.23044452 -0.29906076 0.3035663
-0.13766746 -0.34533328 -0.45051408 -0.1364708 -0.3424715 -0.324809 -0.32100254 0.14773868
0.20092887 -0.11671661 -0.17288081 0.08926637 -0.19017103 -0.49930787 -0.18855716 -0.06776728
-0.5999294 0.09321819 0.0716797 0.31228435 -0.06278512 0.03980619 -0.10085413 -0.140326
0.013977974 -0.06885518 -0.13696088 0.28374878 -0.0110831745 0.046474256 -0.5431445 -0.3260419
0.26405564 -0.29066682 -0.5188374 -0.15812378 0.5314889 0.009139992 -0.22201031 0.27849284
0.31184438 0.07364628 0.10915229 -0.1976664 0.013748007 0.20738019 0.2935267 0.22571458
00000000: 9139 86be df66 29bd 2e06 76bd 8fbd ce3d
00000010: d99c 203d 467d 98be 46fb 4dbe 0b27 c03d
00000020: a1a8 7e3e 2e94 bfbd 3b7a e0be 58e7 593e
00000030: e82f d4be 2973 94bd 4783 fdbd 62f3 bebe
00000040: 1a38 2abd ef18 96bd d0ed 91be 534f 9b3d
00000050: 1681 d8bb f487 a83e 7734 a43d 4c3d 913e
00000060: 3571 2cbe 9116 1f3d 63f3 80bc 5615 83bd
00000070: 4e01 5ebe 8316 d83d 12fd b03d 6c97 c6be
00000080: 523d 9f3e 24f6 913d 64c2 543d 0e6a a73e
00000090: 27ca f33d 12a5 f0bc 218c a3be 373c f53e
000000a0: 0b5a 42be 5a34 823e 7fbc 903e 617f 503d
000000b0: 863a c93d c05f a43d da87 a8be 318a edbd
000000c0: 0231 a43e 78bd 35bd 29ea 6dbd 4b42 01be
000000d0: fad5 a13e 1b77 57be 1fed 8fbe 451e 06be
000000e0: de05 4ebe 9c63 a83d e144 833e 4c07 eebe
000000f0: 55eb 21be 5181 b03d 171b c3bd 712e 05be
00000100: dcdc 9bbc bb41 c43d 55f9 c7bd d3ae 14be
00000110: 6f25 cdbd cfec 66be 47b6 0d3e bf13 42be
00000120: 2e29 c2bc 2283 85bb c660 173e f19d 1939
00000130: 4dc3 3ebd ad31 62be aa41 6c3d 0a03 a33d
00000140: 7599 21be 9e90 c13d 6e1e 823d d399 973e
00000150: 3786 ccbd 911f 8d3d 8ecc 743d 4605 fc3c
00000160: 73de 89be f4bc 7ebe 1224 c0bc 2332 fa3e
00000170: 4044 893e 289c 203e 39c4 8bbc 6b30 8b3e
00000180: 71ae 133e d772 83bd 3639 77bd bfd1 ab3e
00000190: 5a4e 7abe 5236 70be 4146 bc3d 4450 b63d
000001a0: 80bc cd3d 42db ea3e 541c 89be 9d8f a5be
000001b0: dfc4 fb3d 800f b43e 912b febd 2acf db3e
000001c0: b51f d5bd 16cd 96be 692a 773e 0624 933e
000001d0: bbe0 13be 6915 6bbe 0eb9 a33e 1f1e 52bd
000001e0: 7b2a 0abe b050 8fbd 1552 243c 3a66 053d
000001f0: 307e bc3d a965 cebd ae58 1abe b505 68bd
00000200: 7fa9 19be 365b 8f3b e792 36bd b29d acbe
00000210: 0acb 183e 0418 05be eb94 443b 7e1c e3bd
00000220: b4fc 813d 26a3 623e 5082 a4bd 3e9a b03e
00000230: 0438 f4bd 29a4 4fbe 5b54 743e e9c4 15be
00000240: 0669 a33d ea89 903e 8e86 e3bd 056e 303e
00000250: 8619 7ebe 5f20 eebe 7bb0 37be 65c3 98be
00000260: 9818 5a3e 07ff 883e 34e4 d93d e294 b23d
00000270: 96dc 533e 3109 ba3c 0964 adbe b948 a4bc
00000280: 187d b1bd 2008 ee3d 4c55 013f 7c23 7abe
00000290: 0cf8 05bd 4dc2 813e 43f5 593c f8c4 24be
000002a0: b5e5 acbd e51f 08be b128 1bbe 8271 03bd
000002b0: d16b 12bb e8c5 743d 9288 4b3e df59 863e
000002c0: f1ca 8abd cf35 fdbb d611 01bd 48b3 1e3d
000002d0: c857 053f 6406 96bd 0195 a43c 67f7 e53d
000002e0: 465b 8b3d 10f0 67be 90f6 04bd 0735 8a3e
000002f0: d830 f5be a2a0 02bd 4461 00bd bdd3 8e3b
00000300: 25e9 b43d 5b26 e7be bb05 25bd 6ef4 f13e
00000310: e6f8 e1bd 69b6 14be bb4d bebd d1ee cfbe
00000320: d4e2 89be f62a 0ebd 2fb9 15be a388 75be
00000330: ce64 9f3e a6f9 6bbe 7e1e 99be 0b6d 9b3e
00000340: b3f8 0cbe 86cf b0be c8a9 e6be 00bf 0bbe
00000350: 6d58 afbe 5e4d a6be 725a a4be cf48 173e
00000360: 4cc0 4d3e 1e09 efbd ab07 31be 49d1 b63d
00000370: 32bc 42be 48a5 ffbe 2115 41be 92c9 8abd
00000380: f994 19bf 2ee9 be3d cecc 923d bce3 9f3e
00000390: 7c95 80bd d10b 233d 9c8c cebd 9eb1 0fbe
000003a0: df03 653c f203 8dbd 793f 0cbe 8547 913e
000003b0: 3496 35bc ca5b 3e3d 850b 0bbf f7ee a6be
000003c0: 4d32 873e 48d2 94be 87d2 04bf 33eb 21be
000003d0: a80f 083f e8bf 153c ac56 63be 9d96 8e3e
000003e0: 11aa 9f3e dcd3 963d 3c8b df3d 1069 4abe
000003f0: 523f 613c 795b 543e 2249 963e b921 673e

decoders.1.model.0.weight f4 [16, 8, 3, 3]
-0.6334017 -0.0029160993 -0.11592658 0.040163063 0.4323677 0.34704867 -0.443814 -0.08585095
0.19830126 0.10157312 0.2864192 0.2894001 -0.26408225 -0.25719684 0.12500368 0.2627649
-0.315954 -0.4358472 -0.06603686 -0.06293116 -0.2147262 -0.4603907 -0.10542412 0.2745497
-0.36516154 -0.23576424 0.043593172 -0.16206133 0.43156874 0.4644921 0.013457843 4.93415e-40
-0.19642964 -0.038588528 0.24747789 -0.059586026 0.08693679 -0.123476505 -0.46705607 0.25934163
-0.04725458 -0.29184186 -0.17878145 0.22571173 -0.1285276 -0.29960945 0.18985552 0.39535117
-0.17330287 -0.39681634 -0.18847118 -0.14782701 -0.42823884 -0.17269543 -0.044888772 0.12081114
0.12316979 -0.24455407 0.1592972 0.03411567 0.10977451 0.41430286 0.2910071 0.15082069
0.20788175 -0.18018141 -0.37551615 -0.20858285 -0.41616657 -0.030571377 -0.18654865 -0.59738034
-0.13309185 0.3370871 0.043424428 -0.056042243 0.118890464 0.13698298 0.28094918 -0.28465876
0.69611824 -0.10557816 0.20467767 0.30958712 0.42864284 -0.21475558 -0.2550977 -0.012015446
-0.19997764 -0.063410684 -0.099592686 -0.20046383 0.3547074 -0.048688542 0.14620338 -0.06773713
0.1081262 -0.1839213 -0.14014831 0.22677192 -0.027382297 0.035637237 0.36080658 -4.92366e-40
0.32238942 0.084387116 0.11273486 0.12511052 0.054213036 0.27364233 -0.20829415 -0.69678813
-0.60118973 -0.2781001 -0.006179483 0.21821727 0.41642967 -0.17630345 -0.06166263 -0.16146435
0.31980067 0.5339471 0.548555 0.07338533 0.11674018 -0.028758118 0.07489125 0.19390601
-0.3636938 -0.13059828 0.4657907 0.4781137 -0.350564 0.4166119 0.24456419 0.030058295
-0.49219698 -0.16496775 0.39748785 0.62021476 -0.26395127 -0.08987974 -0.3894742 -0.4810774
-0.1646753 0.034856547 0.038955607 -0.26528046 -0.18134168 0.10848857 0.14327018 -0.85202086
-0.10113835 0.32030246 0.122343265 0.27382672 -0.10888989 -0.47745106 -0.25782338 -0.16186766
-0.05889807 -0.17422609 -0.21100815 0.043706674 0.2644817 -0.23783869 -0.27494118 -0.13287784
0.18944646 0.20422001 -0.020716062 -0.07502859 0.18390898 -0.055123206 0.24131392 -4.9116e-40
0.22038174 -0.0783891 0.42348516 -0.65754515 0.09449243 -0.079438865 -0.062173005 -0.06721319
0.3506406 0.6291766 0.19800925 -0.10014389 -0.056043707 -0.29206336 -0.07357701 -0.26643726
-0.60432297 -0.5332398 -0.6683701 -0.5606154 -0.8318777 -0.7109941 -0.09475743 -0.060889497
0.11958495 -0.1672555 -0.2507208 -0.3048732 -0.30385295 -0.6056437 0.25212076 -0.5065192
-0.24052906 -0.3548479 0.2256073 -0.027768958 -0.28607932 -0.39142552 -0.15949799 0.012846614
0.03511518 -0.34052515 -0.008283873 -0.11564393 -0.19176339 -0.23851804 0.6159293 0.30114886
-0.11150051 -0.07698864 0.19847465 0.10219656 0.185581 0.048280064 -0.55744034 0.40709186
-0.34413603 0.0049770665 -0.28330606 0.027533455 -0.18058398 -0.4210951 0.054737497 -0.053765483
0.16246708 -0.3841365 0.039897826 -0.07889471 -0.054844774 0.12359174 -0.19168128 -4.93012e-40
-0.09979852 -0.21785964 -0.117335744 0.009059716 -0.07697837 0.38293612 0.2822473 -0.22144897
00000000: 9d26 22bf 071c 3fbb ea6a edbd 0682 243d
00000010: 4d5f dd3e 5db0 b13e 973b e3be 9fd2 afbd
00000020: 7c0f 4b3e 9105 d03d 8aa5 923e 402c 943e
00000030: ca35 87be 4eaf 83be f700 003e 1f89 863e
00000040: b9c4 a1be 5d27 dfbe 553e 87bd 0de2 80bd
00000050: 2fe1 5bbe 54b8 ebbe 9ae8 d7bd c791 8c3e
00000060: 74f6 babe 2e6c 71be c18e 323d 68f3 25be
00000070: 94f6 dc3e e9d1 ed3e 497e 5c3c 715f 0500
00000080: da24 49be 010f 1ebd d86a 7d3e 7a10 74bd
00000090: ea0b b23d 40e1 fcbd f921 efbe 6dc8 843e
000000a0: 058e 41bd 4c6c 95be 7c12 37be fa20 673e
000000b0: bd9c 03be 6966 99be 7c69 423e 786b ca3e
000000c0: 4f76 31be 832b cbbe 97fe 40be f75f 17be
000000d0: 1f42 dbbe 12d7 30be 4add 37bd d56b f73d
000000e0: 7140 fc3d 626c 7abe ce1e 233e dfbc 0b3d
000000f0: 75d1 e03d 811f d43e e2fe 943e bd70 1a3e
00000100: f4de 543e 7a81 38be a743 c0be be96 55be
00000110: c913 d5be d370 fabc 9c06 3fbe ebed 18bf
00000120: 3b49 08be ae96 ac3e d0dd 313d 8d8c 65bd
00000130: d87c f33d 4445 0c3e 92d8 8f3e cbbe 91be
00000140: ce34 323f 5d39 d8bd 0697 513e 3482 9e3e
00000150: 1377 db3e e3e8 5bbe 2a9c 82be 6fdc 44bc
00000160: f0c6 4cbe 76dd 81bd 40f7 cbbd 6446 4dbe
00000170: 359c b53e a36d 47bd 57b6 153e c4b9 8abd
00000180: 4571 dd3d de55 3cbe 0a83 0fbe e636 683e
00000190: d750 e0bc 5af8 113d a4bb b83e 845c 0580
000001a0: 3a10 a53e 27d3 ac3d 89e1 e63d f91c 003e
000001b0: 7d0e 5e3d d91a 8c3e 104b 55be b560 32bf
000001c0: 92e7 19bf 2363 8ebe 437d cabb 5974 5f3e
000001d0: 4536 d53e e488 34be f491 7cbd e956 25be
000001e0: eabc a33e c2b0 083f 1a6e 0c3f 0c4b 963d
000001f0: 7a15 ef3d 2596 ebbc 9560 993d 4c8f 463e
00000200: 1336 babe 8ebb 05be 1e7c ee3e 52cb f43e
00000210: 207d b3be 284e d53e 096f 7a3e d03c f63c
00000220: 3e01 fcbe 4eed 28be 8783 cb3e 65c6 1e3f
00000230: 9f24 87be de12 b8bd 2a69 c7be c74f f6be
00000240: a4a0 28be bdc5 0e3d ea8f 1f3d d7d2 87be
00000250: a2b1 39be 412f de3d 6bb5 123e 0a1e 5abf
00000260: a021 cfbd affe a33e 1b8f fa3d 0433 8c3e
00000270: aa01 dfbd 7774 f4be 6d01 84be a3c0 25be
00000280: 1a3f 71bd 5368 32be 8512 58be c505 333d
00000290: 256a 873e fc8b 73be 17c5 8cbe 2111 08be
000002a0: 41fe 413e 0d1f 513e bbb4 a9bc 97a8 99bd
000002b0: a352 3c3e dfc8 61bd ff1a 773e 2759 0580
000002c0: c0ab 613e 778a a0bd 0cd3 d83e e154 28bf
000002d0: 3f85 c13d d8b0 a2bd 1fa9 7ebd 12a7 89bd
000002e0: 2a87 b33e b811 213f f0c2 4a3e 3d18 cdbd
000002f0: 168e 65bd 5489 95be 8baf 96bd 776a 88be
00000300: e9b4 1abf 6782 08bf 4e1a 2bbf 7e84 0fbf
00000310: f0f5 54bf b603 36bf 2f10 c2bd 4467 79bd
00000320: f4e8 f43d 0745 2bbe 7a5e 80be 5718 9cbe
00000330: 9d92 9bbe 770b 1bbf f915 813e 3eab 01bf
00000340: 404d 76be a0ae b5be 9a05 673e ba7b e3bc
00000350: fd78 92be ed68 c8be 7153 23be 9b7a 523c
00000360: efd4 0f3d 5059 aebe 15b9 07bc bad6 ecbd
00000370: 9f5d 44be 133e 74be 8bad 1d3f 2f30 9a3e
00000380: 615a e4bd 38ac 9dbd f03c 4b3e 6e4c d13d
00000390: f208 3e3e 51c1 453d 69b4 0ebf 586e d03e
000003a0: 9932 b0be a916 a33b 7e0d 91be d78d e13c
000003b0: 02eb 38be c799 d7be 6d34 603d 3239 5cbd
000003c0: c55d 263e 8aad c4be e76b 233d 8d93 a1bd
000003d0: eaa4 60bd ab1d fd3d 1948 44be 515e 0580
000003e0: 2b63 ccbd 9916 5fbe b94d f0bd 346f 143c
000003f0: d6a6 9dbd 3410 c43e b882 903e 85c3 62be

decoders.1.model.0.bias f4 [8]
0.11189599 -0.28816128 -0.57863253 -0.4672198 -0.23597074 -0.0083803525 -0.0215991 -0.20114835
00000000: ba29 e53d e089 93be 4321 14bf 6f37 efbe
00000010: 50a2 71be bf4d 09bc 99f0 b0bc d5f9 4dbe
