models/model_diabetes_4.pth (torch, 10735 bytes, 23 tensors)

weights f4 [2, 8]
0	0x40685144	3.62996
1	0x407d1a19	3.9547179
2	0x3f8f6cf7	1.1205128
3	0x3f8f1c6f	1.1180552
4	0x40d35d36	6.6051283
5	0x412cc59b	10.7982435
6	0x408feb4e	4.4974737
7	0x4127193c	10.443661
8	0xbf7ad8c8	-0.9798703
9	0x40ecd1e3	7.400621
10	0x40cb54b4	6.3540897
11	0x3e61cd5a	0.22050992
12	0x40020871	2.0317652
13	0x41591e86	13.569952
14	0x403318d6	2.7983909
15	0x408a5024	4.322283

autoencoders.0.encoder.layers.0.weight f4 [4, 8]
0	0xad8cad55	-1.5993132e-11
1	0xb8cb02c4	-9.6803094e-05
2	0xb56dbb71	-8.8562143e-07
3	0x08c52389	1.18648605e-33
4	0xb6a95ed7	-5.0476333e-06
5	0x88a66929	-1.0015485e-33
6	0xb41dc452	-1.4693185e-07
7	0x12de1464	1.4015196e-27
8	0xbd8d5826	-0.069015786
9	0x3df25784	0.118330985
10	0x3dc1fd33	0.09472122
11	0xbd3193ec	-0.04335396
12	0x3f6e4f73	0.9308998
13	0x3e5d7b07	0.21628962
14	0x3f3af7a0	0.73034096
15	0xbe53d429	-0.20686401
16	0x3de75aac	0.11296591
17	0x3cb6ca9f	0.022313414
18	0x3d062b1b	0.032755952
19	0xbc72b000	-0.0148124695
20	0x3ef1d6f9	0.47234324
21	0xbe0e87bb	-0.13918965
22	0xbf56f05f	-0.8396053
23	0x3e51663c	0.20449156
24	0x3d864a78	0.065571725
25	0xbc1bd713	-0.009511727
26	0xbb2de37b	-0.0026533294
27	0x3b83888d	0.004014081
28	0x3bcc571a	0.0062359693
29	0xbdb5186c	-0.08842549
30	0x3fbf9179	1.496627
31	0x3e0a5252	0.13507965

autoencoders.0.encoder.layers.0.bias f4 [4]
0	0xb8473000	-4.749e-05
1	0xbe1daf76	-0.15398964
2	0x3f08dd87	0.53463024
3	0xbf09fef7	-0.5390467

autoencoders.0.encoder.layers.2.weight f4 [2, 4]
0	0xbc2230f1	-0.009899364
1	0x3e96e9a0	0.29475117
2	0xbf0f0d07	-0.55879253
3	0x3f9a8cd9	1.2074233
4	0x35af7930	1.3073786e-06
5	0x3f1e6d8e	0.6188592
6	0x3e865fab	0.26244864
7	0xbea16125	-0.31519428

autoencoders.0.encoder.layers.2.bias f4 [2]
0	0xbedaa60a	-0.42704803
1	0x3ea0a41e	0.3137521

autoencoders.0.encoder.layers.4.weight f4 [1, 2]
0	0x403d49c2	2.9576268
1	0xbe9f19eb	-0.3107446

autoencoders.0.decoder.layers.0.weight f4 [2, 1]
0	0x3fadbd12	1.3573325
1	0xc002de46	-2.0448165

autoencoders.0.decoder.layers.0.bias f4 [2]
0	0x3f3b25ba	0.7310444
1	0x3e8495b9	0.2589548

autoencoders.0.decoder.layers.2.weight f4 [4, 2]
0	0x8142e262	-3.5794594e-38
1	0xa140cf4f	-6.53265e-19
2	0xa29d0c26	-4.2567798e-18
3	0xa4349fee	-3.9166744e-17
4	0x3f84faba	1.0389016
5	0xbf2098c1	-0.62733084
6	0x3f77556c	0.9661472
7	0xbf72e1f0	-0.94876003

autoencoders.0.decoder.layers.2.bias f4 [4]
0	0x9472112e	-1.2221266e-26
1	0xa492595c	-6.346879e-17
2	0x3f0a2b43	0.5397226
3	0x3d8e9076	0.069611475

autoencoders.0.decoder.layers.4.weight f4 [8, 4]
0	0x006568b4	9.312946e-39
1	0xa38c3cc3	-1.5204564e-17
2	0x3dbc0012	0.09179701
3	0x3fdd450d	1.7286698
4	0x00dcd8f7	2.0281641e-38
5	0xa4ba85e5	-8.089147e-17
6	0xbe10ab09	-0.14127745
7	0x3fd43814	1.6579614
8	0x00ed06ff	2.1767522e-38
9	0x21d94992	1.4723966e-18
10	0xbe0e7965	-0.13913496
11	0xbedcdb0d	-0.43135872
12	0x005ac44e	8.335616e-39
13	0x22b4676e	4.889861e-18
14	0xbc37c51f	-0.011216431
15	0xbf12e08e	-0.57373893
16	0x010cbc83	2.584919e-38
17	0xa44b0634	-4.4023862e-17
18	0xbfd4b36a	-1.6617253
19	0xbf275173	-0.65358657
20	0x837b992d	-7.3938108e-37
21	0x246be6a5	5.1152866e-17
22	0x3dd6dfa7	0.10491877
23	0x3faab352	1.3335974
24	0x0122397a	2.9795938e-38
25	0xa414bf28	-3.22543e-17
26	0x3d669a48	0.056299478
27	0x3e06dbbc	0.1316976
28	0x8054337e	-7.732654e-39
29	0xa40bb091	-3.0290378e-17
30	0xbd07f443	-0.03319193
31	0x3eab43d7	0.33450195

autoencoders.0.decoder.layers.4.bias f4 [8]
0	0x3e1d6bf2	0.15373209
1	0x3f0d873c	0.55284476
2	0x3de88cd0	0.11354983
3	0x3d0e716f	0.034776147
4	0x3f84f980	1.0388641
5	0x3dd886e1	0.10572601
6	0x3eacf941	0.33783916
7	0x3e784203	0.24243931

autoencoders.1.encoder.layers.0.weight f4 [4, 8]
0	0xbd64b0c8	-0.055832654
1	0x3cc221e5	0.023697803
2	0xbcec94df	-0.028879581
3	0xbcf194c0	-0.029489875
4	0xbd20739c	-0.039172754
5	0xbc9e74b6	-0.019342761
6	0x3ec62304	0.3869859
7	0x3f814f72	1.010237
8	0xbbdb22ff	-0.0066875215
9	0xbcc4e19e	-0.024033364
10	0x3e263728	0.16231978
11	0x3c2f8658	0.010713182
12	0xbb5e7fdd	-0.0033950724
13	0x3aa74c7c	0.0012763883
14	0xbfe890dc	-1.8169208
15	0x3e596b70	0.2123239
16	0xbe467797	-0.19381557
17	0x3e1dc6c6	0.15407857
18	0x3ecbae32	0.39781338
19	0x3dd51c0f	0.104057424
20	0xbcb2e8c3	-0.021839505
21	0x3da6bdd0	0.081416726
22	0x3f274ad5	0.6534856
23	0x3faec1bc	1.3652873
24	0x3d5e18ed	0.05422299
25	0xbdaf3ec1	-0.08556891
26	0x3f2053f6	0.62628114
27	0xbdb7986f	-0.08964621
28	0xbd20fb88	-0.03930238
29	0x3dd73bb3	0.105094336
30	0x3eaa4cee	0.33261818
31	0x3fba4794	1.4553094

autoencoders.1.encoder.layers.0.bias f4 [4]
0	0xbeb9301f	-0.36169526
1	0x3f071a53	0.5277454
2	0xbeae1815	-0.34002748
3	0xbe3f4e46	-0.18682203

autoencoders.1.encoder.layers.2.weight f4 [2, 4]
0	0xbfe1e51c	-1.7648044
1	0xc024b27f	-2.5733945
2	0x3f624772	0.88390267
3	0x3f86c750	1.0529575
4	0x3fb8ceff	1.443817
5	0x3f703a44	0.93838906
6	0x3dcb373a	0.09922643
7	0x3d8323e3	0.06403329

autoencoders.1.encoder.layers.2.bias f4 [2]
0	0xbd94e790	-0.072707295
1	0xbe0f60f5	-0.1400183

autoencoders.1.encoder.layers.4.weight f4 [1, 2]
0	0x3fedfff1	1.8593732
1	0xbf140351	-0.5781756

autoencoders.1.decoder.layers.0.weight f4 [2, 1]
0	0x3f9601c6	1.1719291
1	0xc008a551	-2.13509

autoencoders.1.decoder.layers.0.bias f4 [2]
0	0xbf4f3bdc	-0.80950713
1	0x3f69b327	0.9128899

autoencoders.1.decoder.layers.2.weight f4 [4, 2]
0	0x3f312f00	0.6921234
1	0x3fcbce2d	1.5922295
2	0xbea724c8	-0.3264525
3	0xbe528bad	-0.20561095
4	0x3f886b42	1.0657732
5	0x803af50c	-5.414365e-39
6	0x910bac37	-1.1018234e-28
7	0x8170afc9	-4.4207158e-38

autoencoders.1.decoder.layers.2.bias f4 [4]
0	0x3f06c40c	0.52642894
1	0x3f758d25	0.95918494
2	0xbee35e14	-0.44407713
3	0xb10f7b6e	-2.08794e-09

autoencoders.1.decoder.layers.4.weight f4 [8, 4]
0	0x3e4c4de4	0.19951588
1	0x3d921991	0.07133783
2	0xbe029a8b	-0.12754266
3	0x80289f28	-3.730514e-39
4	0xbd0e7b9f	-0.034785863
5	0x3e9cfa3f	0.30659673
6	0x3e041539	0.12898721
7	0x9c1a4e39	-5.1055426e-22
8	0xbda2e9d0	-0.079547524
9	0xbc4147aa	-0.011796871
10	0x3f06d165	0.5266326
11	0x00925477	1.3438283e-38
12	0x3db5a3f8	0.08869165
13	0xbe839a6b	-0.2570375
14	0xbe008ef3	-0.12554531
15	0x80f46c87	-2.2446793e-38
16	0x3e96b2e1	0.2943335
17	0x3f136553	0.57576483
18	0x3ba5b5a5	0.005057054
19	0x0471bcd2	2.8416116e-36
20	0xbe59a028	-0.21252501
21	0x3ece58b1	0.4030204
22	0x3e86657f	0.2624931
23	0xa09fa02f	-2.7041648e-19
24	0x3e0fb3a6	0.14033374
25	0x3ede6019	0.43432692
26	0x3d3fe146	0.046845697
27	0x00c0eeba	1.7718054e-38
28	0x3fd7db69	1.6863834
29	0xbf8e2f7a	-1.1108239
30	0xbfcd5b22	-1.6043437
31	0x00d3b6b0	1.9442826e-38

autoencoders.1.decoder.layers.4.bias f4 [8]
0	0x3d2569ec	0.040384218
1	0x3f02ebe2	0.5114118
2	0x3d3c2b8b	0.045939963
3	0x3ea255e3	0.3170615
4	0xbe0a8523	-0.1352735
5	0x3de056d8	0.10954064
6	0x3dfae0d4	0.12249914
7	0x3ee8c7a9	0.4546483
