models/model_diabetes_6.pth (torch, 10735 bytes, 23 tensors)

weights f4 [2, 8]
00000000: 2ac1 6240 9a77 6b40 3b23 8d3f ab4a af3f
00000010: f5d0 b640 6abc 2c41 5ca8 93c0 1c7d a4bf
00000020: 6559 aabf 96ff e340 bb2c 293e 20ef 1f41
00000030: 75a5 0d40 13c2 3b41 26d4 fa3f 571e 41c0
3.5430398 3.679175 1.1026376 1.3694662 5.7130075 10.796 -4.6143017 -1.285068
-1.3308531 7.1249495 0.1652097 9.99588 2.2132237 11.734881 1.9595993 -3.0174768

autoencoders.0.encoder.layers.0.weight f4 [4, 8]
00000000: b918 a13c a06f e6bd 0fad 243c d8e7 dc3c
00000010: ae52 84be 995f 183d f37b 2f3e 9bd3 903f
00000020: a34e d9bc d904 0a3e ed8f 4f3d 970c c939
00000030: 1052 013f b5d7 653d 6551 053e 28d2 643f
00000040: 2214 ed3b e9c7 223c 9796 babb 9822 42bc
00000050: 73d4 00bd 5a63 963c e015 803e ad39 ab3f
00000060: ac4d 0abc c91f dbb9 0f9f e8ba 7f93 243c
00000070: 7269 e4ba 8a58 87bb aa1e 933f ab1e 70bf
0.019665109 -0.112517595 0.010051026 0.02696602 -0.2584433 0.037200544 0.17137127 1.1314577
-0.026526755 0.13478412 0.050674368 0.00038347088 0.5051584 0.056113917 0.13019331 0.89383173
0.007235066 0.009935358 -0.0056942212 -0.011849068 -0.031452607 0.018357921 0.2501669 1.3376976
-0.00844137 -0.00041794617 -0.0017747598 0.010044931 -0.0017426445 -0.0041304277 1.1493733 -0.93796796

autoencoders.0.encoder.layers.0.bias f4 [4]
00000000: 92c5 233e ebd2 a7bd f8f2 00be e7bf 06be
0.15993336 -0.08194526 -0.12592685 -0.13159142

autoencoders.0.encoder.layers.2.weight f4 [2, 4]
00000000: c495 553e d363 3c3e 49fc 5c3f 906b d23f
00000010: 28fa d73e 479d 4dbf c82f 343e 2cd6 6b3c
0.20857912 0.18397455 0.86322457 1.6439075 0.42183042 -0.8031811 0.17596352 0.014394324

autoencoders.0.encoder.layers.2.bias f4 [2]
00000000: 62f8 6dbf 7900 083f
-0.9295713 0.5312572

autoencoders.0.encoder.layers.4.weight f4 [1, 2]
00000000: 0e0f ae40 e2e8 bc3e
5.4393377 0.36896425

autoencoders.0.decoder.layers.0.weight f4 [2, 1]
00000000: f098 8a81 6c9a f4bf
-5.091265e-38 -1.9109626

autoencoders.0.decoder.layers.0.bias f4 [2]
00000000: fb45 c180 7428 623f
-1.7749355e-38 0.88342977

autoencoders.0.decoder.layers.2.weight f4 [4, 2]
00000000: 7a7f 9a01 0ced 77bf b150 6a81 d4bb 0ebf
00000010: 2586 9381 ec3f 4cbf da9b df80 5254 0d3f
5.6753586e-38 -0.9684608 -4.3036905e-38 -0.5575535 -5.419176e-38 -0.7978504 -2.0535225e-38 0.5520679

autoencoders.0.decoder.layers.2.bias f4 [4]
00000000: 83c6 473f 3128 013f 5c33 e73e c0e7 6a3d
0.7803728 0.5045195 0.45156372 0.05734992

autoencoders.0.decoder.layers.4.weight f4 [8, 4]
00000000: bb0f 0b3e 9f61 bc3e 0560 493e a10b 823e
00000010: 48b5 b63e e0ac 8dbd 5f4a 2cc0 68f1 4d3f
00000020: 5d89 e93e a421 a4be 70ba 71bf b79e 123f
00000030: 8e17 8fbd 0375 8cbd ca5f 2fbf ffbf 87be
00000040: 1fe3 85bf 8402 f7bf bec5 f33d 8741 943f
00000050: d427 133e 0ffd 3bbd 85cc 95bd 972d 90bd
00000060: 93c5 353f 9f16 63bf 9c71 163f d87d b63e
00000070: c2be a43e c610 5cbe 702b bc3e 325a d73e
0.1358022 0.3679323 0.19665535 0.25399497 0.35685182 -0.06917739 -2.6920393 0.8044648
0.45612612 -0.32056916 -0.94425106 0.5727343 -0.069869146 -0.06858256 -0.6850554 -0.2651367
-1.0459937 -1.9297643 0.11902951 1.1582497 0.14370662 -0.045895632 -0.073144 -0.070399456
0.710046 -0.8870639 0.58767104 0.35642886 0.32176787 -0.21490774 0.3675189 0.42061

autoencoders.0.decoder.layers.4.bias f4 [8]
00000000: beba 153c 7160 103e 58e2 43be 57bf 353e
00000010: 79f8 843e 0a51 0f3e 1621 363e edb2 f13c
0.009138761 0.1409929 -0.19129312 0.17748772 0.2597082 0.13995758 0.17786059 0.029504264

autoencoders.1.encoder.layers.0.weight f4 [4, 8]
00000000: 1020 f93d 5e11 1f3e 5f28 093e 8bac 72be
00000010: daf0 48bd a4a8 123e 9525 9f3f 573b b33c
00000020: 864d d2bd c3f7 4a3e 36c6 92bd d41b 0ebf
00000030: 8776 30bc fd95 983e 57d3 633f 600b b63d
00000040: 8804 9a3d 82bb e63e d3af 883e 34da ab3e
00000050: 0e53 dabd 60c3 95be 5a28 f5be 7a12 fa3d
00000060: e74b ca3d 5d3d a1bc 94ed 6abc 6bad 0cbc
00000070: fcf6 083d 6d9b 8b3d 5deb 58be 5362 fabf
0.121643186 0.15533969 0.13394307 -0.23698632 -0.04905782 0.14322144 1.2433344 0.021878881
-0.10268693 0.19821076 -0.07166712 -0.5551121 -0.010770447 0.29801932 0.88994354 0.08888888
0.075203955 0.45064932 0.26696643 0.33564913 -0.10660373 -0.29250622 -0.47882348 0.122105554
0.098777585 -0.01968258 -0.01433887 -0.008586268 0.033438668 0.068167545 -0.21183534 -1.9561256

autoencoders.1.encoder.layers.0.bias f4 [4]
00000000: db70 8dbe 10f1 1c3e 7240 bf3e 08b8 ea3e
-0.27625164 0.15326333 0.37353855 0.4584353

autoencoders.1.encoder.layers.2.weight f4 [2, 4]
00000000: be4c 583f e890 393f 4fe9 613e 8f71 1cc0
00000010: f551 e2be b07f babd 177b 1e3f 0baf 2340
0.844921 0.72486734 0.22061656 -2.444431 -0.44203153 -0.09106386 0.6190657 2.5575588

autoencoders.1.encoder.layers.2.bias f4 [2]
00000000: 5cb9 63be 60c5 f53e
-0.22238678 0.48002148

autoencoders.1.encoder.layers.4.weight f4 [1, 2]
00000000: 2fc7 83bf 9af7 8a3f
-1.0295161 1.0856812

autoencoders.1.decoder.layers.0.weight f4 [2, 1]
00000000: 4683 9f3e 2a54 b83f
0.3115484 1.4400685

autoencoders.1.decoder.layers.0.bias f4 [2]
00000000: 3acb 0b3f 7f28 103f
0.54606974 0.5631179

autoencoders.1.decoder.layers.2.weight f4 [4, 2]
00000000: 10df 9a3e 92bd 873f 1cb8 8abf 114f 153d
00000010: 81d6 a781 8c0e f180 32a3 32bd 8a8d 913b
0.30248308 1.0604727 -1.0837436 0.036452357 -6.165391e-38 -2.2137573e-38 -0.043612666 0.0044419216

autoencoders.1.decoder.layers.2.bias f4 [4]
00000000: b94c 873e f4ff 413f fe35 aa80 89c0 45bd
0.26425722 0.7578118 -1.5631403e-38 -0.04827932

autoencoders.1.decoder.layers.4.weight f4 [8, 4]
00000000: 6122 923d 545f 193d 759c 9c01 feaa 0eb9
00000010: 3e29 25bd e1b3 ecbd 4e27 1401 2439 1eb9
00000020: 0871 373d f85b a53c b4e3 fe00 652f a62a
00000030: add5 483f 423f 103e 7cb3 ac81 4da8 bc3c
00000040: 4e38 acbc e818 05bd dec7 8c81 9fb2 66ba
00000050: 068f 9abd 57c4 7fbe 9509 2c80 8d80 8fbb
00000060: 28b7 7f3e 187d 9c3f 520f 5c81 2c85 a828
00000070: 7489 b9bc 5cc2 aebc cae6 9181 2e57 94b9
0.071354635 0.037444428 5.7529854e-38 -0.00013605875 -0.040322535 -0.11557747 2.7211507e-38 -0.00015089341
0.04478553 0.020185456 2.34079e-38 2.952041e-13 0.78451043 0.14086631 -6.344037e-38 0.02302947
-0.021022942 -0.032494456 -5.1714673e-38 -0.00088004203 -0.07546811 -0.24977241 -4.044199e-39 -0.004379338
0.24972212 1.2225676 -4.041861e-38 1.8709501e-14 -0.02264855 -0.021332912 -5.3595754e-38 -0.00028293714

autoencoders.1.decoder.layers.4.bias f4 [8]
00000000: a2b8 3a3e 0426 5a3f 0dca 513e 0e03 96be
00000010: fe0d 1b3f 567c eb3e da49 2cbc e325 0a3f
0.18234494 0.8521426 0.20487233 -0.29299206 0.60568225 0.45993298 -0.010515654 0.5396406
