models/model_octminst_4.pth (torch, 563411 bytes, 27 tensors)

weights f4 [4, 784]
000000 da 77 8d 3f 67 c7 72 3f a0 ed 51 3f 0f 77 4d 3f
       1.1052201 0.94835514 0.8200321 0.80259794
000010 43 aa 63 3f ad d6 4b 3f 4a 83 79 3f 02 70 69 3f
       0.88931674 0.79624444 0.97465956 0.91186535
000020 c3 08 81 3f 32 9c 53 3f 4a 64 7d 3f 97 af 74 3f
       1.0080799 0.8266021 0.98981154 0.9558043
000030 e1 bd 71 3f 21 35 4a 3f ab 57 4d 3f 96 75 62 3f
       0.9443036 0.7898732 0.80211896 0.8846067
000040 22 5a 85 3f be ef 5e 3f 86 8e 69 3f 99 a6 4f 3f
       1.0418131 0.8708457 0.912331 0.8111358
000050 0e d3 48 3f 6a 8c 3c 3f d0 e4 4a 3f 14 e9 5f 3f
       0.78447044 0.73651755 0.7925539 0.87465024
000060 63 25 5f 3f 8d e1 53 3f 38 5c 58 3f e5 ee 35 3f
       0.8716642 0.8276604 0.84515715 0.7106765
000070 78 a4 36 3f 01 2c 0d 3f a0 7a 09 3f 82 ef cc 3e
       0.7134471 0.5514527 0.53702736 0.4002648
000080 2b bb bf 3e 7b 4f cc 3e 57 e3 3f 3f 81 4b 46 3f
       0.37447485 0.3990439 0.7495627 0.7745896
000090 4e a3 58 3f 76 da 34 3f 34 24 3e 3f 4d 77 3e 3f
       0.84624183 0.70645845 0.7427399 0.7440079
0000a0 e3 2a 49 3f 98 17 37 3f fa 99 5e 3f 01 2b 42 3f
       0.78581065 0.71520376 0.869537 0.7584687
0000b0 c3 df 3d 3f a1 44 33 3f a5 ab 4f 3f 13 c5 2e 3f
       0.7416956 0.70026594 0.81121284 0.6826946
0000c0 3e 21 46 3f b3 39 1d 3f f1 17 33 3f d1 79 29 3f
       0.77394474 0.6141617 0.69958407 0.662015
0000d0 0b fb 3e 3f 55 02 32 3f a7 4e 42 3f 44 ca 3e 3f
       0.7460181 0.6953481 0.75901264 0.7452738
0000e0 fd 96 20 3f e9 f4 27 3f 15 5a 4f 3f 10 f9 55 3f
       0.6273039 0.6560808 0.8099683 0.83583164
0000f0 34 4f 6b 3f 80 6a 5f 3f 07 5f 62 3f d3 cf 3d 3f
       0.9191773 0.8727188 0.8842625 0.7414524
000100 1c ed 50 3f b2 be 30 3f 7e 53 29 3f 2f 64 2a 3f
       0.816118 0.6904098 0.66143024 0.6655912
000110 bb 95 5a 3f 99 aa 2e 3f cc 28 41 3f 24 c5 42 3f
       0.8538472 0.6822906 0.75452876 0.7608206
000120 f3 09 43 3f 9f fc 46 3f 27 cd 46 3f 24 a3 52 3f
       0.76187056 0.7772922 0.7765679 0.8228018
000130 87 01 5f 3f 94 03 34 3f 82 63 4c 3f a4 e1 61 3f
       0.87111706 0.7031796 0.79839337 0.88234925
000140 ce 98 7e 3f f0 08 6c 3f 36 eb 59 3f 31 3f 30 3f
       0.9945191 0.9220114 0.8512453 0.6884642
000150 7f 2b 13 3f dc 7d 0b 3f fb 9c 11 3f 5f 84 e8 3e
       0.57488245 0.5448892 0.5688016 0.4541349
000160 59 8b 0a 3f 9d 78 05 3f e8 8e 1b 3f ba 9b 1a 3f
       0.5411888 0.52137166 0.6076493 0.6039387
000170 6c e1 3f 3f 0d f5 19 3f 09 dc 11 3f 84 27 00 3f
       0.7495334 0.6013954 0.5697637 0.50060296
000180 89 8b 28 3f 09 86 1b 3f 3f c4 2c 3f 0a 52 32 3f
       0.65837914 0.60751396 0.6748695 0.6965643
000190 e4 9d 54 3f 89 09 2a 3f 65 c3 29 3f 50 35 13 3f
       0.8305342 0.664208 0.66313773 0.57503223
0001a0 4f 62 13 3f f7 f9 e3 3e 24 25 ee 3e 56 4f df 3e
       0.5757188 0.44526646 0.4651271 0.43615216
0001b0 2b a9 13 3f d0 be 2e 3f aa 5f 3f 3f 7a 9f 39 3f
       0.57680005 0.68259907 0.74755347 0.72508967
0001c0 5a e2 54 3f e8 c9 5b 3f 2c 43 41 3f 36 ea 4f 3f
       0.83157885 0.8585496 0.7549312 0.8121675
0001d0 08 29 58 3f 8e e2 3c 3f 6f d9 29 3f 5f 51 33 3f
       0.8443761 0.73783195 0.663474 0.7004604
0001e0 09 94 23 3f c7 ac 1f 3f 6e ce 27 3f 0b f6 32 3f
       0.6389776 0.6237301 0.6554936 0.6990668
0001f0 a8 26 2d 3f 59 1e 29 3f 2f f6 44 3f 45 9e 37 3f
       0.6763711 0.6606193 0.76938146 0.71725875
000200 7a c1 2c 3f a1 bf 1b 3f bc ef 2a 3f fd 77 3d 3f
       0.6748272 0.6083928 0.66772056 0.7401121
000210 6b ba 51 3f 4e b7 6c 3f 91 3e 8a 3f 6b 44 6e 3f
       0.81925076 0.924672 1.0800344 0.9307315
000220 00 ee 4b 3f b0 97 3d 3f 58 a4 13 3f 6b 16 01 3f
       0.79660034 0.7405958 0.57672644 0.5042483
000230 9f c9 55 3f 44 09 47 3f 19 d0 26 3f 59 28 37 3f
       0.83510774 0.77748513 0.6516128 0.7154594
000240 39 34 37 3f 9b 27 18 3f 49 31 32 3f 7d 59 24 3f
       0.7156406 0.59435433 0.69606453 0.6419905
000250 6f 0b 1f 3f ca 37 33 3f 1c ac 63 3f 86 94 38 3f
       0.6212682 0.70007 0.88934493 0.7210163
000260 2a 72 18 3f 65 12 26 3f b7 93 8b 3f 64 8e 93 3f
       0.595492 0.6487182 1.0904454 1.1527829
000270 de 0c 62 3f e6 c9 37 3f 82 e2 3f 3f 31 4b 4f 3f
       0.88300884 0.7179245 0.74955 0.8097411
000280 03 df 23 3f 2d bb 08 3f f6 95 14 3f 2a dc c0 3e
       0.64012164 0.5341061 0.5804132 0.37667972
000290 65 ba 0d 3f 25 5b 1d 3f e0 d1 47 3f 52 56 47 3f
       0.5536254 0.614672 0.7805462 0.7786609
0002a0 09 cf a3 3f 21 72 8f 3f e0 96 44 3f 23 48 40 3f
       1.2797557 1.1206704 0.76792717 0.7511007
0002b0 b4 28 35 3f d9 0a 4a 3f 4c ae 7c 3f ff e2 78 3f
       0.70765233 0.789228 0.98703456 0.9722137
0002c0 45 26 1a 3f 97 6b 22 3f 04 ed 3c 3f 81 d4 3f 3f
       0.60214645 0.6344542 0.7379916 0.7493363
0002d0 5a 29 36 3f ac 3b 7f 3f a1 7d 92 3f ff 60 91 3f
       0.7115685 0.9970043 1.1444589 1.1357726
0002e0 cd eb 85 3f 31 04 5a 3f 7c 6f 5a 3f 44 cf 4e 3f
       1.0462586 0.85162646 0.8532636 0.8078501
0002f0 e2 19 0a 3f 7a c3 12 3f 11 fe 24 3f 81 41 3f 3f
       0.53945744 0.57329524 0.64450175 0.74709326
000300 72 d2 0a 3f 87 30 53 3f 1d d9 7f 3f 50 b0 72 3f
       0.54227364 0.8249592 0.99940664 0.9480028
000310 83 bc be 3f 80 22 a6 3f e0 d2 89 3f 49 fa 59 3f
       1.4901279 1.2979279 1.0767479 0.8514753
000320 df e6 20 3f b1 6c 2b 3f 85 8c 42 3f 59 fa 2b 3f
       0.6285228 0.66962725 0.75995666 0.67178875
000330 49 35 41 3f 72 a4 33 3f b9 f3 da 3e c0 b7 f0 3e
       0.7547193 0.701728 0.4276407 0.4701519
000340 34 f1 4d 3f 33 0f 5a 3f 43 5c 63 3f 68 e9 ce 3e
       0.8044617 0.8517944 0.88812655 0.4041245
000350 94 8e 37 3f ca 23 67 3f 75 eb 85 3f 8a ea a1 3f
       0.7170193 0.90288985 1.0462481 1.2649701
000360 ec 3d 9a 3f 3e 5f 92 3f 62 17 7b 3f d7 fc 73 3f
       1.2050147 1.1435316 0.98082554 0.9530768
000370 37 ec 5c 3f fd 1b 66 3f 91 99 7d 3f 1d 38 69 3f
       0.86297935 0.89886457 0.9906245 0.9110125
000380 c5 01 c2 3f 5a f1 c5 3f 06 d3 ce 3f 11 c0 b3 3f
       1.515679 1.546428 1.6158149 1.4042989
000390 4a fc 8f 3f 1d 2e 60 3f 0c c7 6b 3f 2f 29 71 3f
       1.1248868 0.87570363 0.92100596 0.94203466
0003a0 30 91 a4 3f c4 06 80 3f 0a 42 58 3f 71 d5 6a 3f
       1.2856808 1.0002065 0.8447577 0.91731936
0003b0 8b 52 c0 3f 5a 5b c1 3f 95 1c b7 3f 9b 9f 96 3f
       1.502519 1.5106003 1.4305598 1.1767458
0003c0 6d 4c 9b 3f a0 f0 80 3f d2 d0 61 3f 6c 0b 4c 3f
       1.2132698 1.0073433 0.8820926 0.7970493
0003d0 67 18 2e 3f f4 0b 3d 3f e9 fb 79 3f 98 2f 82 3f
       0.68005985 0.73846364 0.9765001 1.0170774
0003e0 c9 75 a1 3f 3f a9 9e 3f 93 66 8c 3f 37 ef 78 3f
       1.261407 1.23954 1.0968803 0.9724001
0003f0 3e 6f c0 3f 28 43 b2 3f ed 42 9d 3f 67 f0 81 3f
       1.5033948 1.3926744 1.2286049 1.015149

encoder.model.0.weight f4 [8, 1, 3, 3]
000000 43 fd e4 bd 26 27 0a 3d b0 ca e7 bd a9 65 9d be
       -0.11181118 0.03372874 -0.113179564 -0.30741623
000010 1f 80 f5 be a4 81 b6 be 17 a3 13 3f b9 da 0d 3f
       -0.4794931 -0.35645783 0.5767073 0.5541187
000020 15 e6 b7 3e 60 ab ec 3e 79 36 ab bd 2f 05 9c be
       0.35917726 0.462245 -0.08359999 -0.30472705
000030 1c c0 0b 3f 06 f5 80 3d 83 82 9a 3c d2 d5 75 3e
       0.5459001 0.062967345 0.018861061 0.24007347
000040 fb da 81 3e f3 4b 07 be a8 d4 1a be a3 8f c4 be
       0.2536238 -0.13212566 -0.15120184 -0.38390836
000050 28 f4 73 be be 86 a8 bd 91 d1 c9 3d 46 65 3b 3d
       -0.23823607 -0.08228825 0.09854425 0.04575088
000060 23 02 f9 3e b8 86 69 3e 7f 30 bf 3e 8f 1b 9f be
       0.48634443 0.22805297 0.37341687 -0.31075713
000070 90 cd f7 3e e7 46 12 bf e9 5c e1 3e 5f 42 29 3f
       0.4839902 -0.5713944 0.44016197 0.661169
000080 19 57 34 bf 4f 83 99 3e f8 06 2f 3f 24 ea 39 bf
       -0.704454 0.29982993 0.6837001 -0.72622895
000090 f1 a1 70 be f8 32 d9 3e 59 ed fe 3e be 26 8a bd
       -0.23499276 0.424217 0.49790457 -0.06745671
0000a0 12 02 23 3e e3 39 bc 3e 4d 7c 3c 3e 07 3a 9b be
       0.15918759 0.36762914 0.18406792 -0.3031771
0000b0 28 3f 50 be 7d a1 38 3f 0d a3 d9 3e bf b9 40 bf
       -0.20336592 0.7212141 0.4250721 -0.75283426
0000c0 2b d3 3f 3f ff 25 8f 3e 14 e6 aa bf f5 5e 30 3f
       0.7493159 0.27958676 -1.3351464 0.6889489
0000d0 e5 42 6b 3e c3 59 6f bf 7b 93 24 bf db 97 18 be
       0.22974737 -0.9349634 -0.6428754 -0.14901678
0000e0 df 9f f4 bd a1 94 13 3f 29 50 c9 3e 30 a7 d5 3e
       -0.119445555 0.57648665 0.3931897 0.41729116
0000f0 f4 6f 6e be 72 5a 8f 3e 40 87 ab be cb 03 03 3f
       -0.23284894 0.27998692 -0.33501625 0.5117766
000100 9b 14 9e 3e d3 7d ec 3e 52 e5 b1 3d 8d 19 60 be
       0.30875096 0.46189746 0.086863175 -0.21884747
000110 50 03 4e 3d 79 e1 47 bd b1 9d 12 bc 7e 8e 98 be
       0.050296128 -0.04879901 -0.008948729 -0.29796213

encoder.model.0.bias f4 [8]
000000 a6 a3 be bd ae 27 12 be 3b 42 df be c5 2c cc 3c
       -0.09308557 -0.14272949 -0.43605217 0.024923692
000010 de 75 11 bd 34 c3 b8 3d 6d 62 a7 bd 19 68 a0 be
       -0.035512798 0.09021607 -0.0817307 -0.3132942

encoder.model.2.weight f4 [16, 8, 3, 3]
000000 ec 89 e3 be 42 27 73 be 14 6d 8c be cd e7 1a bf
       -0.44441164 -0.23745444 -0.2742697 -0.6050995
000010 de 41 59 bf 0c 0f a4 be 74 2d f2 bd 67 f2 c3 3c
       -0.8486613 -0.3204273 -0.11825076 0.023919297
000020 0c 7d bf be d8 17 d0 be e6 09 16 be c4 5f 47 3e
       -0.3740009 -0.4064319 -0.14652213 0.19470125
000030 3f 66 1c bd eb ae 8f 3e 23 e7 ca 3e be 14 15 3e
       -0.038183447 0.2806314 0.39629468 0.14558694
000040 b1 c6 22 3e ce c0 25 3f b0 ea 68 be d6 de 23 3c
       0.15896107 0.6474732 -0.22745776 0.010001859
000050 87 25 1d 3e 38 a1 a1 bd 7c 38 8a be 0f bb 20 3c
       0.15346347 -0.07892078 -0.2699622 0.009810223
000060 dd e9 c4 3a ef 3a 16 3d 30 5b b1 b8 ca 8e fd bd
       0.001502331 0.036677297 -8.457003e-05 -0.123807505
000070 ab 85 4b 3e a1 8c 87 bd 4b d4 83 3d 4c 3b b1 3e
       0.19875209 -0.0661862 0.06436976 0.34615552
000080 d3 55 38 3b f5 db 48 bd e5 71 02 3e a3 ec 2b 3e
       0.0028127327 -0.049037892 0.1273876 0.16789488
000090 b7 b1 95 bd 98 79 7a 3c e1 cd 15 3e 1f 2e bb 3e
       -0.07309287 0.015287779 0.14629318 0.36558625
0000a0 fa e1 a1 3d 4d c9 92 be 49 6b 90 3e f6 b7 7f 3e
       0.0790443 -0.28669205 0.28206852 0.2497252
0000b0 d4 12 da 3e 9a 2a 29 bb 3e 90 90 be 8e 86 f0 3d
       0.4259249 -0.0025812746 -0.28235048 0.11744414
0000c0 b5 88 9c be d3 6f 0b 3e e1 85 e4 bb 1a f3 57 3e
       -0.3057305 0.13616876 -0.0069739674 0.2108883
0000d0 63 a3 ba 3d 67 fa 8d bc dd de 58 bc 0b 12 5e bf
       0.09113195 -0.017331315 -0.0132367285 -0.8674628
0000e0 13 64 23 be b8 8c e9 be 13 de db bf fe 94 1a bf
       -0.15956144 -0.45615172 -1.7177147 -0.60383594
0000f0 ca 61 18 bf 3e 9b 73 bf 28 cf a2 bd 32 02 ed be
       -0.59524214 -0.95158756 -0.07949668 -0.46290737
000100 07 f4 f8 3d ae 81 0d 3e 01 36 85 bf a0 b5 70 bf
       0.121559195 0.13819 -1.0407106 -0.9402714
000110 56 5a 3f bf d7 52 b4 bc 7b 3c 9e be b6 5b bb bd
       -0.74747217 -0.022012157 -0.30905518 -0.09148352
000120 f0 31 07 bf ca f9 8b be 28 8a 0c bd cc 9e f5 bc
       -0.52810574 -0.2733901 -0.034311444 -0.029982947
000130 d6 79 46 bf ff 5c 40 be 14 48 27 3e e0 aa b7 bd
       -0.77529657 -0.18785475 0.1633609 -0.08968139
000140 f6 60 44 be b6 20 50 bd fc 25 6e 3e 87 c0 4b 3e
       -0.19177613 -0.050812446 0.23256677 0.19897662
000150 4f 39 98 bd e5 ed d0 bd 1e 60 98 3e 26 9d ba 3e
       -0.07432806 -0.10201625 0.29760832 0.3644802
000160 e1 e9 6c 3d cc 0b 93 be 58 1d ab 3c 7f 9a 0a 3d
       0.05784023 -0.28719938 0.020888016 0.033838745
000170 aa 87 dc bd 39 bc 99 3d e5 8b 29 be 83 18 1e be
       -0.10768063 0.07506604 -0.16557272 -0.15439038
000180 41 9a 8c be 4f 1c 57 bd fb 0d dc bb 46 d1 4f bd
       -0.27461436 -0.05251723 -0.006715534 -0.050736688
000190 03 33 c4 3e e1 be 9b 3e f6 42 c0 3c 06 75 d4 be
       0.3832017 0.30419067 0.02346943 -0.41495532
0001a0 a6 61 94 3e 26 3a 9a 3e d5 22 a3 3e 52 d9 da be
       0.2898075 0.3012249 0.31862512 -0.42743927
0001b0 16 5b 71 3e 91 4c 32 be e3 7d 8f bd cb 57 1d 3e
       0.23569903 -0.1741202 -0.07006433 0.15365522
0001c0 5f fe 90 3e 1f e4 4d 3c 33 35 2f bd d9 e3 87 3e
       0.2831907 0.012566595 -0.042775344 0.2654102
0001d0 1b f6 53 3e 92 5a cb bd 59 c4 a5 3e 15 6b 83 be
       0.2069935 -0.09929384 0.32376364 -0.25667635
0001e0 51 a9 3a 3e b0 98 32 bf 47 3c 06 3e e9 16 3c 3e
       0.18228652 -0.6976423 0.13108931 0.18368115
0001f0 40 e7 8d 3e 54 c1 88 3d 5c 06 21 bf 11 30 11 bf
       0.27715492 0.066774994 -0.6290033 -0.5671397
000200 60 c2 77 bc 4b dc 88 be 37 cb 36 bf 7a 14 a6 be
       -0.015122026 -0.2673057 -0.7140383 -0.32437497
000210 98 3a aa be 4a fa bf be b0 a3 b9 be ee 69 74 be
       -0.33247828 -0.37495643 -0.36257696 -0.23868534
000220 cd af 2b be f9 1a af 3d 7c 11 94 be da 67 a4 be
       -0.16766281 0.085500665 -0.2891959 -0.32110482
000230 93 1e bf bc c5 68 4b be 7e 5f 9a be 6b 0b b4 bd
       -0.023330009 -0.19864185 -0.3015098 -0.0879124
000240 06 5c 05 00 66 58 05 00 e2 61 05 00 02 5b 05 00
       4.92189e-40 4.90889e-40 4.94291e-40 4.91825e-40
000250 e9 5e 05 00 21 58 05 00 ad 5a 05 00 1a 63 05 00
       4.93225e-40 4.90792e-40 4.91706e-40 4.94728e-40
000260 db 60 05 00 a3 4d 9b a0 5c cd d1 a0 a3 ad 39 a5
       4.93923e-40 -2.6309397e-19 -3.5541873e-19 -1.6105023e-16
000270 4e a0 7b a2 9d e5 c9 a2 91 bc 40 a7 f3 a2 1d a2
       -3.4101708e-18 -5.472427e-18 -2.6747575e-15 -2.1363732e-18
000280 e3 c0 06 a2 c1 de ad a6 9e 5b 05 00 4f 5c 05 00
       -1.82625e-18 -1.2064664e-15 4.92044e-40 4.92292e-40
000290 3f 5e 05 00 0b 64 05 00 85 5c 05 00 aa 62 05 00
       4.92987e-40 4.95066e-40 4.92367e-40 4.94571e-40
0002a0 23 62 05 00 01 5d 05 00 6e 57 05 00 cb 60 05 00
       4.94382e-40 4.92541e-40 4.90541e-40 4.939e-40
0002b0 e8 5e 05 00 e1 16 7d 01 57 f0 2c 98 3d 8f 9d 99
       4.93223e-40 4.6485176e-38 -2.235182e-24 -1.6291273e-23
0002c0 1b bc 97 9f cb ca ed 87 a1 38 25 88 9a f2 18 92
       -6.426218e-20 -3.5778988e-34 -4.971945e-34 -4.8261773e-28
0002d0 4a 6c b8 a9 77 5b 33 ad ec 58 59 ac 75 41 a9 a1
       -8.1900266e-14 -1.0195281e-11 -3.0886916e-12 -1.1469212e-18
0002e0 84 0f 88 a6 3a 0c bd a6 df f6 01 a9 60 d0 e6 ac
       -9.441101e-16 -1.3117823e-15 -2.885788e-14 -6.5601274e-12
0002f0 fc ee c6 ab 04 69 bf a0 74 78 d8 a0 2f 96 04 a5
       -1.4135078e-12 -3.2426152e-19 -3.6671533e-19 -1.1500059e-16
000300 77 c5 bc a0 c5 12 13 a1 45 61 0e a6 d8 b8 2c a4
       -3.197911e-19 -4.983038e-19 -4.939797e-16 -3.7453123e-17
000310 a6 0d 4b a3 c8 8c f3 a7 c7 5b 05 00 12 63 05 00
       -1.1007542e-17 -6.7598684e-15 4.92101e-40 4.94717e-40
000320 1e 59 05 00 cf 5c 36 05 11 ac a8 92 4f 74 38 93
       4.91147e-40 8.574645e-36 -1.0644708e-27 -2.328141e-27
000330 51 58 05 00 86 60 05 00 d1 5d 05 00 38 27 00 88
       4.9086e-40 4.93804e-40 4.92832e-40 -3.85647e-34
000340 54 73 e9 88 10 1e 62 91 f1 60 05 00 03 64 05 00
       -1.4050291e-33 -1.783752e-28 4.93954e-40 4.95055e-40
000350 70 5b 05 00 98 59 05 00 b7 63 05 00 18 72 89 05
       4.91979e-40 4.91318e-40 4.94948e-40 1.292533e-35
000360 e4 f0 3e bf b6 9c f0 bd e9 4a 21 bd 64 4c eb bd
       -0.7458632 -0.1174864 -0.03937808 -0.1148918
000370 d1 c3 e4 3e a9 9c 92 3e 87 03 eb 3d 03 85 04 3f
       0.44680646 0.28635147 0.11475282 0.5176546
000380 37 61 1a 3d 9b 77 3c be 79 e2 78 3e 2e b9 df 3e
       0.037690368 -0.18405001 0.24305142 0.43695968
000390 eb 13 4d be 6b f3 ea be 90 d2 f7 bd ef 5c 81 3d
       -0.2002713 -0.45888838 -0.121007085 0.06316554
0003a0 20 ac 6f 3e cf 42 68 3e 83 58 ab be da ed c3 3d
       0.23405504 0.22681735 -0.33465967 0.09566851
0003b0 fc 52 f0 3d b1 9d 08 bf a9 9a d4 be 8b 78 d9 be
       0.11734578 -0.5336562 -0.41524246 -0.4247478
0003c0 4c 79 5c bf 33 da 31 bf 0d b9 0c bf a0 c8 85 be
       -0.86122584 -0.6947357 -0.54969865 -0.26129627
0003d0 fb 3e a7 be e6 ec 59 3e d3 11 cb bd 29 f8 86 bd
       -0.32665238 0.21281776 -0.09915509 -0.065903015
0003e0 4b 34 df bd 71 16 25 3e 88 92 63 3e ad fe 3c 3e
       -0.10898646 0.16121842 0.22223866 0.18456526
0003f0 dd b6 ba 3e f1 01 67 3e 53 61 22 3e 4c 72 05 be
       0.3646764 0.22559334 0.15857439 -0.13031882

encoder.model.2.bias f4 [16]
000000 a0 26 fb bc 41 5e 01 bd 04 67 95 b9 d9 f9 97 bd
       -0.030658066 -0.03158403 -0.00028496247 -0.074207015
000010 ad 9b 4c 3d 92 ac 05 3e 00 db 20 be ce 2d 5c bd
       0.04995315 0.13054112 -0.15708542 -0.05375462
000020 7b 19 bd 3d c5 f2 de 3d d8 85 26 bd 67 5b 77 ba
       0.09233376 0.10886148 -0.040654987 -0.0009435922
000030 01 70 d9 ba 8d 2e 1f bd ef 60 ec 3d 80 0b 06 a8
       -0.0016589166 -0.038862754 0.11541926 -7.440988e-15

encoder.fc.weight f4 [32, 784]
000000 fe 0f 56 be 2a 4e a9 be 6e 38 37 3e 0c 08 d7 bd
       -0.20904538 -0.33067447 0.1789262 -0.10499582
000010 77 57 dc be 55 88 50 be c3 2b b5 bd d8 d5 1b bd
       -0.4303548 -0.20364507 -0.088462375 -0.038045734
000020 67 33 0c be 5e ca 0c 3d a6 93 c4 bd 72 7d 73 be
       -0.13691483 0.03437268 -0.09598474 -0.23778322
000030 06 18 80 be 11 b9 93 3e c7 df ed be 2d 12 52 3c
       -0.25018328 0.28852132 -0.4645979 0.012821716
000040 9c 87 cb be 54 fd a1 be 13 c8 ad bc 66 0b c8 bd
       -0.397519 -0.31638587 -0.021213567 -0.09767799
000050 c7 fe 92 3d 70 fc 5f 3e 89 c4 0c be e2 3a e1 be
       0.07177501 0.21873641 -0.13746847 -0.43990237
000060 21 f8 e1 bc 98 75 1b bd 33 92 f7 3e ca f1 ce bd
       -0.027584137 -0.037953943 0.4835373 -0.10104711
000070 b3 f8 ce 3e 95 d8 14 bd f9 7f 92 3e f4 a5 49 3d
       0.40424117 -0.03633936 0.2861326 0.04923053
000080 56 e2 5a 3e 8d 5c 38 3f e3 a8 a4 ba 03 03 12 be
       0.21375403 0.7201622 -0.0012562539 -0.14258961
000090 79 4f e0 be 4f 27 96 3e b0 82 a3 3e 8d 03 eb 3e
       -0.43810633 0.29326865 0.31935644 0.45901147
0000a0 43 88 2a bc c4 9b 53 3e e3 01 52 be 8d 87 89 be
       -0.010408464 0.20664889 -0.20508532 -0.2686123
0000b0 26 52 25 be 5a a3 1e bf f0 b4 90 ba 75 7c 9a be
       -0.16144618 -0.61968005 -0.0011040252 -0.30173078
0000c0 87 46 d8 bb db be 17 be 7b 7c 37 be b4 2e f4 3d
       -0.0066002044 -0.148189 -0.1791858 0.119229704
0000d0 0b 64 6b 3e fc 75 b2 be ac ce 17 3c 75 be 0f be
       0.22987382 -0.3485564 0.009265583 -0.14037497
0000e0 b9 99 a3 3e dc cb 90 be 03 6e 82 3c cc a6 c3 bd
       0.3195322 -0.28280532 0.015921598 -0.09553298
0000f0 6b 40 cb be dc 78 98 3e ba 99 b5 be 17 d0 da 3d
       -0.39697585 0.29779708 -0.35468847 0.10684221
000100 96 43 e5 3d d3 88 93 be 59 ee 21 3e 81 83 75 3e
       0.111945316 -0.28815326 0.15813579 0.23975946
000110 42 cb 05 be 0a 8b cb 3d 0e d1 0c be 73 54 6b 3e
       -0.13065818 0.09938629 -0.13751623 0.22981434
000120 05 b2 4c be d3 9e ab 3e f6 ae d5 bd 85 b8 a5 3e
       -0.19989784 0.3351961 -0.10433762 0.3236734
000130 b5 a8 73 3e fb 12 ae be 01 a1 ae be 5e 2e 03 be
       0.23794825 -0.33998856 -0.3410721 -0.12810656
000140 2e 2a 35 be 04 07 69 bd f5 7f cc 3e 9b 90 08 be
       -0.17691872 -0.056891456 0.39941373 -0.13336413
000150 5c 68 43 be bc 91 13 be 31 01 8c be 7a 9d 37 bd
       -0.19082779 -0.14411062 -0.2734466 -0.044827916
000160 e3 cc bd 3e ec 62 fa 3e 87 46 55 3c ce b9 a2 be
       0.3707038 0.48903596 0.013017303 -0.31782383
000170 92 e7 9c bc 0b df 37 be c2 31 8a be 51 69 e6 3c
       -0.01915339 -0.17956178 -0.26991087 0.02812639
000180 d0 80 8f be 8b 6b a9 bc 24 60 05 80 4f 5c 05 80
       -0.28027964 -0.020681163 -4.93666e-40 -4.92292e-40
000190 4c 61 05 80 aa 5e 05 80 0d 63 05 80 0d 60 05 80
       -4.94081e-40 -4.93137e-40 -4.9471e-40 -4.93634e-40
0001a0 f6 61 05 80 d3 5d 05 80 14 61 05 80 0f 63 05 80
       -4.94319e-40 -4.92835e-40 -4.94003e-40 -4.94713e-40
0001b0 65 5d 05 80 21 5b 05 80 75 57 05 80 2e 5b 05 80
       -4.92681e-40 -4.91868e-40 -4.90551e-40 -4.91887e-40
0001c0 3f 59 05 80 a1 58 05 80 2e 58 05 80 12 61 05 80
       -4.91193e-40 -4.90972e-40 -4.9081e-40 -4.94e-40
0001d0 c6 60 05 80 72 63 05 80 ea 62 05 80 ef 5a 05 80
       -4.93893e-40 -4.94852e-40 -4.94661e-40 -4.91798e-40
0001e0 03 60 05 80 36 5c 05 80 18 5f 05 80 22 60 05 80
       -4.9362e-40 -4.92257e-40 -4.9329e-40 -4.93663e-40
0001f0 57 60 05 80 ca 62 05 80 ec 61 05 80 7b 5e 05 80
       -4.93738e-40 -4.94616e-40 -4.94305e-40 -4.9307e-40
000200 b5 60 05 80 8f 5e 05 80 ba 61 05 80 ae 5a 05 80
       -4.9387e-40 -4.93099e-40 -4.94235e-40 -4.91707e-40
000210 4e 5b 05 80 8f 5a 05 80 0c 59 05 00 c1 5e 05 00
       -4.91931e-40 -4.91664e-40 4.91121e-40 4.93169e-40
000220 a6 63 05 80 01 5a 05 80 28 5a 05 00 01 63 05 80
       -4.94925e-40 -4.91465e-40 4.9152e-40 -4.94693e-40
000230 42 61 05 80 da 57 05 80 e0 5e 05 80 47 59 05 00
       -4.94067e-40 -4.90693e-40 -4.93212e-40 4.91204e-40
000240 f1 5e 05 00 0c 5e 05 00 55 5f 05 00 bc 76 fe bc
       4.93236e-40 4.92915e-40 4.93376e-40 -0.031062476
000250 18 79 0d be 02 dd a5 be 84 03 5a bb 84 7f ba be
       -0.13815725 -0.32395178 -0.0033266256 -0.36425412
000260 2e 54 5a be 8a 30 a8 be 1f d2 78 bd 71 1c bd 3d
       -0.21321175 -0.32849532 -0.060747262 0.092339404
000270 1b 12 a8 3d 18 c0 c2 bb 4b c0 19 bd 1c 99 2c 3e
       0.08206578 -0.0059433095 -0.0375369 0.16855282
000280 cc 24 47 3e 14 ee 90 be 4e 4c 19 be 09 a9 21 be
       0.1944763 -0.2830664 -0.14970514 -0.15787138
000290 c7 24 99 bd ac b4 17 bd 23 48 98 be 39 2f 7f 3e
       -0.07477718 -0.037037537 -0.29742536 0.24920358
0002a0 b3 5e 1a 3e 50 b8 bb 3d 1f c7 2f bc 65 1f 81 be
       0.15075187 0.09166014 -0.0107286265 -0.25219265
0002b0 04 36 46 bd 55 35 ba 3d 37 ee a9 3e 11 d0 c7 be
       -0.048391357 0.090922035 0.33189556 -0.3902593
0002c0 07 db 30 3e 1b 7a 7d 3e e8 f9 2b 3e d7 1c 27 bd
       0.17271052 0.24753611 0.1679455 -0.04079899
0002d0 85 20 33 bc c7 0b 7e 3e 9e 0d 80 be 74 fc 99 bd
       -0.010933046 0.2480918 -0.2501039 -0.07518855
0002e0 0f b5 4a be 06 16 37 3e e9 f5 02 3e a8 14 83 3e
       -0.19795631 0.17879495 0.1278912 0.25601697
0002f0 c1 87 9a bd 14 df a6 3c 2e be c7 3d 31 fe 43 3e
       -0.07545424 0.020370044 0.09753071 0.19139935
000300 ae fc 05 3d e5 e5 4c 3d 95 2c d5 3c 5f 97 74 bd
       0.032711677 0.050023932 0.026022235 -0.05971467
000310 e7 14 2b be 92 78 4d 3e 09 2e 8e be 75 40 3e 3e
       -0.16707192 0.20065525 -0.27769497 0.18579276
000320 4d ee 4c 3e fc c2 6a 3e 03 c0 a7 3e ad 93 a8 3d
       0.2001278 0.22925943 0.3276368 0.08231292
000330 f2 d8 15 3d 96 bb d2 bd fa 08 92 3d d1 55 1f be
       0.03658385 -0.102896854 0.071306184 -0.1556008
000340 e6 f5 aa 3e f8 60 1a bd be e2 93 be 3f e1 b8 3d
       0.3339073 -0.037690133 -0.28883928 0.09027337
000350 ad 3f b3 3e 95 7a da 3d d6 91 33 3e 1c e4 84 3e
       0.35009518 0.10667912 0.17536101 0.25955284
000360 9f 00 a9 3d ef a3 13 3e ae ff 48 3c 27 98 01 3e
       0.082520716 0.14418004 0.01226799 0.12655698
000370 5a ad 24 bd b7 4f 8b be c8 a2 65 3c a3 ed 5a 3d
       -0.040204383 -0.27209255 0.014015861 0.053449284
000380 a2 ef 30 3e 10 0e 3b bc 14 3e a2 bc 5b 65 b1 ba
       0.17278913 -0.011416927 -0.019804992 -0.0013534235
000390 26 45 db be 21 04 ba bd 77 a3 25 be 90 61 07 3e
       -0.42826194 -0.09082819 -0.16175638 0.13220811
0003a0 1e 05 8e be 42 0f d7 bb 2e e0 08 3e 52 1e 08 3e
       -0.2773828 -0.006563098 0.13366768 0.13292816
0003b0 8d 46 a2 3d 19 59 03 bf 3a c6 f7 3d 38 68 7a bd
       0.07923613 -0.5130783 0.120983556 -0.061134547
0003c0 58 b8 55 bd 72 cc 60 be 2b 55 94 3e 64 f1 88 bd
       -0.052177757 -0.2195299 0.28971228 -0.066866666
0003d0 51 86 05 bd d5 2a 3d 3e 1b 82 8c 3e f2 25 93 be
       -0.032598797 0.1847337 0.27443013 -0.28739887
0003e0 0a 9e ae 3e f9 17 6b 3f f9 84 27 3f 2a 0a 26 3e
       0.3410495 0.91833454 0.65437275 0.16214815
0003f0 e8 40 88 be 15 f2 4e 3e 14 8d 8d bd 84 ea 31 be
       -0.2661202 0.20209534 -0.06911674 -0.17374617

encoder.fc.bias f4 [32]
000000 86 ff 3a 3c 64 79 be bb 8a 2d aa 3a a9 b5 a7 3d
       0.011413461 -0.0058128107 0.0012983542 0.08188946
000010 32 95 ce bd 80 ba b0 bd 06 4c 0b be e4 89 14 3d
       -0.100870505 -0.08629322 -0.1360322 0.036264315
000020 a7 0d c2 bd 1b 0b 69 be 39 e9 92 3d ed 8c 42 3d
       -0.0947526 -0.22758143 0.0717339 0.04749768
000030 fe b2 df 3d 6e 58 9e bd 73 cd 15 3e d8 7a 31 3d
       0.10922812 -0.077317104 0.14629154 0.043330044
000040 74 49 bf bc 01 26 7c 3d a0 f7 84 bc 4e 8f 0c 3e
       -0.023350455 0.06155968 -0.016231358 0.13726541
000050 2d 0a b7 3c 26 70 92 bd 1b 5a b7 3c 10 6c 81 be
       0.02234372 -0.07150297 0.022381833 -0.25277758
000060 5f b5 cc bc 44 d9 31 3d 4a d6 b6 3d 24 b2 37 bd
       -0.024988828 0.04342009 0.08927591 -0.044847623
000070 73 dd 14 3d 46 6f 71 3d 8b 7b eb 3d 4c 11 17 3e
       0.036344003 0.05894401 0.11498173 0.14752692

decoders.0.model.0.weight f4 [16, 8, 3, 3]
000000 e7 a7 9e 3e 4e a4 fa be ee f5 a6 be a2 53 95 be
       0.30987474 -0.4895348 -0.32609504 -0.2916537
000010 24 7a 4c bf 9a 43 ad be 40 36 02 bf 14 5b 99 3e
       -0.7987387 -0.33840638 -0.5086403 0.299523
000020 92 68 b4 be 30 fc 69 be 05 8e ba bd a5 f1 c1 bd
       -0.3523603 -0.22850108 -0.09109119 -0.09469918
000030 db c1 be be a3 08 94 3e 2b 68 1f 3d 62 f1 8d 3e
       -0.37257275 0.2891284 0.0389177 0.27723223
000040 c3 f4 31 bd de 32 c8 bc 2e 54 c9 be 96 96 02 be
       -0.043446314 -0.024438318 -0.39322037 -0.12752756
000050 7d fc a6 bd 11 0d aa 3e 5d 7a d6 3d a3 dd 9f bd
       -0.08153627 0.33213094 0.10472558 -0.07805946
000060 8a db 3b 3e 2d ea 02 bf d0 a6 ef 3d 19 f0 62 3e
       0.18345466 -0.51138574 0.11701739 0.22161902
000070 f8 99 38 3c 10 cd a4 bd 62 cb 29 3e cb 7c e0 be
       0.011267178 -0.08046925 0.1658149 -0.4384521
000080 1d 9c 9e 3e 9a 50 4d 3c d8 62 c1 bd 4f cc 3d bc
       0.3097848 0.012531424 -0.09442681 -0.0115843555
000090 99 95 9a be d1 3b b4 be 41 12 8b bd 44 db bf bd
       -0.3019226 -0.35201886 -0.06790591 -0.093679935
0000a0 2d c4 ae ba d3 10 d5 bc ec fb 26 be 07 8a 1f bd
       -0.0013333611 -0.026008999 -0.16307038 -0.038949993
0000b0 4e e0 d0 bd 96 40 34 be 2d 7e f5 bd 0e 84 12 bf
       -0.10199033 -0.17602763 -0.11986957 -0.5723275
0000c0 00 72 d0 be 2d bb cb 3e e3 fb a7 bd a3 e6 c5 bd
       -0.40711975 0.3979124 -0.082023405 -0.09663131
0000d0 b7 f5 1d 3e c8 9a b5 3e 6c b6 9e 3e ee df 93 3d
       0.15425764 0.3546965 0.30998552 0.072204456
0000e0 62 0e b2 3d 41 fb 7b 3e 77 0c 48 3d a7 22 70 be
       0.086941496 0.24607565 0.048840012 -0.23450719
0000f0 02 c5 27 be 52 cb 19 3e 7f c7 6b bc 0b 7e ab 3e
       -0.16383746 0.15018967 -0.014390825 0.334946
000100 c0 ef 96 3d ec 96 72 3d 81 7a 66 bd ec be 5c 3e
       0.073699474 0.05922596 -0.056269173 0.21557206
000110 54 4f 35 3d b7 f1 0a 3e da 4a 91 be 75 c3 95 3e
       0.044265106 0.1356877 -0.2837742 0.29250684
000120 90 1d b7 bc 82 8d 64 bd 48 a4 91 bd fb aa f1 3d
       -0.022352964 -0.055799015 -0.07111412 0.1180019
000130 b0 d1 26 3e 4f 08 08 3e 6c 08 f9 bd bf 15 4b be
       0.16290927 0.1328442 -0.121598095 -0.19832514
000140 8b 32 3e bd cd dd 31 3e d8 92 ca 3c 76 48 b7 bd
       -0.04643492 0.17369767 0.024728224 -0.08949368
000150 99 8f 70 3d 23 0e a9 be 5e 94 27 3e cc ba 87 3e
       0.058730695 -0.33018598 0.16365191 0.26509702
000160 44 d1 1c 3e ad 95 dd 3d 64 13 2e be 97 26 fa bd
       0.15314204 0.10819564 -0.16999584 -0.12214392
000170 cd 81 37 3d 5d aa db bd 59 d6 85 be 78 72 66 be
       0.044801522 -0.107258536 -0.26140097 -0.22504604
000180 91 8e 1f bd c8 f5 8a be 97 74 2a be 31 f0 8e bc
       -0.03895432 -0.2714064 -0.16646038 -0.017448517
000190 44 a6 46 be ca 4c cc bd b0 6e a2 be ca 44 b6 be
       -0.19399363 -0.09975584 -0.31725073 -0.35599357
0001a0 48 e2 5b bd b6 ad 1c 3e 71 d1 bb bd 96 60 a4 3c
       -0.053682595 0.1530064 -0.09170807 0.020065587
0001b0 a7 e8 98 3e aa 3c 82 3c 7b e5 18 3e 2e 2f 0f bd
       0.29865 0.015898068 0.1493129 -0.034957103
0001c0 03 0c 0c 3e 57 87 98 3e 0e d8 3a 3e 81 43 97 3c
       0.13676457 0.29790756 0.18246481 0.018464806
0001d0 5e 32 8c 3d fe cd ce 3d e3 83 ce bd dc e8 05 be
       0.06845544 0.10097884 -0.10083749 -0.1307711
0001e0 14 52 b6 bc 58 15 bb be ec 89 c0 be 11 b6 af 3d
       -0.022255935 -0.3653972 -0.37605226 0.08579648
0001f0 ec 68 80 be d7 a9 d7 bd 5a ea 04 be 59 7e 57 3b
       -0.2508005 -0.10530441 -0.12980023 0.0032881706
000200 62 fa 8e bb eb 7c 70 be 4c 2e 9b be 94 45 e9 bd
       -0.004363344 -0.23485152 -0.3030876 -0.11390224
000210 dd 75 04 be 75 e3 a4 be ce 41 80 be 77 36 06 3e
       -0.12935586 -0.32204786 -0.25050205 0.13106714
000220 7d 74 d5 3d 75 9a 57 bd 8f 86 44 bd 68 61 a3 be
       0.10422609 -0.052637536 -0.047979888 -0.31910253
000230 e5 4d 0c 3d 78 e0 ca bd e2 ae 9a bd e2 8d 44 be
       0.034253974 -0.09906095 -0.075528875 -0.19194749
000240 20 3e 72 3d bc 75 bb 3e 4e 95 88 3d ce 29 02 bf
       0.05914128 0.36613262 0.066691026 -0.5084504
000250 4e 2c b3 be a2 aa 04 bf ab 71 7b 3e 54 9a e3 bd
       -0.3499474 -0.51822865 0.2455508 -0.1111342
000260 0f 75 f9 bd 6f 52 4e be 22 f4 e1 be e2 47 b1 bc
       -0.1218053 -0.20148633 -0.4413157 -0.021640722
000270 66 13 c0 3e 6b af 38 be 53 85 9b 3c af 49 7d be
       0.375148 -0.18035667 0.018984472 -0.2473514
000280 4d 18 c3 3d 19 f8 92 be 3e c0 fb ba 9f f2 7c 3d
       0.095261194 -0.28704908 -0.0019207073 0.06175482
000290 ed f6 df 3e b4 ef dc 3c d0 50 a0 be c3 11 a4 3d
       0.43743077 0.026969768 -0.31311655 0.080112
0002a0 45 60 a6 bd a2 91 68 3d cf 1d 4f be 95 db 53 be
       -0.08123831 0.05677951 -0.20226215 -0.20689233
0002b0 3a d0 0c 3e 63 ca 07 bf 09 de 9b bd a3 99 df 3e
       0.13751307 -0.5304319 -0.07610709 0.43671903
0002c0 ed 0b 71 3d 46 ce 34 be 75 33 ef 3d 61 6a 3b bc
       0.058849264 -0.17656812 0.116797365 -0.011438937
0002d0 e3 ad 86 3c f7 a8 0e 3e b8 eb b5 3c 3a f5 8e be
       0.016440338 0.13931642 0.022207126 -0.27921468
0002e0 05 a0 69 be 79 01 71 3e 28 eb 07 bd fb 9c 1e 3c
       -0.22814949 0.23535718 -0.033183247 0.009680982
0002f0 bc 76 42 3e d6 d5 a2 be ac f7 a8 be 3a e6 ac bd
       0.18990606 -0.3180377 -0.3300146 -0.0844235
000300 a3 b1 b4 3e f9 1f 66 be 61 8a af be 9d cc 6d be
       0.35291776 -0.22473134 -0.34285262 -0.23222585
000310 66 de 0e be c2 ec 0d 3e fe f1 ed bd d1 11 7a be
       -0.13952026 0.13859847 -0.11618422 -0.24420859
000320 8c 1a 44 3e ca 5b ab bd f4 e5 c0 3e c8 c3 b5 3e
       0.19150752 -0.08367117 0.3767544 0.35500932
000330 68 68 ad bb dd 40 1a 3e 24 38 09 3f e3 43 3b 3d
       -0.005291987 0.15063806 0.5360129 0.04571904
000340 dd 7b d9 3d 49 15 82 be 9c 65 a5 3d 1f 9c 65 be
       0.10619328 -0.25406864 0.08076021 -0.22422837
000350 2b 2b 63 be c0 69 2f be b7 86 56 be 2b 37 ec 3e
       -0.22184436 -0.17130184 -0.20949827 0.4613584
000360 ad 10 66 b8 fe d0 bf bc 0c 9d 38 3e ba 78 0c 3e
       -5.4851804e-05 -0.023415085 0.18028659 0.13717929
000370 f3 80 37 be a7 d4 2f bf 2c 7b 00 bc 2c ef 7d 3d
       -0.17920284 -0.68683857 -0.007841866 0.06199567
000380 7c 66 5f be d9 84 00 3f d1 b5 94 3e 15 13 a0 3e
       -0.21816438 0.5020271 0.29044965 0.31264558
000390 29 e9 49 be ba 6e f3 3e 8d 37 ab 3e 0a e1 2b be
       -0.1971785 0.47545415 0.3344082 -0.16785064
0003a0 80 83 09 be ba 0b 02 3e e1 24 12 3e 13 1a 7a be
       -0.1342907 0.12699786 0.1427188 -0.24424009
0003b0 80 4a dc bd 03 a9 04 3e b8 1c 57 be 1f 2f 19 be
       -0.10756397 0.12955098 -0.21007049 -0.14959382
0003c0 db 3d db bd 2f 38 b9 bd 59 3f d5 be cb e4 a9 3e
       -0.10705157 -0.09043919 -0.41649893 0.33182368
0003d0 d2 f8 b0 3e 4b a7 98 3e b2 5f 46 3e 76 04 72 be
       0.34564835 0.29815134 0.19372442 -0.23634514
0003e0 6a d4 6a be 46 1f 99 3e 4a a8 4f bd d1 ec fa be
       -0.22932592 0.29906672 -0.050697602 -0.49008802
0003f0 cc db 22 3e aa c8 07 3e d9 11 87 bd dd 48 15 3e
       0.15904158 0.13260141 -0.06595201 0.14578576

decoders.0.model.0.bias f4 [8]
000000 12 a7 39 bd 18 72 d1 be f7 39 86 3e 1a 01 43 3e
       -0.045325346 -0.4090736 0.262161 0.19043389
000010 43 3b 2f bf e4 f0 39 3e cc ad 6f 3e b0 28 05 3e
       -0.684498 0.18158299 0.23406142 0.13003802

decoders.0.model.2.weight f4 [8, 1, 3, 3]
000000 86 98 27 be 10 66 cd be e5 fa b9 be f9 77 12 be
       -0.16366777 -0.4011693 -0.3632423 -0.14303578
000010 97 22 1b bf b8 10 02 bf 73 0e 4b be 44 e3 be be
       -0.60599655 -0.5080676 -0.1982973 -0.37282765
000020 0b fe 9a be 59 cb db be 13 97 2f bf bc e3 14 bf
       -0.30271944 -0.4292858 -0.68589896 -0.58159995
000030 af fd c6 bc 57 71 a8 be c5 c8 b6 be 17 bb 89 3d
       -0.024290888 -0.3289897 -0.3570005 0.06725138
000040 03 81 17 3d 41 46 a8 3d 34 64 33 3d 9c ef 3c be
       0.03698827 0.08216525 0.043796733 -0.18450779
000050 0f 2f 17 be 92 55 97 bd b9 48 ed be 21 c4 c2 be
       -0.14764045 -0.07389368 -0.46344545 -0.3804026
000060 2f ee 44 be 89 3b e0 be 3b 80 95 be 62 e7 b4 3d
       -0.19231485 -0.43795422 -0.29199395 0.08833195
000070 73 22 74 bd 63 4d 6d 3d f8 39 a7 be 12 5c 18 bf
       -0.059603166 0.05793513 -0.32661414 -0.5951549
000080 50 94 a4 be 29 bf b4 bd 75 9c 45 be 7d 7c 61 bd
       -0.32144403 -0.088255234 -0.19297965 -0.055050362
000090 c2 09 03 3f 68 67 31 3f 63 a9 2e 3f b9 1b 12 3f
       0.51186764 0.6929841 0.68227214 0.5707355
0000a0 c1 41 6d 3f 6f 0b 3f 3f c3 b2 01 3f 45 9b 1b 3f
       0.9267846 0.7462682 0.50663394 0.607838
0000b0 25 fb c4 3e 9d 70 6f bd af 69 8f be 3c 39 7f be
       0.38472858 -0.058457006 -0.28010318 -0.24924177
0000c0 77 e8 54 be 5b d2 01 bf d1 79 ad be c8 b0 5a be
       -0.20791803 -0.507116 -0.33882 -0.21356499
0000d0 16 ab 3c be 43 24 2b 3c 4e 87 1a be 68 0a 8c be
       -0.18424639 0.010445657 -0.15090677 -0.2735169
0000e0 07 a3 8b be 3f dc 53 be 9f 0c f6 be a5 4d 7a be
       -0.27272817 -0.20689486 -0.48056504 -0.24443682
0000f0 40 ad 7a be fc 49 82 be bf 01 01 bc 4e cc d4 bd
       -0.24480152 -0.2544707 -0.007873951 -0.103905305
000100 92 72 16 bd 2b ec 03 be 06 e7 0d be 6d 44 34 be
       -0.036730357 -0.1288306 -0.1385766 -0.17604227
000110 38 4e bf bd ad b5 93 3d 86 08 05 be 74 d9 84 be
       -0.09341091 0.07212386 -0.12991533 -0.25947154

decoders.0.fc.weight f4 [784, 32]
000000 48 fc cf bd be 08 98 be a2 56 b1 3d 01 7a 17 3e
       -0.10155541 -0.2969417 0.08659102 0.14792635
000010 27 83 61 be 44 2c 32 be 17 ee 71 bd f9 9e 85 3e
       -0.22022687 -0.17399698 -0.05906495 0.2609785
000020 66 f4 b3 ba ec f1 4b 3e 64 e6 95 bd 94 2b 46 3c
       -0.0013729453 0.19916505 -0.07319334 0.012095351
000030 61 10 59 be b2 87 48 3e fd 2b 70 be 10 68 94 3e
       -0.21197654 0.19583014 -0.2345428 0.28985643
000040 2d 86 ae be 43 73 da 3a f8 4c 1a bd 46 52 32 3e
       -0.34086743 0.0016666431 -0.03767106 0.17414197
000050 5d 2c 06 3f 6e 21 a4 3e 85 ff b4 3d 02 dd bd 3e
       0.52411443 0.32056755 0.08837799 0.37082678
000060 be 14 a7 be 8d d3 81 be b5 d6 04 3c 78 8a a1 3d
       -0.32633013 -0.25356713 0.008107831 0.07887739
000070 01 d7 e2 3d 35 58 8d be a3 2e 10 3d d6 ad 7d be
       0.11076165 -0.2760636 0.035200726 -0.24773344
000080 7a cb 5d 3d ff ab c0 bd ec 93 05 3e a7 d5 31 be
       0.05414913 -0.09407806 0.13044709 -0.17366658
000090 09 ee ae bb 84 8c c8 bd 21 90 dd bc e2 7e 2b be
       -0.0053384346 -0.09792426 -0.027046265 -0.1674762
0000a0 65 f3 9f 3a d8 0d be be 8f 0d cf bd d7 d3 09 3e
       0.0012203275 -0.37119937 -0.10110008 0.13459717
0000b0 af 80 06 bc 03 1d 80 bb 76 49 0d be b3 af af bd
       -0.0082093915 -0.0039097085 -0.13797554 -0.08578434
0000c0 2e 2c a3 bd dc 16 39 bd 06 60 1b be b3 d8 81 3e
       -0.07967411 -0.045187816 -0.15173349 0.2536064
0000d0 13 03 8d bd 1f df 39 3c e7 c3 49 3d ec 8d d4 3d
       -0.06885352 0.0113447 0.049259093 0.10378632
0000e0 74 54 89 3e a3 ce 48 bd 43 ba c7 3d 3f 03 fa bd
       0.26822245 -0.04902519 0.097523235 -0.122076504
0000f0 63 be 1f 3e 22 79 20 3c bc 4d fc 3c 58 8a ee bd
       0.1559997 0.009794505 0.030798785 -0.11647481
000100 5c 59 3b 3e 57 59 3a be e5 f2 26 be 23 fe 9c bc
       0.18295807 -0.18198143 -0.16303594 -0.01916415
000110 55 c4 51 be 6e 83 2d 3d 9d 00 b6 3b a9 92 7f 3e
       -0.20485051 0.04236167 0.0055542723 0.2495829
000120 58 f3 23 be c3 90 47 be 94 c8 22 3d 65 b5 ed bd
       -0.16010797 -0.19488816 0.039742067 -0.11606864
000130 6b 77 77 be b6 23 bc 3e e6 4b 8b bc 21 46 8b bc
       -0.24166648 0.36745995 -0.017003965 -0.017001214
000140 52 dc c9 3d ac 03 b7 3d 74 4a 48 3c 14 99 87 bd
       0.09856476 0.08936247 0.012224782 -0.06620994
000150 1c e7 b8 be 91 ea 88 3e 91 5d c4 bd 6a 7b 87 be
       -0.36113822 0.2674146 -0.09588159 -0.26461345
000160 c8 d6 43 bd 21 1f df 3e 88 41 d9 3d 0f ce e9 bd
       -0.047812253 0.43578437 0.10608202 -0.11416256
000170 59 6b 37 3d 81 81 4b be 1f 59 94 bc cf ab 8c bd
       0.04478011 -0.1987362 -0.018108902 -0.068687074
000180 de fe db be af 12 0c 3e e3 ff 15 bc 21 b4 31 3e
       -0.42967886 0.13679002 -0.009155246 0.1735387
000190 c7 03 34 bd 81 db 59 3c 4b 34 ac bd d4 d0 8a be
       -0.043948915 0.013296963 -0.084084116 -0.27112448
0001a0 09 45 e4 bd 8d 19 8f bb 18 81 0d 3e 60 7c ed bd
       -0.1114598 -0.0043670596 0.13818777 -0.11595988
0001b0 3f 4f 28 be ac cf 32 3e 3f ec 8d 3c a7 3a ca 3d
       -0.1643648 0.17462033 0.017324565 0.09874468
0001c0 85 bf 86 3e 3c 3a cd 3b 16 01 4f 3e f2 e8 e3 bd
       0.26317993 0.0062630456 0.20215258 -0.11128415
0001d0 9e 31 1f 3d 48 44 5d bd b2 94 b5 3d 09 3a 14 3d
       0.038865678 -0.054020196 0.08866252 0.03618816
0001e0 6a 72 93 3d ae 86 15 3d 80 17 7c 3c 67 5b 5f be
       0.07199557 0.036505394 0.015386462 -0.21812211
0001f0 71 8d 82 3d b7 17 70 be 10 c6 5a 3d fb 0c d1 3d
       0.06374634 -0.23446546 0.053411543 0.10207554
000200 fc bb a5 3c 73 25 82 3d 51 e7 45 be d8 de 23 bd
       0.02023124 0.06354799 -0.19326521 -0.040007442
000210 30 c2 e0 3c 95 83 b2 be 4a 2a ce bd fb 4f e7 be
       0.027436346 -0.34866014 -0.1006666 -0.45178208
000220 c8 f3 74 be 76 3f 45 bd 88 16 1d bd 95 b6 b0 bd
       -0.2392112 -0.048156224 -0.038351566 -0.08628575
000230 4c 76 8a be 5b ac d1 bd 7e 07 78 be d1 11 31 bd
       -0.27043378 -0.10237952 -0.24221608 -0.04322988
000240 83 11 2e 3e 5b d9 54 bd 31 c6 ea bc a5 3c 8f bd
       0.16998868 -0.0519651 -0.028658958 -0.06993989
000250 b2 d1 1b 3d cb a1 1f be cd f3 91 be e6 be 87 3e
       0.038041778 -0.15589063 -0.28506318 0.2651283
000260 47 81 9c bc 0a 41 4d 3e b0 37 6c 3d eb db 0c 3c
       -0.019104613 0.20044342 0.057670295 0.008597354
000270 6d 46 35 3e 5d 00 a1 bd 50 73 80 bd f3 5a 2d 3e
       0.17702647 -0.078613974 -0.06271994 0.16929226
000280 c7 bb 4a bc 49 cf 2e bb 5c 46 ce 3e b6 57 c2 bd
       -0.012373871 -0.0026673845 0.40288055 -0.09489386
000290 fb a1 3e bd d1 2d d2 bd 03 ef 48 bd 87 40 5d 3d
       -0.046541195 -0.10262645 -0.049056064 0.054016616
0002a0 c8 f4 68 3e f9 22 cf 3d 55 e1 1a be 67 34 41 3e
       0.22749627 0.101140924 -0.1512502 0.18867646
0002b0 6d 03 60 bc 41 f0 3c be ed 9b 54 bd d7 40 bf be
       -0.013672692 -0.18451025 -0.051906515 -0.37354156
0002c0 a4 9e 0c bf 06 e6 b8 bd ff 24 f4 bd a7 dc 3f 3e
       -0.54929566 -0.090282485 -0.11921119 0.18736516
0002d0 ce 88 54 3e 17 6c f0 3c dc c2 08 3f 66 bc a3 3e
       0.20755312 0.029348416 0.5342233 0.31979674
0002e0 ed fc a7 3d 0c 54 9c be 1f 21 69 3d 0e 02 f5 bd
       0.08202539 -0.30532873 0.056916352 -0.119632825
0002f0 0d 49 e3 3c 93 aa c3 3d d9 02 71 3e a8 45 a7 bd
       0.027744794 0.09554019 0.23536243 -0.08167583
000300 43 49 f0 3e 98 c3 2f be 52 73 81 be a9 a5 9b bd
       0.46930894 -0.17164457 -0.25283295 -0.075999565
000310 fc cd 63 be de 86 b7 bd e4 f4 fd 3d 3a 31 32 3e
       -0.22246546 -0.08961271 0.12400225 0.17401591
000320 e9 85 d5 bd cf a0 6d be 7d 55 02 3e cd 43 2a 3e
       -0.10425932 -0.23205875 0.12727924 0.16627426
000330 ea d3 88 bd 25 97 98 be f8 0f 43 3e eb 0a 3b bd
       -0.066810444 -0.29802814 0.1904906 -0.04566471
000340 0d a3 b0 bc d1 c1 cd 3d 93 5d 49 be c9 7a 6d bd
       -0.021562124 0.10046733 -0.19664602 -0.057978425
000350 32 ad 43 be 82 f6 1a 3e 8e bd 8e 3e 9a d0 b7 bd
       -0.19109038 0.15133098 0.27878994 -0.089753345
000360 60 14 b0 bd 1f 7f af bd 5e 78 13 3e 1d d6 01 3e
       -0.08597636 -0.08569168 0.14401385 0.12679334
000370 57 a4 0b 3c ba fb 8f 3d 40 fe c3 3d 7b 55 f3 bc
       0.008523068 0.07030435 0.09569979 -0.029703846
000380 a4 a0 10 be 51 14 8b be c2 cd 14 3d 2b 7f 1e 3e
       -0.1412378 -0.27163938 0.03632904 0.15478198
000390 80 4d b7 3d d7 80 26 3e aa ae db bd 16 05 94 3d
       0.08950329 0.16260086 -0.10726674 0.072275326
0003a0 85 48 e0 3d 78 f3 ae 3d bc 24 39 be 97 aa 79 bb
       0.10951332 0.08542532 -0.1808042 -0.0038096064
0003b0 de 03 51 be 3a 2a e8 3d 4c 46 f9 bc b1 3a 81 be
       -0.20411631 0.11336179 -0.030429028 -0.2524009
0003c0 fd 14 44 bd 50 a8 ae be 96 55 01 be ad 17 f4 bd
       -0.04787158 -0.34112787 -0.12630305 -0.11918578
0003d0 2e 1b bc 3d f1 6b 9f 3d 4e cc bb bd 27 aa 54 3e
       0.091848716 0.0778426 -0.091698274 0.20768033
0003e0 88 64 0c 3e 4e 18 63 3c 9e 99 78 bc 8e 3e 44 3e
       0.13710225 0.013860775 -0.015173344 0.19164488
0003f0 05 6e c4 bd ca ec de be 19 ff 0e be b4 0b c2 bd
       -0.09591297 -0.4354003 -0.139645 -0.094748884

decoders.0.fc.bias f4 [784]
000000 b8 dd 55 be 88 da f0 3d fd 01 7b 3e f5 0b 0e 3d
       -0.2088536 0.117604315 0.24512477 0.034679372
000010 88 43 31 3e 4b e0 93 bd b2 11 0e 3d 43 e0 4c 3e
       0.17310917 -0.07220515 0.034684844 0.20007424
000020 a3 8f 7e 3e 2c ab 35 be cb 5a fa bd ec c1 88 be
       0.2485948 -0.17741078 -0.12224349 -0.2671045
000030 51 f5 fd 3d 00 b9 88 be af 16 18 3d ea 72 9f be
       0.12400306 -0.26703644 0.037131008 -0.3114236
000040 43 99 81 3e a5 68 22 3e 30 28 fc 3d e0 9c 2a 3e
       0.25312242 0.15860231 0.12312353 0.16661406
000050 d4 c5 93 bd b7 35 af bd af 38 1a 3e d3 cd 24 3e
       -0.07215467 -0.08555167 0.15060686 0.1609414
000060 c8 d8 40 bb 22 e6 83 bd ba 02 27 3e 25 6d ea bd
       -0.0029426087 -0.06440379 0.16309634 -0.11446599
000070 84 ad 97 be 8f 45 e5 bd 1c 80 72 3e 67 f4 c6 bc
       -0.2962457 -0.11194908 0.23681682 -0.024286462
000080 a7 11 81 bc d6 7b e2 bd d4 40 d8 3d 58 32 8b be
       -0.015755488 -0.11058776 0.1055924 -0.27186847
000090 c1 42 2e 3e d0 52 86 bd 03 08 df 3d 5f 4d 82 be
       0.17017652 -0.06558764 0.108902 -0.25449654
0000a0 4b 96 df 3c c2 6a 86 3d 92 32 fd bd 6b 27 82 bc
       0.027293345 0.06563331 -0.12363161 -0.015887937
0000b0 46 37 d4 3e e5 80 80 bd b5 0e a1 bd 47 a7 c0 3e
       0.4144842 -0.06274585 -0.07864133 0.37627622
0000c0 ec 35 11 bf b2 bf 87 3d 42 66 9c 3c c0 ad 68 3e
       -0.56722903 0.0662836 0.01909173 0.2272253
0000d0 90 ad 52 bd e0 7b c4 bd 44 e8 01 3c c3 05 78 be
       -0.051435053 -0.0959394 0.007928912 -0.24220948
0000e0 d1 89 c5 bd d8 43 94 be 50 98 d8 bd d3 ec 0f be
       -0.09645427 -0.2895801 -0.10575926 -0.14055185
0000f0 d9 de 2b be 72 17 5d be 06 b0 de be 16 87 5c 3d
       -0.16784228 -0.21590975 -0.4349367 0.053839765
000100 4d 3c 98 be 2d 94 79 bd 77 99 87 3b 50 f2 9e 3e
       -0.29733506 -0.060932327 0.0041381675 0.31044245
000110 f0 2a 6f be 27 b8 b7 bd db a5 11 be b1 c1 df 3c
       -0.23356223 -0.08970671 -0.14223425 0.027314039
000120 66 86 9a bd cd 9c 67 3e 8b 81 4d bc cf 1c 14 be
       -0.07545166 0.22618409 -0.0125430925 -0.14464115
000130 a1 ed 98 bc 94 b2 90 be 14 eb cc be d5 31 67 be
       -0.018667998 -0.28261244 -0.400231 -0.22577603
000140 c7 9e 10 3e c9 fd 9a 3e 55 dc ec 3c 01 78 9c be
       0.14123069 0.30271748 0.028913656 -0.30560306
000150 9e 5f 2a be fe 06 cc be a4 da 8d be 03 78 2b 3d
       -0.16638038 -0.39849085 -0.27705872 0.0418625
000160 0a e6 01 3c 3d 49 b0 be ba 0c 00 bf 5a 6d d2 be
       0.007928381 -0.34430876 -0.5001942 -0.41099054
000170 19 31 4d be 16 62 af be 23 61 8b be 6d 67 09 bf
       -0.2003826 -0.3425452 -0.27222547 -0.5367344
000180 49 86 e9 be b0 3a e2 be cd d6 81 3e 74 e2 81 be
       -0.45610264 -0.441854 0.25359192 -0.25368083
000190 34 ad f9 3d 8e 2e 37 3e bb 1c 04 be 78 ed b4 3d
       0.12191239 0.17888853 -0.12901585 0.08834356
0001a0 a6 6f 3d be fc 12 3b 3d 7b c4 90 bd cc 68 35 be
       -0.18499622 0.0456724 -0.07068726 -0.17715758
0001b0 9f d5 b9 be 62 cb c5 3e 3b a7 74 3e 70 bc fa 3d
       -0.36295792 0.3863173 0.23891918 0.12242973
0001c0 e0 b5 b5 bd 90 e8 a5 3b 01 df b8 be 68 1b 91 3d
       -0.088725805 0.005063124 -0.36107638 0.070853055
0001d0 66 7a 26 3e a8 d1 8a 3d 90 87 26 bd 64 ad 02 be
       0.16257629 0.0677827 -0.040656626 -0.12761456
0001e0 77 82 aa 3c e9 28 22 be ee df 29 3e ef 89 01 bd
       0.020814164 -0.15835918 0.16589329 -0.031625684
0001f0 10 98 06 be b4 e1 98 bc ac 5b 40 3e a8 9e b7 bc
       -0.13143945 -0.018662311 0.1878497 -0.02241452
000200 3d 28 ae bd b5 bd 38 3d 8c 2a 58 3c f5 da ae 3e
       -0.085037686 0.045102794 0.013193738 0.34151426
000210 5a 7e af bd 01 2c 76 bc 06 69 66 be dc b9 93 3e
       -0.085690215 -0.01502514 -0.22501001 0.28852737
000220 8d 4a 44 be 26 79 26 3e 3f b3 a3 3e e3 fd ef be
       -0.19169064 0.16257152 0.3197269 -0.46873388
000230 67 f7 8c 3e b1 40 24 3f 86 64 f3 bc c3 ab 95 3e
       0.27532503 0.6416121 -0.02971102 0.29232606
000240 0b 5b a9 3e f2 61 83 be b0 d7 f7 be 86 98 9e bb
       0.33077273 -0.25660664 -0.48406744 -0.0048399596
000250 22 a6 85 3e 22 cd 0c 3e 5d f3 c8 bd 44 0b 24 3e
       0.26103312 0.13750127 -0.09812043 0.16019922
000260 21 f3 df 3d fa 53 fb 3d 49 5e 89 be 6f a9 ad be
       0.10935045 0.12271877 -0.26829746 -0.3391833
000270 63 08 1a be 67 9c a0 3e aa 4c d3 bd bb b9 d2 3d
       -0.15042262 0.31369326 -0.10317357 0.102893315
000280 c2 74 c0 be ce 19 24 3d 63 99 40 3d 66 0c 4d 3e
       -0.3758908 0.04006367 0.04702128 0.20024261
000290 6e ca 7f 3d 4c 14 19 be cd 66 09 bd 26 c1 e0 3d
       0.06244891 -0.14949149 -0.033545304 0.1097434
0002a0 61 95 e3 3b 08 aa e4 3d c5 bb a5 3e 47 54 2a 3e
       0.0069452976 0.111652434 0.3236982 0.16633712
0002b0 5b 11 6c be 36 18 81 be ef 31 65 bd a3 6c 8e be
       -0.23053496 -0.25213784 -0.055955824 -0.27817258
0002c0 de 0f 91 be d8 44 d4 3c 67 a2 13 3e 20 6f 1d be
       -0.28332418 0.025911734 0.1441742 -0.15374422
0002d0 77 15 ac bd 4e 15 47 be 53 97 8b be 53 f7 ba 3e
       -0.084025316 -0.19441721 -0.2726389 0.36516818
0002e0 fc 33 cc 3e b3 8f 9f 3e 13 05 c2 be 7a 46 e5 be
       0.3988341 0.3116432 -0.37894496 -0.44780332
0002f0 88 bb 1c be a4 dd ab be 16 8d 93 3d 11 85 5d 3d
       -0.15305912 -0.33567536 0.072046444 0.05408198
000300 21 66 e2 be 86 88 44 be fc f7 65 be 39 79 e8 be
       -0.44218543 -0.19192705 -0.2245788 -0.45404986
000310 0b 71 95 3b 4e 4e c3 bd 1d 0d 94 bc 78 da bc bc
       0.004560595 -0.0953642 -0.01807266 -0.023053393
000320 bd 2e c1 3b e0 d9 e7 3d 01 10 ab bc 87 ac 2f 3e
       0.005895464 0.11320853 -0.020881655 0.17155658
000330 52 5b e8 3c cb d0 69 be ee 13 be 3e a4 22 af 3e
       0.028363857 -0.22833554 0.3712458 0.34206116
000340 4e b3 70 bd 1c c4 6e 3e 11 ad db 3e f9 c2 3e 3e
       -0.05876475 0.23316997 0.42905477 0.18629064
000350 4b 77 be bc 83 27 5a 3e 6b 12 22 3d 2d 91 cb 3c
       -0.023250243 0.21304135 0.039568346 0.024849499
000360 f9 93 2d 3e d7 f7 89 3e e3 30 6a bd 09 d7 59 3e
       0.16950978 0.269469 -0.05717553 0.21273436
000370 1c b9 49 3e fd c9 d6 bd 18 0e 95 3e 28 49 8f bd
       0.1969952 -0.10487745 0.29112315 -0.06996375
000380 8b 54 42 3e 06 11 ae bd a7 90 8d bd 0b d4 6a be
       0.18977563 -0.08499341 -0.06912356 -0.2293245
000390 31 ad 68 3e 7d 77 9f be 95 62 c5 bd 60 66 86 3e
       0.22722317 -0.3114585 -0.09637944 0.2624998
0003a0 b8 bd 0d 3f f1 cc 43 3e 78 ef b0 3d b9 fc 91 be
       0.5536761 0.19121148 0.08639425 -0.28513125
0003b0 52 44 4a be 83 3a 22 be 75 f4 83 3e 13 44 d3 be
       -0.19752625 -0.15842633 0.25772443 -0.41262874
0003c0 39 4f 8a be 8e 2f 82 be ed 41 39 be ba c5 43 be
       -0.27013567 -0.25426906 -0.18091555 -0.19118395
0003d0 7b 98 c6 be c8 5f 4b be 03 05 f7 bd 5a 6d 46 be
       -0.38788208 -0.19860756 -0.12061503 -0.19377652
0003e0 e4 42 68 3d 3c 24 c5 bd f2 65 08 3e 48 e9 f6 bd
       0.056704417 -0.09626052 0.13320139 -0.120562136
0003f0 ef 98 a0 3e 55 54 14 3e 93 f9 c2 3c a2 fb 7c 3e
       0.3136668 0.14485295 0.023800647 0.24705365
