models/model_diabetes_1.pth (torch, 10735 bytes, 23 tensors)

weights f4 [2, 8]
00000000: faa8 4340 a9f2 523f eaef c93f 2462 ae3f
00000010: 909f c340 4b34 6dbf a496 2c41 c87a f940
00000020: 6533 9bbe 9798 c040 f26f 2f3f 7aa2 863e
00000030: 1fad be3f 9932 1d41 f7e7 5e41 0cef 1241
3.0571885 0.8240152 1.5776341 1.36237 6.113228 -0.9265792 10.7867775 7.796238
-0.30312648 6.0186267 0.6853019 0.26295835 1.4896582 9.824853 13.931632 9.183361

autoencoders.0.encoder.layers.0.weight f4 [4, 8]
00000000: ed13 2f3c 9c4b 743e 9065 4cbd b513 f5bc
00000010: 9fab 3abe fcb6 793f 6eb8 403f badf e83e
00000020: d439 6988 e156 2bad 790c 11a7 12f7 719a
00000030: f6a3 1aaa cf48 8617 23b8 aca6 6a2c dea1
00000040: d2c0 7b03 276c c6a8 bb16 e71d be9c 6022
00000050: 8c80 2c9b f5a4 5300 3f93 ce99 e84d a18c
00000060: f2c6 64bc 5c71 36be 2368 b1bc 4785 883b
00000070: d5d4 4cbf 8794 32be aafa b03e 1549 433e
0.010685903 0.23856968 -0.049901545 -0.029916624 -0.18229531 0.97544837 0.7528142 0.4548319
-7.0183864e-34 -9.739516e-12 -2.0129554e-15 -5.0037214e-23 -1.3734833e-13 8.677927e-25 -1.1984808e-15 -1.5055061e-18
7.3983617e-37 -2.202932e-14 6.1168694e-21 3.044064e-18 -1.4269042e-22 7.681522e-39 -2.1359373e-23 -2.4852866e-31
-0.013963448 -0.1781668 -0.021656102 0.0041662785 -0.80012256 -0.17439471 0.34566242 0.19070847

autoencoders.0.encoder.layers.0.bias f4 [4]
00000000: 8853 b83d 0c5f 12b2 c1fe 3dad d1ec 503f
0.09000307 -8.51993e-09 -1.0799973e-11 0.81611353

autoencoders.0.encoder.layers.2.weight f4 [2, 4]
00000000: 56c0 5a3f 3b77 9638 1634 07b5 9761 5fbe
00000010: a390 e13b 8772 9f36 bfef 0db0 bb81 88bf
0.8544973 7.174766e-05 -5.0367214e-07 -0.21814571 0.006883697 4.751902e-06 -5.16362e-10 -1.0664591

autoencoders.0.encoder.layers.2.bias f4 [2]
00000000: 29c8 f3be 1c0b 7a3f
-0.47613648 0.976732

autoencoders.0.encoder.layers.4.weight f4 [1, 2]
00000000: 7999 7e3f c8a9 2f3f
0.9945293 0.6861844

autoencoders.0.decoder.layers.0.weight f4 [2, 1]
00000000: bb30 583f 82bf 9cbf
0.84449357 -1.2245944

autoencoders.0.decoder.layers.0.bias f4 [2]
00000000: 9b5f d4bd a4a6 2a3f
-0.10369798 0.66660523

autoencoders.0.decoder.layers.2.weight f4 [4, 2]
00000000: 5f31 14be 7e41 403f e333 2ebf 9b24 56bf
00000010: 462b 653e c0dc 76be 0aaf 7100 042b c707
-0.14471959 0.75099933 -0.6804792 -0.83649606 0.22379789 -0.24107647 1.0440203e-38 2.9967474e-34

autoencoders.0.decoder.layers.2.bias f4 [4]
00000000: 9e69 9f3d 16b8 4a3f 3c0f 013f b899 ceb1
0.07783817 0.7918714 0.5041387 -6.012865e-09

autoencoders.0.decoder.layers.4.weight f4 [8, 4]
00000000: 4f03 6d3d 6978 42bd 157f ed3d 4d49 878e
00000010: ea59 99be 6f29 3ebd 06de 283f 4019 4380
00000020: 4ed4 8cbc d17b cb3c 8b8d 823e 2056 d580
00000030: 2673 cdbe af74 04bf 209e 293e 38e4 5418
00000040: e86b 34bf 1139 7c3f 3dbb 0e3f c424 fb34
00000050: 621b a5be 14e0 f6be 28fb fb3e d0e9 a800
00000060: dc23 bd3e 12e9 b83e 9282 5dbe 622c 86b7
00000070: 579f 493e 7ef2 f53d 7c2e 463e f007 4980
0.057864483 -0.047478113 0.115965046 -3.3350656e-30 -0.2995141 -0.046426233 0.6596378 -6.162036e-39
-0.017191079 0.024839314 0.25498614 -1.9591857e-38 -0.40126914 -0.51740545 0.16564226 2.7515579e-24
-0.7047715 0.98524576 0.5575445 4.6779144e-07 -0.32247454 -0.48217833 0.49215055 1.551224e-38
0.3694142 0.3611532 -0.2163184 -1.5994712e-05 0.1968969 0.12009142 0.1935367 -6.706839e-39

autoencoders.0.decoder.layers.4.bias f4 [8]
00000000: 88d0 023e 08e2 ec3e 8e84 65bc f630 a23e
00000010: 9c8d ff3e f494 ad3e 3cbf 703d 23aa a6bb
0.12774861 0.46266198 -0.014008654 0.3167798 0.49912727 0.33902705 0.058776125 -0.0050862

autoencoders.1.encoder.layers.0.weight f4 [4, 8]
00000000: 44d9 a500 82fb 1701 eae7 0301 0ad1 2f81
00000010: 7451 7981 1e5f 4081 d54d 8201 c806 7801
00000020: 1922 1801 0ee0 9201 c060 8101 2be0 0501
00000030: be77 9501 bf70 ef80 52ff c480 5cd0 4d80
00000040: ea27 bd01 63a5 0700 62de 2481 c293 8800
00000050: 89e5 d080 3878 a781 c83a a981 6efd 7e81
00000060: c704 8f01 6bba 9e81 30ee bb80 90dc 0080
00000070: 548d f780 988b b001 1351 7f00 5cd7 3101
1.5230797e-38 2.7914768e-38 2.422729e-38 -3.2292402e-38 -4.5792517e-38 -3.5333074e-38 4.786614e-38 4.5555271e-38
2.7942455e-38 5.395343e-38 4.7525945e-38 2.4589075e-38 5.490578e-38 -2.1989129e-38 -1.8091349e-38 -7.146078e-39
6.948491e-38 7.02178e-40 -3.0281595e-38 1.2542633e-38 -1.9184125e-38 -6.1518617e-38 -6.216514e-38 -4.683426e-38
5.253676e-38 -5.830753e-38 -1.7258683e-38 -7.9123e-41 -2.2734067e-38 6.4852497e-38 1.1692192e-38 3.2664278e-38

autoencoders.1.encoder.layers.0.bias f4 [4]
00000000: ceb9 a800 8ed6 3e01 a8fd 2201 ebb1 9f01
1.5495018e-38 3.5051424e-38 2.993669e-38 5.8662675e-38

autoencoders.1.encoder.layers.2.weight f4 [2, 4]
00000000: e60f 8f01 370a 0d00 b99b 2681 cdd5 9501
00000010: 29e3 0200 5d68 ae01 2209 8c81 ea3a 0000
5.2552717e-38 1.197526e-39 -3.060111e-38 5.5040745e-38 2.65161e-40 6.406726e-38 -5.144098e-38 2.1134e-41

autoencoders.1.encoder.layers.2.bias f4 [2]
00000000: a42e 4c01 de08 3881
3.7502345e-38 -3.3801824e-38

autoencoders.1.encoder.layers.4.weight f4 [1, 2]
00000000: e444 3581 83b8 9a01
-3.3293876e-38 5.6835427e-38

autoencoders.1.decoder.layers.0.weight f4 [2, 1]
00000000: 9c3d 8101 be49 a181
4.747552e-38 -5.9247874e-38

autoencoders.1.decoder.layers.0.bias f4 [2]
00000000: d521 b980 5f8c 7e80
-1.7001703e-38 -1.1621628e-38

autoencoders.1.decoder.layers.2.weight f4 [4, 2]
00000000: 501c 6300 7043 0281 d7a5 4080 d673 6080
00000010: f2e9 6f00 de77 e400 e314 2681 288f 6001
9.101871e-39 -2.3925613e-38 -5.936964e-39 -8.857762e-39 1.0277664e-38 2.0981493e-38 -3.050437e-38 4.1245012e-38

autoencoders.1.decoder.layers.2.bias f4 [4]
00000000: 9266 16b6 f73f 7a3e 9772 3f80 b899 e290
-2.2411446e-06 0.24438463 -5.826743e-39 -8.9378124e-29

autoencoders.1.decoder.layers.4.weight f4 [8, 4]
00000000: 4e53 1180 2608 96bc 38cd 6f01 651f bb0d
00000010: dfb3 fd17 ad39 153f acfe 7800 2898 788f
00000020: fedd aa00 1c4e 4dbe ac66 af00 3d18 958e
00000030: 7bf7 1a00 2fb7 e0bd bb91 b901 924e db0d
00000040: c2ac 9800 583e 263e 84bf 5a80 db00 4c8e
00000050: 3bc7 4900 bf28 09bd 6eca 6d81 4a8a 6f8e
00000060: f7fd 4aae 56a7 4f3d 6f7c f000 bbcf fd0e
00000070: ad04 0faa feb1 93be bf12 9301 3684 640e
-1.591088e-39 -0.018314432 4.4044604e-38 1.1532323e-30 1.6395148e-24 0.5829113 1.1111619e-38 -1.2256648e-29
1.569167e-38 -0.20049328 1.6108044e-38 -3.6754677e-30 2.476502e-39 -0.109724395 6.816738e-38 1.3515832e-30
1.4020969e-38 0.1623472 -8.333898e-39 -2.5145353e-30 6.775462e-39 -0.033486124 -4.367526e-38 -2.9525608e-30
-4.615505e-11 0.050696693 2.2085157e-38 6.2569352e-30 -1.2702574e-13 -0.28846735 5.402617e-38 2.8166827e-30

autoencoders.1.decoder.layers.4.bias f4 [8]
00000000: cd24 843e be16 273f e7ab 943e c445 343e
00000010: 30bd 043f b4a0 9f3e c9e0 253f c7ae 1b3f
0.25809327 0.65269077 0.290374 0.17604738 0.5185118 0.31177294 0.6479612 0.60813564
