models/model_diabetes_1.pth (torch, 11055 bytes, 23 tensors)

weights f4 [2, 8]
000000 3e de 84 40 15 2f a1 40 45 ce 3c 3f bd 6d 6f 3f
       4.152129 5.0369973 0.7375224 0.9352682
000010 e5 58 1a 3f ee 0a 54 41 f5 b3 67 41 8f 82 1d 41
       0.6029189 13.252668 14.481435 9.844375
000020 0c 0c bf bf 93 c2 02 41 8e 0b a5 be d6 72 fe 3d
       -1.4925551 8.172503 -0.32235378 0.12424247
000030 65 de 0b 40 4a 72 80 41 6e 00 7e 41 36 87 2b 41
       2.185449 16.055805 15.875105 10.7205105

autoencoders.0.encoder.layers.0.weight f4 [4, 8]
000000 bf 57 05 80 6f 5e 05 00 74 57 05 80 b3 5d 05 80
       -4.90655e-40 4.93054e-40 -4.9055e-40 -4.9279e-40
000010 3c 5f 05 00 4d f0 05 80 c1 64 05 00 ee 6a 05 00
       4.93341e-40 -5.45381e-40 4.95321e-40 4.97537e-40
000020 0e 5b 05 00 97 5e 05 80 9b 0f 06 00 dd 57 05 80
       4.91842e-40 -4.9311e-40 5.56611e-40 -4.90697e-40
000030 64 5c 05 80 c6 72 05 00 1d 66 05 00 e2 5d 05 80
       -4.92321e-40 5.0035e-40 4.95809e-40 -4.92856e-40
000040 d4 a0 05 80 03 a6 05 80 3a 66 05 80 3f 5e 05 00
       -5.16872e-40 -5.18731e-40 -4.9585e-40 4.92987e-40
000050 be 5e 05 80 fe 68 05 00 96 62 05 80 19 58 05 00
       -4.93165e-40 4.96842e-40 -4.94543e-40 4.90781e-40
000060 f0 7a 05 00 1d 93 05 00 a8 e6 05 00 e3 58 05 00
       5.03279e-40 5.11952e-40 5.41921e-40 4.91064e-40
000070 0b 5d 05 80 e9 79 05 00 cb 75 05 00 61 62 05 00
       -4.92555e-40 5.0291e-40 5.01434e-40 4.94469e-40

autoencoders.0.encoder.layers.0.bias f4 [4]
000000 ba 5a 05 00 de 5d 05 80 b9 5d 05 80 58 5d 05 00
       4.91724e-40 -4.9285e-40 -4.92799e-40 4.92663e-40

autoencoders.0.encoder.layers.2.weight f4 [2, 4]
000000 85 62 05 00 d4 c9 06 00 6a 59 05 80 5f 59 05 80
       4.9452e-40 6.23415e-40 -4.91253e-40 -4.91238e-40
000010 15 5c 05 80 1b 63 05 80 ae 57 05 00 5f 6b 05 00
       -4.9221e-40 -4.9473e-40 4.90631e-40 4.97695e-40

autoencoders.0.encoder.layers.2.bias f4 [2]
000000 93 9f 05 80 a9 88 06 80
       -5.16422e-40 -6.00037e-40

autoencoders.0.encoder.layers.4.weight f4 [1, 2]
000000 fa 64 05 00 de cd 06 80
       4.95401e-40 -6.24864e-40

autoencoders.0.decoder.layers.0.weight f4 [2, 1]
000000 2b 46 06 00 26 aa 06 00
       5.76185e-40 6.12051e-40

autoencoders.0.decoder.layers.0.bias f4 [2]
000000 2f 6f 05 80 7d b9 05 80
       -4.99063e-40 -5.25718e-40

autoencoders.0.decoder.layers.2.weight f4 [4, 2]
000000 db b5 06 00 12 68 05 00 f7 22 06 80 88 70 06 80
       6.1625e-40 4.96511e-40 -5.63556e-40 -5.91382e-40
000010 0c 58 05 80 16 82 06 80 e3 6e 05 00 c6 10 06 00
       -4.90763e-40 -5.97679e-40 4.98956e-40 5.5703e-40

autoencoders.0.decoder.layers.2.bias f4 [4]
000000 e9 ff 22 ba 15 42 44 9b 82 99 b5 b9 ad de fa 94
       -0.0006217943 -1.6234092e-22 -0.00034637382 -2.5331379e-26

autoencoders.0.decoder.layers.4.weight f4 [8, 4]
000000 75 81 e5 a7 af 5a 05 00 bf 47 ba 2a 25 60 05 00
       -6.3700626e-15 4.91709e-40 3.309002e-13 4.93668e-40
000010 ca 8d 88 2e fd 63 05 00 01 b3 a9 aa 69 61 05 00
       6.209751e-11 4.95047e-40 -3.014464e-13 4.94122e-40
000020 ef 59 05 00 39 58 05 80 95 3e 0f ab 2d 59 05 80
       4.9144e-40 -4.90826e-40 -5.0890656e-13 -4.91168e-40
000030 ca 58 05 80 1c 64 05 80 7e c4 e6 aa fd 59 05 80
       -4.91029e-40 -4.9509e-40 -4.099255e-13 -4.91459e-40
000040 bc 57 05 80 18 5b 05 80 2c a4 62 ab dd 5e 05 80
       -4.9065e-40 -4.91856e-40 -8.0519163e-13 -4.93208e-40
000050 f6 88 ad 31 02 80 86 00 3a 68 25 a9 4f 61 05 00
       5.0505333e-09 1.2351877e-38 -3.6727762e-14 4.94085e-40
000060 5e 4e 97 b6 c0 54 98 86 37 ac 12 ac 19 5b 05 00
       -4.509274e-06 -5.7300574e-35 -2.0843446e-12 4.91857e-40
000070 38 ea 6b af 78 5a 05 80 31 95 9d ab 7e 58 05 00
       -2.1456337e-10 -4.91632e-40 -1.119693e-12 4.90922e-40

autoencoders.0.decoder.layers.4.bias f4 [8]
000000 ab 71 49 3e 95 8b fa 3e 9d 77 54 3d 73 20 17 3d
       0.19672267 0.48934618 0.051871885 0.03689618
000010 33 13 d8 3e e6 cc ef 3d 39 6c 95 3e 92 1e 55 3e
       0.42202148 0.11709003 0.2918413 0.20812443

autoencoders.1.encoder.layers.0.weight f4 [4, 8]
000000 50 99 05 80 f4 5c 05 80 a3 60 05 80 6b 7e 05 00
       -5.14176e-40 -4.92523e-40 -4.93844e-40 5.04528e-40
000010 f7 2d 06 00 7b 7e 05 80 65 5b 05 00 8b 63 05 80
       5.67502e-40 -5.0455e-40 4.91964e-40 -4.94887e-40
000020 60 57 05 80 e9 6e 05 00 7b 60 05 00 4d 69 05 00
       -4.90522e-40 4.98965e-40 4.93788e-40 4.96952e-40
000030 38 68 05 80 e4 65 05 00 35 5b 05 80 47 5f 05 00
       -4.96564e-40 4.95729e-40 -4.91896e-40 4.93357e-40
000040 a0 7c 05 80 71 69 05 00 25 5f 05 00 d8 69 05 00
       -5.03885e-40 4.97003e-40 4.93309e-40 4.97147e-40
000050 bc 8b 05 80 50 9b 05 80 52 61 05 80 a9 66 05 80
       -5.09305e-40 -5.14893e-40 -4.9409e-40 -4.96005e-40
000060 74 5e 05 80 21 36 06 80 13 58 05 80 7d 66 05 80
       -4.93061e-40 -5.70431e-40 -4.90773e-40 -4.95943e-40
000070 69 79 05 00 51 5b 05 80 e6 5f 05 80 8d 62 06 00
       5.02731e-40 -4.91936e-40 -4.9358e-40 5.86366e-40

autoencoders.1.encoder.layers.0.bias f4 [4]
000000 59 69 05 80 fd 5a 05 00 a1 77 05 80 ed 5f 05 00
       -4.96969e-40 4.91818e-40 -5.02092e-40 4.93589e-40

autoencoders.1.encoder.layers.2.weight f4 [2, 4]
000000 4b 98 05 80 d3 5f 05 80 85 57 05 00 63 85 05 80
       -5.1381e-40 -4.93553e-40 4.90574e-40 -5.07028e-40
000010 44 5e 05 00 93 64 05 00 e8 6e 05 00 45 b7 05 00
       4.92994e-40 4.95257e-40 4.98963e-40 5.24922e-40

autoencoders.1.encoder.layers.2.bias f4 [2]
000000 99 5b 05 80 b9 5e 05 80
       -4.92037e-40 -4.93158e-40

autoencoders.1.encoder.layers.4.weight f4 [1, 2]
000000 68 57 05 80 39 7f 05 80
       -4.90533e-40 -5.04816e-40

autoencoders.1.decoder.layers.0.weight f4 [2, 1]
000000 78 58 05 00 a5 5a 05 00
       4.90914e-40 4.91695e-40

autoencoders.1.decoder.layers.0.bias f4 [2]
000000 91 6c 05 80 83 94 05 80
       -4.98124e-40 -5.12453e-40

autoencoders.1.decoder.layers.2.weight f4 [4, 2]
000000 32 75 05 80 52 5a 05 80 d5 67 05 00 46 63 05 00
       -5.01219e-40 -4.91578e-40 4.96425e-40 4.9479e-40
000010 30 04 06 00 f4 5e 05 00 f7 54 06 80 20 60 05 00
       5.52515e-40 4.9324e-40 -5.81493e-40 4.9366e-40

autoencoders.1.decoder.layers.2.bias f4 [4]
000000 ff 1e e6 bb 5c 01 d7 b9 a6 a1 49 bc 3d a4 27 bb
       -0.007022738 -0.00041009008 -0.012306606 -0.0025580071

autoencoders.1.decoder.layers.4.weight f4 [8, 4]
000000 75 23 9c 38 e5 d8 13 96 29 04 e3 35 57 cc 05 80
       7.445264e-05 -1.1943005e-25 1.6914029e-06 -5.32481e-40
000010 0a c7 5a 3c 44 10 53 af 22 3a 86 bb 56 78 05 00
       0.013353119 -1.9196117e-10 -0.0040962854 5.02346e-40
000020 b8 80 d7 b6 51 41 15 80 dd 94 e3 b0 13 f9 05 00
       -6.422484e-06 -1.951977e-39 -1.6558733e-09 5.48528e-40
000030 70 ee c0 34 8b 63 05 00 4f 04 13 b0 b0 72 05 80
       3.5936273e-07 4.94887e-40 -5.348441e-10 -5.0032e-40
000040 38 a2 85 ba b9 c7 06 00 cd ed 7a ba d6 6d 05 00
       -0.001019544 6.2266e-40 -0.0009572178 4.98579e-40
000050 93 f2 4e bb e9 f8 5d b6 73 60 ba 3a a6 5c 05 80
       -0.003157769 -3.307645e-06 0.0014219418 -4.92413e-40
000060 9d 61 af 3a 13 ce 9b b8 af d4 a7 bb 2e c6 3e 19
       0.0013380531 -7.42936e-05 -0.0051217894 9.862792e-24
000070 f5 47 f7 bb 9a 0c 45 b2 44 6e cc 3b 8f fa b4 25
       -0.0075464197 -1.14697745e-08 0.0062387306 3.1394808e-16

autoencoders.1.decoder.layers.4.bias f4 [8]
000000 5f 82 70 3e 9e 3d 45 3f 7c 2f 74 3e 47 f5 1e 3e
       0.23487233 0.77047145 0.23846239 0.15523253
000010 bb 9a 0e 3f 25 b0 ac 3e 26 16 29 3f df 5e 0a 3f
       0.5570485 0.33728138 0.6604942 0.5405101
