models/model_octminst_9.pth (torch, 563411 bytes, 27 tensors)

weights f4 [4, 784]
0	0x3f98f0c6	1.1948478
1	0x3f86ccac	1.0531211
2	0x3f86c45b	1.0528673
3	0x3f80383f	1.0017165
4	0x3f8eec3e	1.1165845
5	0x3f21631e	0.63041866
6	0x3f2eb4bb	0.6824452
7	0x3f43e6cf	0.7652406
8	0x3f9172c2	1.1363146
9	0x3f77df07	0.9682469
10	0x3f74081c	0.95324874
11	0x3f6fad11	0.93623453
12	0x3f83aa3a	1.0286324
13	0x3f4de2f2	0.80424416
14	0x3f40d5ed	0.75326425
15	0x3f4ea6e8	0.8072343
16	0x3f524d88	0.82149553
17	0x3f366fb8	0.7126422
18	0x3f3b01ca	0.73049605
19	0x3f642421	0.8911763
20	0x3f90e8d5	1.1321055
21	0x3f80c7fd	1.0061032
22	0x3f63cd3a	0.88985026
23	0x3f7c55d7	0.9856848
24	0x3f7665fd	0.9624937
25	0x3f609782	0.8773118
26	0x3f53c4fb	0.82722443
27	0x3f3497c2	0.70544064
28	0x3f66450b	0.899491
29	0x3f5840dc	0.8447397
30	0x3f1088bf	0.5645866
31	0x3f1bfa56	0.6092886
32	0x3f8557da	1.0417435
33	0x3f4731c6	0.77810323
34	0x3f0df367	0.5544953
35	0x3f3f7ab9	0.74796635
36	0x3f7c6642	0.98593533
37	0x3f6b762a	0.9197718
38	0x3f513361	0.81719023
39	0x3f4a37d9	0.78991467
40	0x3f3760f3	0.7163231
41	0x3f49360e	0.78598106
42	0x3f41cad1	0.757001
43	0x3f492049	0.7856489
44	0x3f3a158e	0.7268914
45	0x3f2d8db5	0.6779435
46	0x3f161902	0.5863191
47	0x3f1b91ff	0.6076965
48	0x3f800f1e	1.0004613
49	0x3f8299a5	1.0203139
50	0x3f48704c	0.7829635
51	0x3f638c4c	0.8888595
52	0x3f62e2e5	0.88627464
53	0x3f67d8e0	0.905653
54	0x3f47764e	0.77914894
55	0x3f617bf0	0.8807974
56	0x3ed6fc64	0.41989434
57	0x3ed49718	0.41521525
58	0x3f0e87f2	0.55676186
59	0x3f384447	0.7197918
60	0x3f842350	1.0323277
61	0x3f3a746b	0.7283389
62	0x3f329c49	0.6976972
63	0x3f36e5b0	0.71444225
64	0x3f9ad05c	1.2094836
65	0x3f78f2cb	0.9724547
66	0x3f7cdef3	0.98777694
67	0x3f758cf3	0.95918196
68	0x3f81d425	1.0142866
69	0x3f50ffbb	0.81640214
70	0x3f47a065	0.7797912
71	0x3f47f481	0.7810746
72	0x3f5e6dba	0.8688618
73	0x3f3250e9	0.6965471
74	0x3f149c77	0.58051246
75	0x3f3b6dcd	0.7321442
76	0x3f833eaa	1.0253499
77	0x3f5f3f55	0.8720601
78	0x3f54b6a5	0.83091193
79	0x3f3630db	0.711683
80	0x3f4c808a	0.79883635
81	0x3f435e80	0.7631607
82	0x3f311a3d	0.6918066
83	0x3f3c15d5	0.73470813
84	0x3f509936	0.8148378
85	0x3f2e67d6	0.6812719
86	0x3eff614c	0.4987892
87	0x3ef710c6	0.48254985
88	0x3f0eb64c	0.5574691
89	0x3f021698	0.50815725
90	0x3f0a6c3b	0.54071397
91	0x3f0c8756	0.54894006
92	0x3f751694	0.95737576
93	0x3f5fe0e9	0.8745256
94	0x3f3bbab1	0.73331743
95	0x3f31c4bc	0.6944082
96	0x3f14cce1	0.5812512
97	0x3f1e8edc	0.61936736
98	0x3f3095f5	0.68978816
99	0x3f495d3b	0.78657883
100	0x3f444827	0.76672596
101	0x3f1a45db	0.6026284
102	0x3f13b72c	0.57701373
103	0x3ee36166	0.44410247
104	0x3f316c7d	0.69306165
105	0x3f232ec8	0.6374326
106	0x3ee6b086	0.45056552
107	0x3ef1f15f	0.47254464
108	0x3f1d20e6	0.61378324
109	0x3f26236b	0.64897794
110	0x3f210516	0.62898386
111	0x3f3099f5	0.6898492
112	0x3fa1a13a	1.2627327
113	0x3f833d4b	1.025308
114	0x3f4d50d8	0.8020148
115	0x3f3d6d06	0.7399448
116	0x3f510fbf	0.8166465
117	0x3f2b3531	0.6687804
118	0x3f16d00c	0.58911204
119	0x3f1062ca	0.5640074
120	0x3f8097bf	1.0046309
121	0x3f69e156	0.9135946
122	0x3f563bf6	0.83685243
123	0x3f3c9dca	0.73678267
124	0x3f34da4b	0.7064559
125	0x3f323ac6	0.6962093
126	0x3f56c983	0.8390123
127	0x3f650704	0.8946383
128	0x3f3d224a	0.73880446
129	0x3f22182a	0.6331812
130	0x3f3b192e	0.73085296
131	0x3f345887	0.7044758
132	0x3f4ce838	0.8004184
133	0x3f576103	0.84132403
134	0x3f5c15b3	0.8597061
135	0x3f4ad9e2	0.7923871
136	0x3f320c4b	0.6955001
137	0x3f375160	0.71608543
138	0x3f2b8ba3	0.67009944
139	0x3f4b7632	0.79477227
140	0x3f9f866b	1.2462896
141	0x3f95c312	1.1700156
142	0x3f3622e1	0.7114697
143	0x3f2fcb22	0.6866933
144	0x3f3429c6	0.7037624
145	0x3f050e1e	0.51974666
146	0x3ee5a865	0.44855037
147	0x3ed6af28	0.4193051
148	0x3f4f0ace	0.8087586
149	0x3f5a795a	0.8534142
150	0x3f1ea946	0.6197704
151	0x3ee41fd8	0.44555545
152	0x3f2d5580	0.6770859
153	0x3f330c5f	0.6994075
154	0x3f491171	0.7854224
155	0x3f3daed7	0.7409491
156	0x3f4dbfa5	0.8037055
157	0x3f3e6e9f	0.74387544
158	0x3f4bf6ef	0.79673666
159	0x3f619d70	0.88130856
160	0x3f4130ce	0.75465095
161	0x3f3b4ad1	0.73161036
162	0x3f089d75	0.5336526
163	0x3efa1833	0.48846588
164	0x3f13490d	0.5753334
165	0x3f263265	0.64920646
166	0x3f1a0a74	0.601722
167	0x3f3177c9	0.693234
168	0x3fa96af5	1.3235766
169	0x3fa266c3	1.268761
170	0x3f90d630	1.1315365
171	0x3f857f00	1.0429382
172	0x3f7178b5	0.9432481
173	0x3f4d7fcd	0.80273134
174	0x3f2764f5	0.65388423
175	0x3f286c10	0.6578989
176	0x3f3be91e	0.73402584
177	0x3f30823f	0.6894874
178	0x3f1e8538	0.61922026
179	0x3f1ba55a	0.6079918
180	0x3f67c330	0.9053221
181	0x3f94a58b	1.161302
182	0x3f9cbe5d	1.2245594
183	0x3f64d4c4	0.89387155
184	0x3f47195f	0.7777309
185	0x3f3b4bbd	0.7316244
186	0x3f5faa20	0.87368965
187	0x3f57b6cb	0.84263295
188	0x3f5b657c	0.8570173
189	0x3f489142	0.78346646
190	0x3f3ec7a8	0.745234
191	0x3f4d1044	0.80102944
192	0x3f15e240	0.58548355
193	0x3f2e0aa3	0.6798498
194	0x3f41153c	0.75423026
195	0x3f456ac5	0.7711604
196	0x3fda55d7	1.7057446
197	0x3fd55282	1.6665804
198	0x3fa82d7e	1.3138883
199	0x3f7e7830	0.9940214
200	0x3f5d1f1d	0.863756
201	0x3f871fd2	1.0556586
202	0x3f79fad9	0.9764839
203	0x3f6c010d	0.92189103
204	0x3f5e2f1a	0.8679062
205	0x3f5db1a4	0.86599183
206	0x3f511e97	0.816873
207	0x3f3e8a79	0.7443004
208	0x3f493ebe	0.7861136
209	0x3f86756c	1.0504584
210	0x3f82f27d	1.0230252
211	0x3f6da486	0.9282917
212	0x3f7c8c27	0.98651356
213	0x3f8725ba	1.0558388
214	0x3f82cde7	1.0219086
215	0x3f897add	1.074062
216	0x3f83f18a	1.0308087
217	0x3f8fe35b	1.1241258
218	0x3f6add76	0.9174417
219	0x3f20656b	0.6265475
220	0x3ef3980a	0.47576934
221	0x3f33d5dc	0.702482
222	0x3f7d9f90	0.990716
223	0x3f552cc3	0.83271426
224	0x3fb47c02	1.4100344
225	0x3fbeaf21	1.4897195
226	0x3fd36ae4	1.6516995
227	0x3fd6f434	1.6793275
228	0x3fb45e77	1.4091328
229	0x3fad3e02	1.3534548
230	0x3fa8d81c	1.3190951
231	0x3f89a449	1.0753261
232	0x3f784ef2	0.9699546
233	0x3f988b81	1.1917573
234	0x3fa2cddc	1.2719073
235	0x3f9ebfe1	1.2402307
236	0x3fa06996	1.2532222
237	0x3f9a64b6	1.2061985
238	0x3f8f607e	1.1201322
239	0x3f90a029	1.1298877
240	0x3f93aac1	1.1536485
241	0x3f5e6d45	0.8688548
242	0x3f386d74	0.7204201
243	0x3f1d926c	0.6155155
244	0x3f0cbcee	0.54975784
245	0x3f3548c4	0.70814157
246	0x3f79998b	0.9749991
247	0x3f90d7de	1.1315877
248	0x3fb39557	1.402995
249	0x3fa29406	1.2701423
250	0x3f8a9131	1.0825559
251	0x3f8be30c	1.0928664
252	0x3fe6b2a8	1.8023272
253	0x3fbeec16	1.4915798
254	0x3f8e1f1c	1.1103244
255	0x3f82cf9b	1.0219606

encoder.model.0.weight f4 [8, 1, 3, 3]
0	0xbe975802	-0.29559332
1	0xbee34692	-0.44389778
2	0xbeb7559f	-0.3580751
3	0x3edfa987	0.43684027
4	0x3f171141	0.590107
5	0x3f0fd075	0.56177455
6	0xbe9fa2cc	-0.31178892
7	0x3e3f359f	0.18672799
8	0xbe6dc4a3	-0.23219542
9	0x3c54d779	0.012990826
10	0x3ed68d43	0.4190465
11	0x3e009452	0.1255658
12	0xbefe99c7	-0.49726698
13	0xbeb08005	-0.3447267
14	0xbe4493a4	-0.19196945
15	0xbd33d1d1	-0.04390127
16	0x3d575613	0.05257232
17	0xbd8c5924	-0.0685294
18	0x3dc9f46d	0.09861074
19	0x3e5dc743	0.21658044
20	0x3ea2016b	0.31641707
21	0x3e93b7ba	0.2885111
22	0x3ef8803a	0.4853533
23	0x3e9cae7b	0.30601868
24	0xbe98ad56	-0.29819745
25	0xbee8b312	-0.4544912
26	0xbb720918	-0.003693169
27	0x3d8ae2a2	0.06781508
28	0x3ebfa8b0	0.37433386
29	0x3d960b86	0.07326417
30	0x3d65a7ed	0.05606835
31	0x3e75e8c2	0.24014571
32	0x3eadca48	0.3394339
33	0x3dca0b4c	0.09865436
34	0x3e1b73c9	0.15180887
35	0xbdf11f6c	-0.11773571
36	0xbe855af7	-0.26045963
37	0x3e8bb59b	0.2728699
38	0x3b34ce9f	0.0027588976
39	0x3edc80dc	0.43067062
40	0x3ee89e77	0.454334
41	0xbf4da273	-0.80326
42	0x3f2ae2fb	0.66752595
43	0x3e2b99c5	0.16757877
44	0xbf713d4e	-0.9423417
45	0xbd62c00c	-0.05535893
46	0xbe9f61e1	-0.31129363
47	0x3d260e07	0.04054072
48	0xbde71c09	-0.11284644
49	0xbf19969d	-0.5999544
50	0xbe09e531	-0.13466336
51	0x3ee2c5f0	0.4429164
52	0x3f013464	0.50470567
53	0x3f02560d	0.50912553
54	0x3e892d57	0.26792404
55	0xbf03f382	-0.5154344
56	0x3e643622	0.22286275
57	0xbda2bf5a	-0.07946654
58	0xbf87eb8b	-1.0618757
59	0x3eafa70e	0.3430714
60	0xbe34400c	-0.17602557
61	0xbf39d580	-0.725914
62	0x3d9c8e57	0.07644337
63	0x3f29b0f4	0.66285634
64	0xbc592222	-0.013252767
65	0xbf8fce98	-1.1234922
66	0x3f63d991	0.89003855
67	0x3c9583b4	0.018251278
68	0xbf80b5b0	-1.0055447
69	0x3f4d38c9	0.8016477
70	0x3e269ff8	0.1627196
71	0xbf30da14	-0.6908276

encoder.model.0.bias f4 [8]
0	0xbd92879b	-0.07154771
1	0x3e4373da	0.19087163
2	0xbeb6c673	-0.3569828
3	0xbd66a765	-0.056311984
4	0x3d7671a7	0.06016698
5	0xbe0023bd	-0.12513633
6	0x3e8fd2ec	0.28090608
7	0x3e46af08	0.19402707

encoder.model.2.weight f4 [16, 8, 3, 3]
0	0x3e2090a5	0.15680178
1	0x3e237a75	0.15964682
2	0xbc8eeedc	-0.017447881
3	0xbea8a448	-0.32937837
4	0xbe94cda8	-0.29063153
5	0x3c88f6b8	0.016719207
6	0xbe2f3018	-0.1710819
7	0xbec3de22	-0.3825541
8	0x3e0360c1	0.12829877
9	0xbbc1e877	-0.0059176045
10	0x3e27b73e	0.16378495
11	0xbc3431ef	-0.010998233
12	0xbeb8f2b8	-0.3612268
13	0xbe656a34	-0.22403795
14	0xbec935fc	-0.39299
15	0xbea05c0e	-0.31320232
16	0xbe52c544	-0.20583063
17	0xbe94241d	-0.28933802
18	0xbed0b42b	-0.40762457
19	0x3d7c18bd	0.06154703
20	0x3e835902	0.25653845
21	0x3d169786	0.036765598
22	0xbe6d000e	-0.23144552
23	0x3d134524	0.03595461
24	0xbd55c55a	-0.052190162
25	0x3d9701ba	0.07373376
26	0xbc10eea9	-0.0088459635
27	0xbec6279a	-0.3870209
28	0xbe7f50a8	-0.24933112
29	0xbe6a2768	-0.22866595
30	0xbca0821e	-0.019593295
31	0x3c36e374	0.0111626275
32	0x3e1a8ec8	0.15093529
33	0x3e14b84d	0.1452343
34	0x3ead1c02	0.3381043
35	0x3ed6e742	0.4197331
36	0x3cdb7c10	0.026792556
37	0xbb9cf1e8	-0.0047895797
38	0xbe78457a	-0.24245253
39	0xbe34e261	-0.17664482
40	0xbdbad556	-0.09122722
41	0x3e65b3b0	0.22431827
42	0xbc8fd47e	-0.017557379
43	0x3d43df80	0.047820568
44	0x3dfaa3f9	0.122383066
45	0xbe202b72	-0.15641573
46	0xbe868887	-0.26276037
47	0x3e0e25e8	0.13881648
48	0xbee1b744	-0.44085133
49	0xbe718acb	-0.23588102
50	0xbdf69101	-0.12039376
51	0xbdebe904	-0.115190536
52	0xbdb049e6	-0.08607845
53	0x3d962092	0.07330431
54	0xbd401a1a	-0.046899892
55	0x3ec69348	0.38784242
56	0x3e8c4dbc	0.27403057
57	0x3e6dd2fc	0.23225015
58	0x3f01aef5	0.5065759
59	0x3dfbc614	0.1229364
60	0xbdf6df75	-0.1205434
61	0x3e067fe2	0.13134721
62	0xbf006f3b	-0.50169724
63	0x3e012ed1	0.12615515
64	0x3dcd114b	0.10013064
65	0xbca3fa01	-0.020016672
66	0x3d253f9c	0.040343866
67	0x3e15a2c4	0.14612871
68	0x3cfd8075	0.030945042
69	0xbe9a5ed1	-0.30150464
70	0xbe9cc84e	-0.3062157
71	0x3e0b95a7	0.13631307
72	0x3eef5173	0.46741828
73	0xbe9e4e24	-0.30918992
74	0xbf083bc9	-0.53216225
75	0xbf6e9c70	-0.93207455
76	0xbf95d15a	-1.1704514
77	0xbe53daab	-0.20688884
78	0xbf2df8f1	-0.6795798
79	0xbebbe04a	-0.36694556
80	0xbe052bdf	-0.13005017
81	0xbe71bc50	-0.23606992
82	0x3d0e3f59	0.03472838
83	0x3da06bf9	0.07833094
84	0x3bca9443	0.006182225
85	0x3e33f119	0.1757244
86	0x3acc5b59	0.0015591189
87	0x3dec0131	0.11523665
88	0x3cebb904	0.028774746
89	0xbc86a8af	-0.016437856
90	0xbcddb103	-0.027061945
91	0x3e573f76	0.21020302
92	0xbef10933	-0.4707733
93	0x3ee82a70	0.45344877
94	0xbea1b258	-0.31581378
95	0x3efeae2d	0.4974226
96	0xbeb47c10	-0.35250902
97	0x3e8b202b	0.2717298
98	0x3e8541be	0.2602672
99	0x3e870211	0.26368764
100	0x3d0aadb8	0.033857077
101	0xbe0096d5	-0.12557538
102	0xbda694d4	-0.081338555
103	0xbecd1322	-0.4005366
104	0xbdd95472	-0.1061181
105	0xbe6c743c	-0.23091215
106	0xbbd393dc	-0.006456835
107	0x3ea02b9c	0.3128327
108	0x3eae2737	0.34014294
109	0x3f36b364	0.7136748
110	0xbeb1ce73	-0.3472782
111	0x3e9dcb74	0.30819285
112	0xbe61ebd3	-0.22062616
113	0xbf1ca9ce	-0.611966
114	0x3dba6663	0.0910156
115	0xbe8b9db8	-0.27268767
116	0xbeb9dfe7	-0.36303636
117	0x3ed9ef62	0.42565447
118	0xbfd928c0	-1.6965561
119	0xbf7d4f74	-0.9894936
120	0xbf28e06b	-0.65967435
121	0xbedfd52f	-0.43717334
122	0xbbf7399f	-0.0075447108
123	0xbec0208f	-0.3752484
124	0xbf4e349a	-0.80549014
125	0xba35bdeb	-0.0006932902
126	0xbdea8655	-0.11451403
127	0xbd1ab667	-0.03777161
128	0xbcf4c9b5	-0.029881338
129	0x3db030c5	0.08603052
130	0x3eb09eb5	0.34496084
131	0xbdc48c76	-0.09597103
132	0xbe34897d	-0.17630573
133	0xbe58ab66	-0.21159133
134	0xbea5480f	-0.3228154
135	0xbe7ea641	-0.24868108
136	0x3de3d193	0.111239575
137	0x3ecdee40	0.40220833
138	0x3e813ec2	0.25243193
139	0x3d1a7b8c	0.03771548
140	0xbe3ef919	-0.1864971
141	0x3e4b4de7	0.19853936
142	0xbe370ec0	-0.1787672
143	0xbec7492f	-0.38923022
144	0x3e035a2a	0.12827364
145	0xbf3d5714	-0.73960996
146	0xbf4d803f	-0.80273813
147	0xbea63f9f	-0.32470414
148	0xbf8c45ce	-1.0958803
149	0xbf1e2a10	-0.6178293
150	0xbf1a2aa9	-0.60221344
151	0xbe93d81c	-0.28875816
152	0xbec4517d	-0.3834342
153	0x3d2bb36f	0.041919168
154	0x3dd1947e	0.10233401
155	0xbda297b4	-0.07939091
156	0xbcc68790	-0.024234563
157	0xbecefd7e	-0.40427774
158	0xbe8d83b8	-0.27639556
159	0xbdfe22cb	-0.1240898
160	0xbe66bb4d	-0.22532387
161	0xbdd7afee	-0.10531603
162	0xbe974843	-0.2954732
163	0xbe936f08	-0.28795648
164	0x3c5f68f0	0.013635859
165	0xbeaf582c	-0.34246957
166	0xbf7a78e7	-0.9784073
167	0xbee33f84	-0.44384396
168	0x3e327fd2	0.17431572
169	0xbc1aa2c0	-0.009438217
170	0x3db50423	0.0883868
171	0xbd378ca2	-0.044811852
172	0x3dc2c8e1	0.09510971
173	0x3c820380	0.01587081
174	0x3dcb86d4	0.09937826
175	0x3d9e301b	0.07724019
176	0x3dda33ba	0.10654397
177	0x3e3a92f4	0.1822012
178	0x3eb041b9	0.34425142
179	0x3ee72677	0.45146534
180	0x3dfc30f8	0.123140275
181	0xbe28ef2c	-0.16497487
182	0xbd9e176e	-0.077193126
183	0xbcfb87f9	-0.030704485
184	0x3de536f1	0.1119212
185	0xbed99b1c	-0.42501152
186	0xbde94e69	-0.11391909
187	0xbeabc0fb	-0.3354567
188	0x3e92ad68	0.28647923
189	0xbd9f8057	-0.07788151
190	0xbed0887f	-0.40729138
191	0xbec23356	-0.3792979
192	0xbf204c4b	-0.62616414
193	0xbf70df08	-0.9409032
194	0xbe8b7fd6	-0.2724597
195	0xbf063097	-0.5241789
196	0xbecb95fc	-0.39762866
197	0xbda9e197	-0.08294981
198	0xbd47aa2b	-0.04874627
199	0xbeff36d6	-0.49846524
200	0xbe0d268c	-0.13784236
201	0x3e5c1408	0.21492016
202	0xbead7b13	-0.3388296
203	0x3d880fbe	0.066436276
204	0x3dd28a8e	0.102803335
205	0xbed2fe68	-0.41209722
206	0xbe5b66d2	-0.21425942
207	0xbd287294	-0.041124895
208	0x3d947e89	0.07250697
209	0x3e178c1a	0.14799538
210	0x3d01e259	0.031710003
211	0xbc083d0f	-0.008315339
212	0x3dcc1daa	0.099665955
213	0x3de0716a	0.10959132
214	0xbe188172	-0.1489313
215	0x3b99a726	0.004689115
216	0xbd84e201	-0.06488419
217	0xbf0d4bf8	-0.55194044
218	0x3e8e0901	0.27741244
219	0xbf223c10	-0.633729
220	0xbf97c453	-1.1856788
221	0xbf4ebfda	-0.8076149
222	0xbbac8749	-0.0052651507
223	0xbe7bbac0	-0.24582958
224	0x3e1ae108	0.15124905
225	0x3d3d1fa4	0.046172753
226	0xbd78ad08	-0.06071189
227	0x3de9a576	0.11408512
228	0xbdc01899	-0.09379692
229	0xbd56d031	-0.05244464
230	0x3eb523b8	0.35378814
231	0xbdb59640	-0.088665485
232	0xbe60e5b8	-0.21962631
233	0x3dba40a6	0.09094362
234	0xbf113369	-0.5671907
235	0xbdbfe66b	-0.093701206
236	0xbca7c9ea	-0.020482022
237	0xbd421b3c	-0.047389254
238	0xbee649cc	-0.44978178
239	0x3f10e7dd	0.56603795
240	0x3ed5f3fb	0.41787705
241	0xbe9bde2b	-0.30442938
242	0xbdf68925	-0.12037877
243	0xbdcd12ee	-0.10013376
244	0x3d0136a4	0.03154625
245	0x3eb7f4da	0.35928994
246	0x3e833e4e	0.25633472
247	0xbe0de66e	-0.13857433
248	0xbeb0d6dd	-0.34538928
249	0x3ed1816d	0.40919057
250	0xbe029228	-0.12751067
251	0xbe6476a1	-0.22310878
252	0xbd18fa1b	-0.037347894
253	0x3e5932ff	0.2121086
254	0xbcda8ad0	-0.02667752
255	0x3ef89cb9	0.4855707

encoder.model.2.bias f4 [16]
0	0x3b1d3500	0.002398789
1	0x3e4e3d38	0.2014054
2	0x3e2dd8a0	0.16977167
3	0xbdc8586e	-0.097824916
4	0xbda4ffa4	-0.08056572
5	0x3de8a00c	0.113586515
6	0x3e44dfb0	0.19225955
7	0x3d6d0549	0.05786637
8	0x3c3ef0a9	0.011654058
9	0x3e496402	0.19667056
10	0xbcbaf529	-0.02282198
11	0x3d9e2503	0.07721903
12	0xb56b2932	-8.760427e-07
13	0x3e5171dd	0.20453592
14	0x3e25cf03	0.1619225
15	0xbc7933e7	-0.015210128

encoder.fc.weight f4 [32, 784]
0	0xbe8f7629	-0.28019837
1	0xbe0e44d7	-0.13893448
2	0xbd8e6329	-0.06952507
3	0xbe4f1325	-0.20222147
4	0xbe6b567a	-0.22982207
5	0xbe0e73fb	-0.1391143
6	0xbe03ffef	-0.128906
7	0xbeab378b	-0.33440813
8	0x3ba5acae	0.0050559854
9	0x3d851f26	0.06500082
10	0xbed4603d	-0.41479674
11	0x3e2f6918	0.17129934
12	0x3db1e2f8	0.08685869
13	0xbd659828	-0.05605331
14	0x3e1ecdfe	0.15508267
15	0xbdbf9c49	-0.09355981
16	0xbd980226	-0.07422285
17	0xbf27f787	-0.6561207
18	0xbee30bb9	-0.4434488
19	0xbefe0623	-0.49614057
20	0x3d02ec39	0.03196356
21	0x3eaeb649	0.34123448
22	0x3eeaaaa1	0.45833305
23	0x3e0f74f1	0.14009453
24	0xbe8c4ca6	-0.27402228
25	0xbee43349	-0.44570377
26	0x3d374287	0.04474118
27	0x3ea9578f	0.33074614
28	0x3e8c2c7f	0.27377698
29	0x3e863000	0.26208496
30	0x3e43dbf8	0.1912688
31	0x3e45009c	0.19238514
32	0x3d08123a	0.033220507
33	0x3f198901	0.59974676
34	0x3da06500	0.07831764
35	0xbe760ce2	-0.24028352
36	0x3e1b0c73	0.15141468
37	0x3d8e4a10	0.0694772
38	0x3e00654f	0.12538646
39	0x3e5f2bbd	0.21794029
40	0x3ec52cd1	0.38510755
41	0xbe20423f	-0.15650271
42	0x3cdc5c38	0.026899442
43	0xbafe5b81	-0.0019405932
44	0x3d63a55d	0.055577625
45	0xbca0fd68	-0.019652084
46	0xbd090cd2	-0.033459492
47	0xbe2d89cd	-0.16947098
48	0xbe1cf336	-0.15327153
49	0xbe58d77f	-0.21175955
50	0x3d2bec2a	0.04197327
51	0xbc92ffa2	-0.01794416
52	0x3d7f62bc	0.06235002
53	0x3e82e47f	0.25564954
54	0xbe922ef5	-0.2855145
55	0xbd81829f	-0.06323742
56	0x3d86c89a	0.065812305
57	0x3e444f92	0.19170979
58	0x3e2ce561	0.16884376
59	0x3e4da402	0.20082095
60	0x3d36db2b	0.04464261
61	0x3e2de020	0.16980028
62	0x3e2a52b7	0.16633116
63	0x3f5554a8	0.833323
64	0x3e2d209e	0.16906974
65	0xbcae2120	-0.02125603
66	0x3eab00a7	0.33398935
67	0xbeaec980	-0.34138107
68	0xbdb20811	-0.08692945
69	0x3f0b8365	0.5449737
70	0x3e67b783	0.22628598
71	0xbdd2a993	-0.1028625
72	0xbed4020d	-0.41407815
73	0xbf3f0783	-0.74620837
74	0xbf4094ec	-0.75227237
75	0x3d9f1e0c	0.07769403
76	0xbe016b95	-0.12638696
77	0xbefeb6a9	-0.49748734
78	0xbe2c1d4e	-0.16808054
79	0x3cfe627b	0.031052819
80	0xbe045331	-0.1292236
81	0xbdcb22b7	-0.09918731
82	0x3e5c79c3	0.21530823
83	0xbd7b1d5d	-0.0613073
84	0x3dcdb81e	0.10044883
85	0x3e3ee8cb	0.18643491
86	0x3ec6eab9	0.38850954
87	0x3e8d5d7e	0.2761039
88	0x3e639c0c	0.22227496
89	0x3e4ed0cd	0.20196839
90	0x3dc85629	0.09782059
91	0x3e703fb7	0.23461805
92	0x3dd986bc	0.10621402
93	0xbd7c8d0f	-0.06165796
94	0x3e075e77	0.13219629
95	0x3d5d7dc3	0.054075014
96	0xbe5060ca	-0.20349422
97	0x3d6cb6ef	0.057791647
98	0x3cf9dca9	0.030500727
99	0x3e198e32	0.1499565
100	0xbdbed5ec	-0.09318146
101	0xbc851698	-0.016246125
102	0x3e4a0857	0.19729744
103	0xbf202731	-0.625598
104	0x3eb30806	0.3496706
105	0x3dd96e3a	0.10616727
106	0x3d192cfe	0.037396424
107	0xbea6a1a2	-0.3254519
108	0x3d0829a6	0.033242844
109	0x3db216d2	0.08695759
110	0xbca235a2	-0.019800965
111	0xbc091eca	-0.008369157
112	0x3dcf545e	0.10123514
113	0xbd83ea10	-0.06441128
114	0xbdb96d19	-0.09054012
115	0xbead3570	-0.33829832
116	0xbe2db969	-0.1696526
117	0xbe94e5fb	-0.2908171
118	0x3c646fdd	0.013942686
119	0x3cd1ca84	0.025609262
120	0xbdafb15d	-0.08578751
121	0xbe86d228	-0.26332211
122	0xbe7dac98	-0.2477287
123	0xbe80a0d1	-0.25122693
124	0x3de99dc1	0.11407042
125	0x3ed3d2f1	0.41371873
126	0x3eb4f21f	0.35340974
127	0x3dd3ecec	0.10347924
128	0x3d213293	0.039354872
129	0x3e4522e7	0.19251595
130	0xbde3898e	-0.11110221
131	0x3d1e4a24	0.038644925
132	0x3ead1065	0.3380157
133	0xbea52fac	-0.32262933
134	0xbdc81d14	-0.09771171
135	0x3d00c24c	0.031435296
136	0x3b471404	0.003037692
137	0x3e91a501	0.284462
138	0xbddf11cd	-0.10892067
139	0xbd5d12a3	-0.05397285
140	0xbe1a22aa	-0.15052286
141	0x3ed7ceae	0.42149872
142	0x3e128bc7	0.14311133
143	0x3e8cba41	0.2748585
144	0x3eb6c81a	0.3569954
145	0xbd92842e	-0.071541175
146	0xbed605b2	-0.4180122
147	0xbeb4ef91	-0.35339025
148	0xbd294a03	-0.04133035
149	0x3e5e9b43	0.21738915
150	0xbe3ca469	-0.18422092
151	0x3e853140	0.26014137
152	0x3ccc3677	0.024928315
153	0xbcc5be2c	-0.024138533
154	0xbf146862	-0.57971776
155	0xbdd2327b	-0.10263535
156	0xbe6e8dd6	-0.23296294
157	0xbe058d93	-0.13042288
158	0x3e34f338	0.17670906
159	0xbe1d94da	-0.15388814
160	0x3ecba04a	0.39770728
161	0x3ee884d8	0.45413852
162	0x3d858daa	0.06521161
163	0xbed38a28	-0.41316342
164	0xbe1f9c1c	-0.15586895
165	0x3dc202f6	0.09473221
166	0x3f01c825	0.5069602
167	0x3ee15145	0.44007316
168	0x3f1d152f	0.6136045
169	0xbd86c7a7	-0.065810494
170	0xbe6e0e1f	-0.23247574
171	0xbf0033e2	-0.50079167
172	0xbe5ff845	-0.21872051
173	0xbd812fcf	-0.06307947
174	0x3d09b643	0.033621084
175	0x3f635646	0.8880352
176	0x3c909fc7	0.017654313
177	0x3eb6fb3b	0.3573855
178	0xbe971b0e	-0.2951283
179	0x3ea80660	0.32817364
180	0x3ec2968d	0.38005486
181	0x3d8c0724	0.068372995
182	0x3e937482	0.28799826
183	0x3eb4afc2	0.35290343
184	0x3d1f57c0	0.038902044
185	0x3d9e9a36	0.07744257
186	0x3e7febe5	0.2499233
187	0x3d9a97ec	0.07548508
188	0x3e4e6fc2	0.2015982
189	0xbe9e3f9a	-0.309079
190	0xbe95d564	-0.29264367
191	0xbddb6576	-0.107127115
192	0xbe09144b	-0.13386647
193	0x3cb29b84	0.021802671
194	0xbd1d0506	-0.03833487
195	0x3d945e4c	0.07244548
196	0xbe6dd440	-0.23225498
197	0xbcabab39	-0.020955669
198	0x3d23f716	0.04003056
199	0x3e07726e	0.13227245
200	0x3ed9a462	0.42508227
201	0x3ea52782	0.32256705
202	0x3e680a91	0.22660281
203	0x3e43bfb3	0.19116096
204	0x3db291f7	0.08719247
205	0xbe1d9120	-0.15387392
206	0x3e1f4a5d	0.15555711
207	0x3e899f6a	0.26879436
208	0xbd21c672	-0.039495893
209	0x3e2a197a	0.16611281
210	0x3e17eaa8	0.14835608
211	0xbda16883	-0.07881262
212	0xbe5ad766	-0.2137123
213	0x3ea87f53	0.3290964
214	0x3e58b50c	0.21162814
215	0x3cd13296	0.025536817
216	0x3d31f10f	0.043442782
217	0x3e1f61e8	0.15564692
218	0xbe11de39	-0.14244927
219	0xbf1b9e79	-0.60788685
220	0xbec2a3f0	-0.380157
221	0x3dca3e30	0.098751426
222	0x3ba2ac05	0.004964354
223	0x3e8538d5	0.26019922
224	0xbda14af7	-0.078756265
225	0xbc1d245b	-0.009591187
226	0xbe8ac149	-0.2710059
227	0xbf23fad5	-0.64054614
228	0xbebbb322	-0.36660105
229	0xbd814f40	-0.06313944
230	0xbe89c397	-0.26907036
231	0x3e9572bd	0.291891
232	0x3f0c2032	0.54736626
233	0x3e577d55	0.21043904
234	0xbb659f57	-0.00350376
235	0x3ef82206	0.48463458
236	0xbe9537e5	-0.29144207
237	0xbd658b89	-0.056041274
238	0xbe2bacb9	-0.16765107
239	0x3e4f7455	0.20259221
240	0x3e9e3014	0.30896056
241	0x3e839b73	0.25704536
242	0x3efa6bee	0.4891047
243	0x3e07ee01	0.13274385
244	0x3e29e791	0.16592242
245	0x3cc4fb6a	0.024045665
246	0xbe04807c	-0.12939638
247	0x3ec5031a	0.3847893
248	0xbd2a1a7c	-0.041529164
249	0x3e8f6167	0.28004
250	0x3f05c086	0.5224689
251	0x3c92c097	0.0179141
252	0x3dc58276	0.09644024
253	0x3e272207	0.16321574
254	0x3e640a96	0.22269663
255	0x3da0871a	0.078382686

encoder.fc.bias f4 [32]
0	0x3c9b8ecd	0.018988991
1	0xbd9c574e	-0.076338395
2	0x3cf94693	0.03042916
3	0x3d118c95	0.03553446
4	0x3d970999	0.073748775
5	0xbce0fd7b	-0.027464619
6	0xbd075580	-0.033040524
7	0xbd8d2260	-0.06891322
8	0xbd51dd36	-0.051236354
9	0x3d44a16f	0.048005518
10	0xbd564455	-0.05231126
11	0xbc80cb11	-0.01572183
12	0xbdef38c8	-0.11680752
13	0xbe6def48	-0.2323581
14	0x3db3d8d9	0.08781595
15	0x3d700ebc	0.0586078
16	0x3df1e84a	0.11811884
17	0x3c8be8db	0.017078808
18	0x3daa69a0	0.083209276
19	0x3ba0a59f	0.004902556
20	0xbd743328	-0.0596191
21	0xbd62c32e	-0.05536192
22	0x3d9921a5	0.0747712
23	0x3cc58e74	0.024115779
24	0xbd6a9bc8	-0.05727747
25	0xbcf5284a	-0.029926438
26	0x3dbdfb32	0.09276427
27	0xbdc183d2	-0.09448971
28	0x3e4304b8	0.19044769
29	0xb9788f80	-0.00023704581
30	0x3cd0a882	0.025470976
31	0x3c57433d	0.013138589

decoders.0.model.0.weight f4 [16, 8, 3, 3]
0	0xbe7d6db4	-0.2474888
1	0x3e46f613	0.19429807
2	0xbe20616e	-0.15662166
3	0x3ea7df70	0.32787657
4	0x3e03284e	0.12808344
5	0x3c37c008	0.011215217
6	0x3e7feaf6	0.24991974
7	0x3df07340	0.11740732
8	0x3e5eedd4	0.21770412
9	0x3ed8fb9b	0.4237946
10	0x3e945800	0.2897339
11	0xbeb19086	-0.34680575
12	0x3ee9125d	0.45521823
13	0x3f08fc29	0.53509766
14	0x3c1c5f8c	0.0095442645
15	0xbe82c88b	-0.25543627
16	0xbe5bd9a6	-0.21469745
17	0xbec6a342	-0.3879643
18	0xbd430c1b	-0.047618967
19	0x3e361631	0.17781903
20	0xbd2f8d07	-0.042859104
21	0x3de9a7c8	0.11408955
22	0x3e58dcdf	0.21178006
23	0xbe7259e5	-0.23667105
24	0x3dd1cada	0.10243769
25	0x3f078177	0.5293192
26	0xbe1d700d	-0.15374775
27	0x3db42525	0.08796147
28	0xbe5aed9e	-0.21379706
29	0x3da18ac1	0.07887793
30	0xbc403570	-0.0117314905
31	0xbea19a8e	-0.31563228
32	0xbe74e5ac	-0.23915738
33	0x3e69e050	0.22839475
34	0xbdb2c086	-0.08728127
35	0x3d45eeef	0.048323568
36	0x3ec8612f	0.39136645
37	0xbdd71c5a	-0.105034545
38	0xbe1fac88	-0.15593159
39	0x3d09d605	0.03365137
40	0x3de3d7f8	0.11125177
41	0xbd46480a	-0.048408546
42	0xbd4d7e84	-0.050169483
43	0x3c6d8bd7	0.014498672
44	0xbddefe7e	-0.10888384
45	0xbe62ddbf	-0.22154902
46	0x3d946716	0.072462246
47	0xbebd7256	-0.37001294
48	0x3e29edd9	0.16594638
49	0x3f07728b	0.52909154
50	0xbe665907	-0.22494899
51	0x3e59826e	0.21241161
52	0xbe2b6360	-0.16737127
53	0xbe2b92e1	-0.16755249
54	0xbe0bce0f	-0.13652824
55	0x3d5de102	0.054169662
56	0x3e2af206	0.16693887
57	0x3e3c35b1	0.18379857
58	0x3e745651	0.23861052
59	0xbe315760	-0.17318487
60	0x3eded3cf	0.43520972
61	0x3db1e3a9	0.08686001
62	0xbe1ef8f2	-0.15524653
63	0xbd24dbd5	-0.04024871
64	0xbe633632	-0.22188643
65	0x3dfa98d8	0.12236184
66	0x3e99ae1b	0.30015644
67	0xbe5a232e	-0.21302482
68	0xbf09e0a8	-0.53858423
69	0x3f40b04c	0.7526901
70	0x3ed18211	0.40919545
71	0xbe014f04	-0.12627798
72	0xbb40a798	-0.0029396769
73	0xbe3433cd	-0.17597885
74	0x3e307e1a	0.17235604
75	0xbe0a5e4e	-0.13512537
76	0xbf10c595	-0.56551486
77	0x3e1bc08a	0.15210167
78	0xbdb0a0ac	-0.08624396
79	0xbcacbba5	-0.02108557
80	0x3dbae913	0.09126487
81	0xbd280fbb	-0.041030627
82	0x3e999bd8	0.30001712
83	0xbd864980	-0.06556988
84	0x3d39cd4e	0.04536181
85	0x3f1cb2ed	0.6121052
86	0x3e9152bc	0.28383434
87	0xbe64b7f1	-0.22335793
88	0x3dc44345	0.09583143
89	0xbecf2759	-0.40459707
90	0xbd9e5475	-0.07730953
91	0xbee900a8	-0.45508313
92	0x3b035ef9	0.0020045622
93	0x3d5c96c9	0.053854737
94	0x3e142997	0.1446899
95	0xbd5db7b5	-0.054130275
96	0xbf13cdd6	-0.57735956
97	0xbe10ec33	-0.14152603
98	0xbe7b378d	-0.2453291
99	0xbe23277b	-0.1593303
100	0x3e1b4bfa	0.15165702
101	0x3e1e3f29	0.15453781
102	0xbd9c7de2	-0.07641198
103	0xbe466262	-0.19373468
104	0xbebf71c7	-0.37391493
105	0x3e500412	0.20314053
106	0x3e547c5d	0.20750566
107	0xbcf55d3e	-0.029951688
108	0x3e03cd27	0.12871228
109	0x3e58fa9e	0.21189353
110	0xbdac3f38	-0.084104955
111	0xbe36b508	-0.17842495
112	0xbde915bd	-0.113810994
113	0x3eb82fbe	0.35973924
114	0x3c02742b	0.007962267
115	0x3e4f92a7	0.20270787
116	0x3e031fdf	0.12805127
117	0x3d3dfeca	0.046385564
118	0xbe2e94f0	-0.17049003
119	0xbd7f7503	-0.06236745
120	0x3c7735b6	0.015088489
121	0x3cfb772f	0.03069648
122	0xbdf53d61	-0.11974598
123	0xbe80a730	-0.25127554
124	0xbd8dd4c3	-0.06925347
125	0x3db346bb	0.08753725
126	0x3d2fa8e3	0.042885672
127	0xbe7f7cee	-0.2495
128	0xbe691aa3	-0.22764067
129	0x3e4919bd	0.19638725
130	0xbee2fa95	-0.44331804
131	0xbedcbc20	-0.43112278
132	0x3d0143fa	0.031558968
133	0xbdce6346	-0.10077529
134	0xbed5ca42	-0.41755873
135	0xbf2122be	-0.6294364
136	0xbd2e5022	-0.04255689
137	0x3e655e29	0.223992
138	0xbe13e3eb	-0.14442413
139	0xbece8a3f	-0.40339848
140	0xbf4010d6	-0.7502569
141	0xbe662a98	-0.22477186
142	0xbf83a041	-1.0283281
143	0xbe2abb67	-0.16673051
144	0xbe6048a9	-0.21902718
145	0xbe29355a	-0.16524258
146	0xbe542a73	-0.20719318
147	0xbeaa1762	-0.33220965
148	0xbf6ba6b6	-0.92051256
149	0xbf3a01dd	-0.72659093
150	0xbc584e4d	-0.013202262
151	0x3d347125	0.044053216
152	0x3e232d9b	0.15935366
153	0xbd6e6748	-0.058203965
154	0xbd2aa235	-0.0416586
155	0x3e3fafd0	0.18719411
156	0xbc3a97a7	-0.011388696
157	0x3e10b899	0.14132918
158	0x3ed5835f	0.4170179
159	0x3eb86643	0.3601552
160	0x3e21eb1a	0.1581234
161	0x3d303fdd	0.043029655
162	0x3ce72498	0.028215691
163	0x3de16723	0.11006
164	0xbf0cef5c	-0.55052733
165	0xbe55cdf7	-0.2087935
166	0xbe1eba10	-0.15500665
167	0xbe2c604a	-0.16833606
168	0x3bbc078d	0.005738205
169	0x3e8faddb	0.2806233
170	0xbeadee66	-0.33970946
171	0xbd75d853	-0.060020756
172	0xbd415f8f	-0.047210272
173	0x3cef6996	0.029225152
174	0xbe8cab92	-0.27474648
175	0x3e8f875f	0.28032967
176	0x3f148a23	0.5802328
177	0x3dd72d76	0.10506718
178	0xbdb6a86f	-0.08918845
179	0xbd324a74	-0.043528035
180	0xbe1a658f	-0.15077804
181	0xbc361bd3	-0.011115032
182	0xbe44e50e	-0.19228002
183	0x3e4760c6	0.1947051
184	0x3ec5347e	0.3851661
185	0xbc7a72fa	-0.015286202
186	0x3e399e04	0.18126684
187	0x3a06006b	0.00051117566
188	0xbe0f728c	-0.1400854
189	0xbe39a116	-0.18127856
190	0xbd71365f	-0.058889743
191	0xbdb7ca43	-0.08974125
192	0xbcd4c1fa	-0.025971401
193	0xbe11d764	-0.14242321
194	0xbecb9256	-0.39760083
195	0x3d01b8aa	0.03167025
196	0xbf0e83e2	-0.5566999
197	0xbeec7b88	-0.46187997
198	0xbe1af7da	-0.1513361
199	0xbd5e281f	-0.05423748
200	0xbe9cc39e	-0.30617994
201	0xbe93147a	-0.2872656
202	0xbf03f5f7	-0.5154719
203	0xbd9a80bd	-0.07544086
204	0xbda4574a	-0.080244616
205	0xbdaf37b3	-0.08555546
206	0x3d935103	0.07193186
207	0xbdf602b0	-0.12012231
208	0xbd60341b	-0.05473719
209	0x3e0c7fb2	0.13720587
210	0xbe010014	-0.12597686
211	0xbef075ee	-0.46964973
212	0x3e262c45	0.16227825
213	0x3d07537b	0.033038598
214	0x3a35d563	0.0006936399
215	0xbe72c293	-0.23707037
216	0x3df10d72	0.117701426
217	0x3ec1ec5b	0.37875637
218	0xbeaf8a60	-0.3428526
219	0x3e0d6083	0.13806348
220	0x3ccfa79a	0.025348473
221	0xbe6a91ad	-0.22907133
222	0xbdd4d03b	-0.10391279
223	0xbdd181d0	-0.10229838
224	0x3dbd6a97	0.09248846
225	0xbe3f19e3	-0.18662219
226	0x3e03cbc7	0.12870704
227	0x3e94d721	0.2907038
228	0x3ea1c972	0.31599003
229	0x3ebf92b3	0.3741661
230	0x3ee5677d	0.44805518
231	0xbe2b962e	-0.16756508
232	0x3dc79959	0.097460456
233	0x3e6a20ea	0.22864118
234	0x3e4ee0ac	0.20202893
235	0xbe90cb1c	-0.2827996
236	0x3deea975	0.11653415
237	0xbd9152cb	-0.0709587
238	0x3e986a37	0.29768535
239	0x3c846755	0.016162554
240	0xbe027a88	-0.12742054
241	0xbe4b3017	-0.19842564
242	0xbcc060f7	-0.023483736
243	0xbdc41eaa	-0.09576161
244	0xbd5befcb	-0.05369548
245	0x3d21b13c	0.039475664
246	0x3e83583d	0.25653258
247	0x3dc72aee	0.09724985
248	0x3d9e53db	0.07730838
249	0xbd8ce2c9	-0.06879193
250	0x3d0af276	0.033922635
251	0x3df89e1d	0.12139533
252	0xbefd45d9	-0.49467352
253	0xbe262322	-0.1622434
254	0xbe5661e8	-0.20935786
255	0x3d09ad4e	0.03361254

decoders.0.model.0.bias f4 [8]
0	0xbe6f808f	-0.23388885
1	0x3e7d13f7	0.24714647
2	0xbedd378c	-0.4320644
3	0xbeddcc8e	-0.43320125
4	0xbe8718ff	-0.26386258
5	0xbf03b8d2	-0.5145389
6	0xbe63455a	-0.22194424
7	0x3cc776e9	0.024348693

decoders.0.model.2.weight f4 [8, 1, 3, 3]
0	0x3e1ebb58	0.15501153
1	0xbdbf5fea	-0.09344466
2	0xbe0ecbaa	-0.13944879
3	0xbe110ab5	-0.1416424
4	0xbf250f03	-0.6447603
5	0xbee4e64b	-0.4470695
6	0xbe09b47b	-0.13447754
7	0xbf1fecab	-0.624705
8	0xbf24e99d	-0.64418966
9	0xbd493fa7	-0.04913297
10	0xbe5434a7	-0.2072321
11	0xbe13c2d3	-0.14429788
12	0xbe3a8183	-0.18213467
13	0xbee416be	-0.445486
14	0xbe6543ca	-0.2238914
15	0xbd8f334e	-0.069922075
16	0xbea295ba	-0.31754857
17	0xbe7f32d3	-0.24921732
18	0x3e8a0fb3	0.26965103
19	0x3ec8eed4	0.3924471
20	0x3e8d7ea7	0.2763569
21	0x3ea9c614	0.33158934
22	0x3ec7a04a	0.38989478
23	0x3ebe4083	0.37158594
24	0x3e28179d	0.16415258
25	0x3ea7cf62	0.32775408
26	0x3e54f77f	0.20797537
27	0x3e10eb1f	0.14152192
28	0x3ec9672d	0.3933653
29	0x3e3d5853	0.18490724
30	0x3ddead68	0.10872918
31	0xbe19e209	-0.15027632
32	0xbeb0a487	-0.34500524
33	0x3e54a28a	0.20765129
34	0x3e3ca444	0.18422037
35	0xbc077edb	-0.008269991
36	0xbe0740d3	-0.13208322
37	0xbea8d2d7	-0.32973358
38	0xbe94531a	-0.2896965
39	0xbeadd657	-0.3395259
40	0xbf053942	-0.52040493
41	0xbec9a5d9	-0.39384344
42	0xbe1aa3c1	-0.1510153
43	0xbeb02f81	-0.34411243
44	0xbec696f0	-0.3878703
45	0x3eb11701	0.34587863
46	0x3efc4c42	0.4927693
47	0x3ed1d10e	0.4097981
48	0x3f183d8f	0.5946893
49	0x3f18e560	0.59725
50	0x3eebb821	0.46038917
51	0x3ea7c720	0.32769108
52	0x3e695247	0.22785293
53	0x3ea2b86e	0.31781334
54	0xbe16135b	-0.14655821
55	0xbe83df87	-0.25756475
56	0xbe05e642	-0.13076118
57	0xbe73818d	-0.23779888
58	0xbebd7020	-0.36999607
59	0xbec9b3f2	-0.393951
60	0xbe02f23f	-0.12787722
61	0xbef1ab6b	-0.47201094
62	0xbebfc9f2	-0.3745876
63	0xbdb073ea	-0.08615859
64	0xbe95b2c5	-0.29237953
65	0xbe92832a	-0.28615695
66	0xbed3e7e2	-0.4138785
67	0xbf3bc437	-0.73346275
68	0xbf0ac3cc	-0.5420501
69	0xbd8f08ac	-0.06984076
70	0xbea5cbad	-0.32381955
71	0xbea0744d	-0.3133873

decoders.0.fc.weight f4 [784, 32]
0	0x3c4fd0a4	0.012684021
1	0x3d1fddb4	0.039029792
2	0xbd0d560d	-0.034505893
3	0xbc982bea	-0.018575627
4	0xbeb3c1d4	-0.35108817
5	0x3d764374	0.060122922
6	0x3e2b9c5b	0.16758864
7	0x3e2ae8d4	0.1669038
8	0xbd71c9c8	-0.059030324
9	0xbc7f96b7	-0.015599898
10	0xbe1b4ce5	-0.15166052
11	0xbea78ac5	-0.3272306
12	0xbdcabd61	-0.098994024
13	0x3e86f4e0	0.263587
14	0xbed9ee66	-0.42564696
15	0xbe94f2fb	-0.2909163
16	0x3d0b9b1e	0.03408348
17	0xbcd8577d	-0.026408905
18	0x3eb64af2	0.35604054
19	0xbaba2b7c	-0.0014203633
20	0x3e08ad67	0.13347398
21	0x3f04d351	0.51884943
22	0xbe458da0	-0.19292307
23	0xbe09afc5	-0.13445957
24	0x3e64efd4	0.22357112
25	0x3ea6ca76	0.3257634
26	0xbdfd676a	-0.1237324
27	0x3e810564	0.25199425
28	0xbec0b159	-0.37635306
29	0xbd3a01dd	-0.045411933
30	0xbee2d969	-0.44306496
31	0x3e69118b	0.22760598
32	0xbdc1321c	-0.09433386
33	0xbde4ba75	-0.11168376
34	0x3e25f81b	0.16207926
35	0x3e370c95	0.17875893
36	0xbc7c14a6	-0.015385782
37	0xbe544907	-0.20730983
38	0x3ed4803f	0.41504094
39	0xbde4dc39	-0.11174817
40	0xbe1ac2fc	-0.15113443
41	0x3d93e958	0.07222241
42	0x3ec04716	0.37554234
43	0xbed776b1	-0.42082742
44	0x3e33c6d6	0.17556319
45	0xbd5625ab	-0.052282017
46	0x3e7be1da	0.24597874
47	0x3d6ca624	0.05777563
48	0xbe2d768a	-0.1693975
49	0x3e473853	0.1945508
50	0xbda7f79f	-0.08201527
51	0xbe7f9239	-0.24958123
52	0xbd8daaf6	-0.06917374
53	0xbe830a80	-0.25593948
54	0xbe6d7b94	-0.23191673
55	0x3dadd307	0.08487516
56	0xbe8ba044	-0.2727071
57	0xbd8b4277	-0.067997865
58	0x3e6a4c84	0.22880751
59	0x3ef3fc18	0.4765327
60	0x3e6a742b	0.22895877
61	0x3e21723b	0.15766232
62	0x3f0df933	0.5545837
63	0xbe4ae0d8	-0.19812334
64	0xbe09acd7	-0.1344484
65	0x3e43d7f1	0.19125344
66	0xbe0b0c9f	-0.13579033
67	0xbd27c3b6	-0.04095813
68	0x3d1b8dcb	0.03797702
69	0xbdf9c687	-0.12196069
70	0x3e0234a9	0.12715401
71	0xbda7b55b	-0.08188888
72	0xbe280ca1	-0.16411068
73	0x3d82679b	0.063674174
74	0xbe0015ed	-0.12508364
75	0xbe841a95	-0.2580153
76	0xbe3ae59f	-0.18251656
77	0x3ea8e22b	0.32985052
78	0xbd45adbe	-0.048261397
79	0xbe63d6a4	-0.22249848
80	0x3cafc1eb	0.021454772
81	0x3e329486	0.1743947
82	0x3d0b035a	0.033938743
83	0xbe518b28	-0.2046324
84	0x3ddd8863	0.10817029
85	0x3e36989a	0.1783165
86	0xbcfc06f9	-0.030765044
87	0x3d7d8887	0.06189778
88	0x3df8dea9	0.12151844
89	0x3e92ffee	0.28710884
90	0xbd3f58f5	-0.046715695
91	0xbd6cbc7a	-0.057796933
92	0xbe7086ea	-0.23488966
93	0xbe7baa77	-0.24576746
94	0xbee0f98f	-0.43940398
95	0xbdc0b68b	-0.09409817
96	0xbecab1d5	-0.395888
97	0x3e339814	0.17538482
98	0x3e3b7f77	0.18310343
99	0xbd58396b	-0.052789133
100	0x3d6b20e4	0.057404414
101	0xbd233e9d	-0.039854635
102	0xbdcfe69f	-0.10151409
103	0x3ec895e8	0.3917687
104	0xbe12e48e	-0.14344999
105	0xbe0bf475	-0.13667472
106	0x3e7a7b45	0.24461086
107	0xbd80ee63	-0.06295469
108	0xbc9a8727	-0.018863274
109	0xbe7bc85c	-0.2458815
110	0xbc5a46e8	-0.013322569
111	0x3cae109e	0.021248158
112	0x3b2b6e99	0.002615845
113	0x3e054c55	0.130174
114	0x3e78d72d	0.24300833
115	0x3e033bfd	0.12815852
116	0xbe828147	-0.25489256
117	0x3de3f351	0.11130393
118	0xbe708c39	-0.2349099
119	0x3e502954	0.20328265
120	0xbddd1f34	-0.10796967
121	0xbdf6e777	-0.12055867
122	0xbcaee0be	-0.0213474
123	0x3e61b0e1	0.2204013
124	0xbca91de0	-0.020644128
125	0x3e815919	0.2526329
126	0xbeaa9889	-0.333195
127	0xbe011fc4	-0.12609774
128	0x3e066d6f	0.13127683
129	0xbe3cbfe8	-0.18432581
130	0x3e6435a6	0.2228609
131	0xbe909d8b	-0.28245196
132	0xbe09e328	-0.1346556
133	0xbd82c0e7	-0.063844495
134	0x3e6ade13	0.22936277
135	0xbd352eb6	-0.044234
136	0x3e0e94c0	0.13923931
137	0x3d2f55d6	0.04280647
138	0x3d32a8c7	0.04361799
139	0x3dd0b7bf	0.10191297
140	0xbdc2c831	-0.0951084
141	0xbe420a6c	-0.18949288
142	0x3e37d87c	0.17953676
143	0x3e2898dd	0.16464563
144	0x3d863ad1	0.06554187
145	0x3d16e2f5	0.036837537
146	0x3e6d81be	0.23194024
147	0xbe58015b	-0.21094267
148	0x3dc1b66d	0.09458623
149	0x3dee0060	0.11621165
150	0x3f4ccae8	0.7999711
151	0x3d88a8c9	0.06672818
152	0x3ddb8da4	0.10720375
153	0xbd5eb69d	-0.054373372
154	0xbe2fa505	-0.17152794
155	0xbed60510	-0.41800737
156	0xbc90af5d	-0.017661745
157	0xbe6463c9	-0.2230369
158	0xbf0b68bb	-0.5445668
159	0xbe6736b9	-0.22579469
160	0x3e19c1c5	0.15015323
161	0x3cf79eb1	0.030227037
162	0xbe2d1ab7	-0.16904722
163	0x3cb3a293	0.021928107
164	0x3dea0c5b	0.11428138
165	0x3dd252c2	0.10269691
166	0xbdd7527f	-0.10513782
167	0x3e648baa	0.22318903
168	0xbccdaec8	-0.025107756
169	0xbe22b02c	-0.15887517
170	0xbdd1a6fe	-0.10236929
171	0x3e90cdae	0.2828192
172	0x3e377e9c	0.17919391
173	0x3da8d7e1	0.08244301
174	0xbdbf12b7	-0.093297414
175	0xbe1c66af	-0.15273546
176	0x3ea2a4ff	0.31766507
177	0xbe7a0cc2	-0.24418929
178	0xbe0324c1	-0.12806989
179	0xbda2e84d	-0.07954464
180	0x3d9bba97	0.076039486
181	0x3e8c91f5	0.27455106
182	0x3eae21b2	0.34010082
183	0xbe7da0ba	-0.24768344
184	0xbd3d9037	-0.046280112
185	0xbde3ba65	-0.11119536
186	0x3e63e43d	0.22255035
187	0xbd171163	-0.036881816
188	0x3e7d9ac0	0.24766064
189	0xbdd15ca9	-0.10222752
190	0x3e5d31a3	0.21600966
191	0xbcdbba5a	-0.026822258
192	0xbe0da16f	-0.13831113
193	0xbda261e4	-0.079288274
194	0x3d7bd530	0.06148261
195	0xbd72870e	-0.05921083
196	0xbe3e75cc	-0.18599623
197	0x3e50821c	0.20362133
198	0xbeb9cb8c	-0.36288106
199	0x3de358bd	0.1110091
200	0xbd513153	-0.05107243
201	0x3e4ea0d9	0.20178546
202	0xbda74fa1	-0.08169485
203	0x3e7a0d15	0.24419053
204	0xbd8bdf44	-0.06829694
205	0xbe967b78	-0.29391074
206	0xbe3c0b5e	-0.18363711
207	0x3d303d21	0.043027047
208	0x3e254e9f	0.16143273
209	0x3d180d9e	0.03712236
210	0xbc441ba7	-0.011969483
211	0x3dbc4612	0.09193052
212	0xbe2fa16d	-0.17151423
213	0x3e37c20d	0.17945118
214	0x3e88f444	0.2674886
215	0xbe9b7d29	-0.30368927
216	0xbdc64a56	-0.09682147
217	0xbd53c649	-0.05170277
218	0x3d93aa78	0.07210249
219	0xba61659e	-0.0008598211
220	0x3e03e573	0.12880497
221	0x3db81964	0.08989218
222	0x3e50e545	0.2039996
223	0xbe58bd41	-0.21165945
224	0xbeb3f074	-0.3514439
225	0x3e724dc7	0.23662482
226	0xbc4de14e	-0.012565924
227	0x3df7a1d3	0.120914124
228	0xbe124023	-0.14282279
229	0x3d0c7ca9	0.034298573
230	0x3de7ee92	0.113248006
231	0x3e2003f1	0.15626504
232	0xbe8f8333	-0.28029785
233	0xbe6d6c76	-0.23185906
234	0xbcda0cd1	-0.02661744
235	0xbe64d3b6	-0.22346386
236	0x3e415a6f	0.18882154
237	0x3daf585d	0.08561776
238	0x3d25ded7	0.04049572
239	0xbe826ea1	-0.25475028
240	0xbe3f6f1b	-0.18694727
241	0x3cbb281f	0.02284628
242	0x3e3fe589	0.18739904
243	0x3dd01fef	0.10162341
244	0xbeba33a7	-0.36367533
245	0xbe2bf9a3	-0.16794448
246	0xbf07c93a	-0.5304142
247	0x3dc1c919	0.094621845
248	0x3e32e153	0.17468767
249	0xbc18e62b	-0.00933222
250	0x3efdc182	0.49561697
251	0x3e4d9700	0.20077133
252	0x3db75b37	0.08952945
253	0x3e6a0d7b	0.22856705
254	0x3e8da90a	0.2766803
255	0x3c9aeb3d	0.018910998

decoders.0.fc.bias f4 [784]
0	0x3d7fc0ad	0.06243961
1	0xbe0178fd	-0.1264381
2	0xbbc6a7b3	-0.006062472
3	0xbdcde6ea	-0.10053809
4	0xbc8021f1	-0.015641185
5	0xbca50533	-0.02014408
6	0xbdcb2085	-0.09918312
7	0xbe528b14	-0.20560867
8	0xbd8628b8	-0.06550735
9	0x3c52fcbe	0.012877641
10	0x3e58e3de	0.21180674
11	0x3e734497	0.23756634
12	0xbd597a9b	-0.05309544
13	0x3ea3f570	0.3202319
14	0xbdd82b9d	-0.105551936
15	0xbe2386ca	-0.15969387
16	0x3e2493d9	0.16072024
17	0xbd077bdc	-0.033077106
18	0xbeb5e1ed	-0.3552393
19	0xbdb4bfbb	-0.08825632
20	0x3e8eea9e	0.27913374
21	0x3db85a59	0.090016074
22	0x3e7ba27c	0.24573702
23	0x3d3649b4	0.044503883
24	0xbe9a5341	-0.30141643
25	0xbdcf5d3d	-0.10125206
26	0xbd713458	-0.05888781
27	0x3e6473f0	0.22309852
28	0xbecebba5	-0.40377536
29	0x3e32339c	0.174025
30	0x3ebde548	0.3708899
31	0x3e42da1c	0.19028515
32	0xbee951f5	-0.4557034
33	0x3e9314b0	0.2872672
34	0x3ea1cbc5	0.31600776
35	0x3bbebe35	0.0058210143
36	0x3e889c56	0.26681775
37	0x3e30fef0	0.17284751
38	0x3db058b9	0.086106725
39	0x3de7449d	0.11292384
40	0x3e4bf08f	0.19915985
41	0xbdab4ea4	-0.08364609
42	0xbe68dde9	-0.22740902
43	0x3d163dec	0.036680147
44	0x3ee4d186	0.44691104
45	0xbec338e0	-0.3812933
46	0xbdaf22e8	-0.0855158
47	0x3da17518	0.07883662
48	0xbe00ed3c	-0.12590498
49	0xbe8147d6	-0.2525012
50	0x3e6004ad	0.21876784
51	0xbe2e6dd3	-0.17034082
52	0xbe051012	-0.12994412
53	0x3e1b8bbf	0.15190028
54	0x3e64be26	0.22338161
55	0xbc42732d	-0.01186828
56	0xbe8d9e5a	-0.27659875
57	0xbec31433	-0.38101348
58	0x3e3ef601	0.1864853
59	0x3c026f4b	0.007961105
60	0x3e1228ae	0.1427333
61	0xbdcbbf1c	-0.099485606
62	0x3edd9e33	0.4328476
63	0x3cd3d28c	0.025857233
64	0x3b8d5ea9	0.004314263
65	0x3de294bc	0.11063525
66	0xbd9265db	-0.07148334
67	0x3e9b98e2	0.30390078
68	0x3ceced6e	0.028921809
69	0x3d5abc80	0.053402424
70	0xbe9c2eef	-0.30504557
71	0x3e22f29f	0.15912865
72	0xbc75329f	-0.014965682
73	0xbde6c2dd	-0.11267636
74	0x3d966608	0.0734368
75	0xbe6f20a5	-0.23352297
76	0xbde71f40	-0.11285257
77	0xbdf56db1	-0.119838126
78	0xbd997af2	-0.07494153
79	0xbe22a852	-0.15884522
80	0x3ca8b619	0.020594643
81	0xbe1ea05f	-0.15490864
82	0xbddacd2f	-0.10683667
83	0xbe95e1ef	-0.29273936
84	0x3dcd3f05	0.10021786
85	0xbd584df9	-0.052808736
86	0xbea83b93	-0.32857952
87	0x3d984cd1	0.074365266
88	0x3dd48ae7	0.10378056
89	0xbe69945d	-0.22810502
90	0xbdcee29d	-0.10101817
91	0xbc23dee9	-0.010001876
92	0xbecaaa86	-0.39583224
93	0x3d41b2c2	0.047289617
94	0xbe3e0945	-0.18558224
95	0x3dda78f7	0.106676035
96	0xbea32d67	-0.31870577
97	0x3df35168	0.118807614
98	0x3d8c207e	0.06842135
99	0x3e350847	0.17678939
100	0xbc92fc02	-0.017942432
101	0x3e69ae86	0.22820482
102	0x3e74ee94	0.23919135
103	0x3e8ee5f9	0.2790983
104	0x3e06dc60	0.13170004
105	0xbe10251c	-0.14076656
106	0x3e4486d5	0.1919206
107	0x3de2c527	0.1107276
108	0x3ebbc51b	0.36673817
109	0xbe42c136	-0.19019017
110	0x3e84da37	0.25947735
111	0x3eb6204c	0.35571516
112	0x3e353e8a	0.17699638
113	0x3e267c45	0.16258343
114	0x3e66282f	0.22476266
115	0xbd1bfef5	-0.038084943
116	0x3e0d394a	0.13791385
117	0x3d48ca70	0.049021184
118	0xbc89e93a	-0.016834844
119	0x3ea90eab	0.33019003
120	0x3dfd8b8d	0.12380133
121	0x3ecfc3b3	0.40578994
122	0x3ebf72b7	0.37392208
123	0xbd9dcc54	-0.07704988
124	0x3e82b7ac	0.25530756
125	0x3ec68be2	0.38778597
126	0x3e21b35f	0.15791081
127	0x3ec739d6	0.38911313
128	0x3e4795f4	0.19490796
129	0x3ebd9dca	0.37034446
130	0xbddae11e	-0.10687469
131	0x3e434198	0.19067991
132	0x3dc080be	0.093995556
133	0x3ee46017	0.4460456
134	0x3e950f14	0.29113066
135	0x3ddd1ded	0.107967235
136	0x3dba7a57	0.09105366
137	0x3e46d275	0.1941622
138	0x3ddb92c1	0.107213505
139	0xbd17feee	-0.037108354
140	0x3ebe2f85	0.3714563
141	0x3eba0b81	0.36336902
142	0x3e557300	0.2084465
143	0x3e4da9f3	0.20084362
144	0x3e91516c	0.28382432
145	0x3eaa2fde	0.33239645
146	0x3e2b7378	0.16743267
147	0x3c3f51c7	0.011677212
148	0xbe818825	-0.25299183
149	0xbc9ee492	-0.0193961
150	0x3de63f20	0.11242509
151	0x3d86980d	0.0657197
152	0x3e18db36	0.14927372
153	0x3e0d5bd9	0.13804568
154	0x3e73e998	0.23819578
155	0x3dc97496	0.0983669
156	0x3e34df87	0.17663394
157	0x3e446713	0.19179945
158	0x3e8c5023	0.2740489
159	0xbc359e96	-0.011085173
160	0x3e5b6843	0.21426491
161	0x3de2f792	0.110823765
162	0x3e29fd49	0.16600527
163	0x3d5f840c	0.05456929
164	0xbe20738e	-0.1566908
165	0x3ec7d4cb	0.39029536
166	0x3ebe163b	0.37126336
167	0x3df229a4	0.118243486
168	0x3d7cae4a	0.061689653
169	0xbda20db6	-0.079127714
170	0xbda5a2c3	-0.08087685
171	0xbda36ffe	-0.07980345
172	0x3e2bbf5f	0.16772221
173	0x3d9901af	0.07471024
174	0x3ced933b	0.029000869
175	0x3ea8d372	0.3297382
176	0x3ef13831	0.47113183
177	0x3e4b6706	0.19863519
178	0xbdbba74f	-0.09162771
179	0x3e682d4d	0.22673531
180	0x3e96ee22	0.29478556
181	0xbe25e870	-0.16201949
182	0x3ee43b88	0.4457667
183	0x3eea4d1b	0.45761952
184	0x3eaf9247	0.34291288
185	0xbeaad7d1	-0.3336778
186	0x3dd840ec	0.10559258
187	0x3ee3c899	0.4448898
188	0x3eed614b	0.4636329
189	0x3eca261b	0.39482197
190	0x3e83807a	0.25683957
191	0x3e08429e	0.13306662
192	0xbe2f281c	-0.17105144
193	0x3edb992f	0.42890307
194	0x3f05f0c1	0.52320486
195	0x3e03ad6d	0.12859125
196	0xbcb3890c	-0.021915935
197	0x3ca526e0	0.020160139
198	0x3dc4e488	0.096139014
199	0xbca43fc5	-0.020049939
200	0xbcdac325	-0.02670438
201	0xbd1c3d16	-0.038144194
202	0xbe2c118d	-0.1680357
203	0x3cfe627b	0.031052819
204	0xbe8e1e30	-0.27757406
205	0xbe949916	-0.29023045
206	0xbe914938	-0.28376174
207	0xbea43fb0	-0.3207984
208	0xbe94fe51	-0.29100278
209	0xbe960b51	-0.2930551
210	0xbd9a3860	-0.07530284
211	0xbe8ef065	-0.2791778
212	0xbe19ae53	-0.15007906
213	0xbe44f378	-0.19233501
214	0xbc70c59d	-0.014695552
215	0xbe1f077a	-0.15530196
216	0xbea819f2	-0.32832295
217	0xbe0f03b8	-0.13966262
218	0xbd551fbc	-0.052032217
219	0xbd64f9fd	-0.05590247
220	0x3dda77d7	0.10667389
221	0x3e02269c	0.12710041
222	0x3cee6750	0.029101998
223	0xbe601c62	-0.21885827
224	0xbdb6742d	-0.089088775
225	0xbeabff5e	-0.33593267
226	0xbee6763a	-0.45012075
227	0xbe6efe22	-0.23339131
228	0xbe5ea7bf	-0.21743678
229	0xbea11c0f	-0.3146672
230	0xbe4c9b2b	-0.19981067
231	0xbef14e5e	-0.47130102
232	0xbf0edba6	-0.55803907
233	0xbe89720e	-0.2684483
234	0x3d881a46	0.06645636
235	0xbe9b0d0b	-0.30283388
236	0xbe903c11	-0.28170827
237	0xbe8e11ee	-0.27748054
238	0xbe5fcb9e	-0.21855018
239	0xbeb97750	-0.3622384
240	0xbe2a3f10	-0.16625619
241	0x3e14e854	0.14541751
242	0xbedfa492	-0.43680245
243	0xbec1afb6	-0.3782937
244	0xbeda7ce5	-0.42673412
245	0x3e4709f3	0.19437389
246	0x3e39d4c7	0.18147574
247	0x3d87197d	0.065966584
248	0x3e9733f7	0.29531834
249	0x3ec428ac	0.3831228
250	0x3eb22d23	0.34800062
251	0x3ea5e7d3	0.3240343
252	0xbe2bcae5	-0.16776617
253	0x3ea3f072	0.32019383
254	0x3e86f8f8	0.26361823
255	0x3d6feff5	0.05857845
