models/model_diabetes_3.pth (torch, 10735 bytes, 23 tensors)

weights f4 [2, 8]
0	0x3f6e0f93	0.92992514
1	0x407261e7	3.7872255
2	0x3f5e04fa	0.86726344
3	0x400bffc4	2.1874857
4	0x3e41f048	0.18939316
5	0x411fc87c	9.986446
6	0x4193402d	18.406336
7	0x4156cfe1	13.425752
8	0x4051df40	3.279251
9	0x40e90cc9	7.2828107
10	0x408f566c	4.4792995
11	0x3fdf0291	1.7422658
12	0x401a13c1	2.4074557
13	0x4158a3c6	13.539984
14	0x3d9edeb1	0.07757319
15	0xc0f65d32	-7.6988764

autoencoders.0.encoder.layers.0.weight f4 [4, 8]
0	0x801051dc	-1.498734e-39
1	0x009e52b4	1.4539677e-38
2	0x8031301f	-4.517202e-39
3	0x816cd242	-4.3497207e-38
4	0x81263398	-3.0526401e-38
5	0x805cfcc4	-8.539541e-39
6	0x01b5dc81	6.6805307e-38
7	0x014b3c0a	3.7328287e-38
8	0x0172eeb9	4.4619655e-38
9	0x8022abd0	-3.184042e-39
10	0x01058463	2.4523225e-38
11	0x80120cf2	-1.657683e-39
12	0x0028d324	3.749163e-39
13	0x004fa938	7.315708e-39
14	0x80ce340b	-1.8936782e-38
15	0x012c6196	3.1661425e-38
16	0x00123bf6	1.674549e-39
17	0x00c1ffc0	1.7815997e-38
18	0x80a7a67e	-1.5396254e-38
19	0x014f41b4	3.8067035e-38
20	0x00801216	1.1761432e-38
21	0x00b35dd5	1.6472214e-38
22	0x00dbbc43	2.0179509e-38
23	0x806c6f81	-9.958234e-39
24	0x8083f354	-1.211774e-38
25	0x81b7f105	-6.756943e-38
26	0x0183d26f	4.842376e-38
27	0x01ae8d7c	6.4120525e-38
28	0x80f0651f	-2.2076794e-38
29	0x80371e8b	-5.061909e-39
30	0x812523cb	-3.0331394e-38
31	0x00b97084	1.702993e-38

autoencoders.0.encoder.layers.0.bias f4 [4]
0	0x80c18274	-1.7771049e-38
1	0x80de805b	-2.0433525e-38
2	0x801c5a38	-2.603758e-39
3	0x80ed6dc0	-2.1804383e-38

autoencoders.0.encoder.layers.2.weight f4 [2, 4]
0	0x806b6004	-9.860842e-39
1	0x81b1ff23	-6.5385635e-38
2	0x00e9bcc0	2.1465381e-38
3	0x8129c46c	-3.1181323e-38
4	0x8196597d	-5.5229707e-38
5	0x8106f066	-2.478439e-38
6	0x81205097	-2.944518e-38
7	0x81538b46	-3.8854503e-38

autoencoders.0.encoder.layers.2.bias f4 [2]
0	0x00f3bdf3	2.2384167e-38
1	0x810dfa5e	-2.607724e-38

autoencoders.0.encoder.layers.4.weight f4 [1, 2]
0	0x818a3104	-5.076353e-38
1	0x818b91d6	-5.12698e-38

autoencoders.0.decoder.layers.0.weight f4 [2, 1]
0	0x000a38f3	9.38784e-40
1	0x00c40ce3	1.800438e-38

autoencoders.0.decoder.layers.0.bias f4 [2]
0	0x81b34f19	-6.5867715e-38
1	0x8125770f	-3.0391134e-38

autoencoders.0.decoder.layers.2.weight f4 [4, 2]
0	0x80d2384a	-1.9305647e-38
1	0x00e6f6c4	2.1210687e-38
2	0x80139567	-1.79847e-39
3	0x808ccbf9	-1.2930141e-38
4	0x80988c3d	-1.4009303e-38
5	0x8040887c	-5.926433e-39
6	0x000ac731	9.89811e-40
7	0x018ef0e4	5.2508223e-38

autoencoders.0.decoder.layers.2.bias f4 [4]
0	0x80426c80	-6.100065e-39
1	0xb37a54f6	-5.8284932e-08
2	0xbb7e9898	-0.0038848277
3	0x80cff904	-1.9099278e-38

autoencoders.0.decoder.layers.4.weight f4 [8, 4]
0	0x819801ff	-5.5838846e-38
1	0x01101e92	2.6470556e-38
2	0x38d9cb1e	0.000103852
3	0x0136abd9	3.3551415e-38
4	0x815438de	-3.897905e-38
5	0x802fc4fa	-4.38693e-39
6	0xb9d1bb64	-0.00040003203
7	0x808c0685	-1.2859308e-38
8	0x811650e4	-2.7608685e-38
9	0x8173fd4c	-4.4813783e-38
10	0x394634e0	0.00018902449
11	0x816e6235	-4.3784156e-38
12	0x811ba22a	-2.858535e-38
13	0x006fc139	1.0263055e-38
14	0xbacd436f	-0.0015660356
15	0x810237b8	-2.3917205e-38
16	0x80154340	-1.95267e-39
17	0x00d5b4c8	1.9625813e-38
18	0xb643e7a0	-2.9192088e-06
19	0x0154db42	3.909556e-38
20	0x0156922c	3.9410466e-38
21	0x890f4e3d	-1.7249786e-33
22	0xbb50156f	-0.0031751057
23	0x01360fa6	3.3439348e-38
24	0x807e595c	-1.1603329e-38
25	0x28671175	1.2826861e-14
26	0x3c8e7e48	0.0173942
27	0x0115fa12	2.7546395e-38
28	0x01263620	3.0528218e-38
29	0x81a40561	-6.0251804e-38
30	0x3bb16cff	0.0054146047
31	0x00137b32	1.789069e-39

autoencoders.0.decoder.layers.4.bias f4 [8]
0	0x3e4c0df9	0.19927205
1	0x3eff7c0e	0.49899334
2	0x3d675f51	0.056487385
3	0x3ce7e933	0.02830944
4	0x3edaaa5b	0.42708096
5	0x3e1f0aa5	0.15531404
6	0x3eaff570	0.3436694
7	0x3e8d1963	0.2755843

autoencoders.1.encoder.layers.0.weight f4 [4, 8]
0	0xbdb91f3c	-0.090391606
1	0xbd41073f	-0.04712605
2	0x3fc1892a	1.5119984
3	0x3e89aa94	0.26887953
4	0x3cccd5bd	0.025004262
5	0xbebfe149	-0.37476566
6	0xbf196309	-0.5991674
7	0xbd9f8d8e	-0.07790671
8	0xbdaf133a	-0.08548589
9	0xbe014af8	-0.12626255
10	0x3e7b7ea9	0.24560036
11	0x3dc4d4c0	0.09610891
12	0x3dd27a02	0.102771774
13	0x3e71152e	0.23543236
14	0x3fe50312	1.7891562
15	0xbc62a2be	-0.013832746
16	0x3d1de0d8	0.038544506
17	0x3c80f717	0.015742822
18	0xbc07d001	-0.008289338
19	0xbcfc3599	-0.030787276
20	0xbd0a0d64	-0.033704177
21	0x3d084e6d	0.033277918
22	0xbbf1efe0	-0.0073833317
23	0xc01a387b	-2.4096973
24	0x3da4cf80	0.0804739
25	0x3e8dd7ea	0.27703792
26	0x3ee71e6d	0.451404
27	0x3d1aa9ba	0.03775952
28	0xbdf39b15	-0.11894814
29	0xbd928475	-0.071541704
30	0x3fb94314	1.4473596
31	0xbcb969bf	-0.022633431

autoencoders.1.encoder.layers.0.bias f4 [4]
0	0x3f3bf219	0.73416287
1	0xbeb5bbd6	-0.3549487
2	0x3f0153ca	0.50518477
3	0xbec2ff7c	-0.38085544

autoencoders.1.encoder.layers.2.weight f4 [2, 4]
0	0x3f0e01c1	0.55471426
1	0xbfa5fbda	-1.2967484
2	0x408097fd	4.0185533
3	0xbf9d55d1	-1.2291814
4	0x3f7f14c5	0.99641067
5	0x3dc68a65	0.096943654
6	0x4035dffd	2.8417962
7	0x3e2b943f	0.1675577

autoencoders.1.encoder.layers.2.bias f4 [2]
0	0x3f028274	0.50980306
1	0xbeb926dc	-0.3616246

autoencoders.1.encoder.layers.4.weight f4 [1, 2]
0	0x409b328b	4.84992
1	0x3f86d057	1.053233

autoencoders.1.decoder.layers.0.weight f4 [2, 1]
0	0x3ff6f9a1	1.9294931
1	0x81908dd2	-5.310075e-38

autoencoders.1.decoder.layers.0.bias f4 [2]
0	0x3e46dfa5	0.19421251
1	0x8119d5ae	-2.825497e-38

autoencoders.1.decoder.layers.2.weight f4 [4, 2]
0	0x3f4c41a1	0.7978764
1	0x81a8a8c1	-6.1955603e-38
2	0x804df876	-7.160464e-39
3	0x014e3a42	3.7878022e-38
4	0x3f14790a	0.5799719
5	0x8041ba8a	-6.036225e-39
6	0xa90486c2	-2.942677e-14
7	0x0185fd39	4.921984e-38

autoencoders.1.decoder.layers.2.bias f4 [4]
0	0x3e704bde	0.23466441
1	0x8185f295	-4.920457e-38
2	0xbf113fd0	-0.56737995
3	0x9e7b5178	-1.3304677e-20

autoencoders.1.decoder.layers.4.weight f4 [8, 4]
0	0xbd24f5a4	-0.040273324
1	0x012eb0f4	3.208571e-38
2	0x3d686ff0	0.056747377
3	0x004ffce6	7.345727e-39
4	0x3e5806eb	0.21096389
5	0x809cbe24	-1.4394547e-38
6	0xbeb20288	-0.34767556
7	0xac22faf2	-2.3160887e-12
8	0xbe4ba14b	-0.19885747
9	0x811674b4	-2.763438e-38
10	0x3f691286	0.9104389
11	0x0026be67	3.558052e-39
12	0x3fcf0476	1.6173236
13	0x81be75a4	-6.9963783e-38
14	0xc01f353a	-2.4876237
15	0x00512b07	7.45411e-39
16	0x3e28a9bb	0.16470997
17	0x00ae946c	1.603262e-38
18	0xbe8102fa	-0.25197583
19	0x00eb3902	2.1601792e-38
20	0x3ef6752a	0.48136264
21	0x019067ab	5.3046e-38
22	0xbf4838b9	-0.7821155
23	0x93b09b60	-4.4581858e-27
24	0xbe53b6f6	-0.20675263
25	0x00cd960f	1.8880108e-38
26	0x3ea4388f	0.320744
27	0x802b7b6d	-3.993203e-39
28	0xbe0b7135	-0.13617404
29	0x006ab4f0	9.799471e-39
30	0x3e5de67a	0.21669951
31	0x1073b4db	4.8062626e-29

autoencoders.1.decoder.layers.4.bias f4 [8]
0	0x3e9330f1	0.28748277
1	0x3f297a50	0.6620226
2	0x3dfeb02b	0.12435945
3	0xbf6d47e9	-0.9268785
4	0x3ee980d2	0.45606095
5	0x3d1809a6	0.037118576
6	0x3f43b00e	0.76440513
7	0x3f1c6776	0.6109537
