models/model_diabetes_9.pth (torch, 10735 bytes, 23 tensors)

weights f4 [2, 8]
3.8615718 7.5947623 1.7374473 1.6316277 1.272206 11.040266 3.2578506 -7.5246606
-0.79706055 5.388137 0.19332162 0.21391244 2.993231 9.3545065 14.925662 9.648368
00000000: fe23 7740 4b08 f340 ac64 de3f 2dd9 d03f
00000010: a5d7 a23f eea4 3041 a080 5040 05ca f0c0
00000020: 290c 4cbf 9e6b ac40 1af6 453e dd0b 5b3e
00000030: 1991 3f40 0fac 1541 83cf 6e41 b75f 1a41

autoencoders.0.encoder.layers.0.weight f4 [4, 8]
-0.060175218 0.2528521 0.37021112 0.33198082 0.3928907 -0.039245654 -0.70439696 -0.34079573
-0.04001134 0.15452191 0.19381051 0.12827261 0.1905569 -0.062265284 0.6551719 0.82628316
-0.13018091 0.5911805 0.1499401 -0.08196582 0.16200806 -1.079141 -0.38542345 -0.44227517
0.1300899 0.876134 0.19357921 0.13934615 -0.061989237 -1.2223259 -0.7346593 -0.7635863
00000000: 4a7a 76bd d575 813e 508c bd3e 64f9 a93e
00000010: f828 c93e 0dc0 20bd 5c53 34bf c77c aebe
00000020: eee2 23bd fe3a 1e3e 4376 463e e559 033e
00000030: 5921 433e e209 7fbd 58b9 273f 4b87 533f
00000040: 254e 05be 9b57 173f e689 193e b2dd a7bd
00000050: 71e5 253e 4b21 8abf 3956 c5be e471 e2be
00000060: 4936 053e 514a 603f a139 463e c2b0 0e3e
00000070: 6de8 7dbd 2d75 9cbf a212 3cbf 647a 43bf

autoencoders.0.encoder.layers.0.bias f4 [4]
0.7398317 -0.8578857 0.29328868 0.14369826
00000000: 9c65 3d3f 669e 5bbf ef29 963e a325 133e

autoencoders.0.encoder.layers.2.weight f4 [2, 4]
-0.00895633 0.0008483724 -0.0026825804 -2.0977507e-06 0.7942899 -1.6967422 0.644374 2.0624516
00000000: 92bd 12bc 4f65 5e3a 3bce 2fbb 15c7 0cb6
00000010: 9556 4b3f d92e d9bf b2f5 243f 35ff 0340

autoencoders.0.encoder.layers.2.bias f4 [2]
-0.0045819744 0.38937685
00000000: 6324 96bb 675c c73e

autoencoders.0.encoder.layers.4.weight f4 [1, 2]
-0.009446473 1.4084587
00000000: 61c5 1abc 6048 b43f

autoencoders.0.decoder.layers.0.weight f4 [2, 1]
-0.6424484 0.83190876
00000000: 8077 24bf f9f7 543f

autoencoders.0.decoder.layers.0.bias f4 [2]
0.473959 0.21633883
00000000: c1aa f23e ed87 5d3e

autoencoders.0.decoder.layers.2.weight f4 [4, 2]
-2.7150812 0.25206593 5.2814564e-38 -7.785609e-39 3.0951056 -0.488237 -1.7499191e-38 -1.9597816e-38
00000000: e4c3 2dc0 c90e 813e 61c6 8f01 1cc7 5480
00000010: 3616 4640 33fa f9be a08c be80 bd66 d580

autoencoders.0.decoder.layers.2.bias f4 [4]
0.32664636 -2.9569878e-38 0.66583896 -9.707262e-39
00000000: 313e a73e 65fe 2081 6c74 2a3f e6b3 6980

autoencoders.0.decoder.layers.4.weight f4 [8, 4]
0.09428092 -6.642386e-38 0.4869587 -2.0047932e-38 0.777461 -2.918203e-38 -0.7224149 2.8583955e-38
0.43754578 2.1781394e-38 0.17346682 5.2682275e-38 0.30696562 -2.7793082e-38 0.24014354 -2.0440746e-38
0.31422433 8.692e-39 -1.7398776 -5.3985264e-38 0.16983522 5.69907e-38 0.111411735 -7.2264e-40
-0.34009597 2.8840438e-38 0.2233269 -6.341291e-38 0.10975825 2.246071e-39 0.38720393 -1.3586665e-38
00000000: 5b16 c13d add2 b481 a752 f93e 7a4d da80
00000010: af07 473f d0e1 1e81 2ff0 38bf 38a0 1b01
00000020: 0006 e03e aa2d ed00 49a1 313e 306a 8f01
00000030: 992a 9d3e e751 1781 30e8 753e 7c94 de80
00000040: 03e2 a03e c2a5 5e00 4fb4 debf 3df6 9281
00000050: 49e9 2d3e b924 9b01 d62b e43d 6dde 0780
00000060: 0f21 aebe b405 1d01 cfaf 643e 59a0 ac81
00000070: efc8 e03d 2275 1800 983f c63e 18f2 9380

autoencoders.0.decoder.layers.4.bias f4 [8]
0.121431544 -0.106705025 -0.2713947 -0.2161275 0.26564422 -0.011864738 0.5655328 0.14768115
00000000: 1ab1 f83d 2a88 dabd 3ff4 8abe 8750 5dbe
00000010: 8502 883e 5164 42bc c2c6 103f ba39 173e

autoencoders.1.encoder.layers.0.weight f4 [4, 8]
-7.51498e-39 2.8890924e-38 8.659613e-39 4.060064e-38 -3.71301e-39 -2.812244e-38 2.18245e-40 -2.5241424e-38
3.100578e-38 2.5469353e-38 2.7265773e-38 2.7910017e-38 2.6696552e-38 1.601938e-38 4.7902956e-38 -2.4979765e-38
-5.207826e-39 4.7403315e-38 2.9009415e-38 4.180237e-38 2.1917856e-38 -4.792053e-39 3.4602622e-38 2.5333044e-38
1.8549618e-38 2.837651e-38 -2.943488e-38 -1.3519415e-38 -2.7049673e-38 4.751639e-39 2.6055172e-38 2.6449878e-38
00000000: b5d4 5180 124c 1d01 7a4b 5e00 080d 5d01
00000010: 5c6e 2880 f61c 1981 6160 0200 696d 0981
00000020: c0cf 2801 19ab 0a01 f172 1401 e3f4 1701
00000030: 9059 1101 846f ae00 7d67 8201 b600 0881
00000040: 4db5 3880 4a0b 8101 39f1 1d01 0098 6301
00000050: 11aa ee00 4b2e 3480 0465 3c01 1ced 0901
00000060: cafc c900 157f 1a01 3c42 2081 a136 9380
00000070: be45 1381 a3bd 3300 9cdb 0d01 c001 1001

autoencoders.1.encoder.layers.0.bias f4 [4]
2.0838494e-38 5.2406494e-38 4.1478065e-38 4.1599686e-38
00000000: 3ee9 e200 ffa9 8e01 fcd3 6101 807d 6201

autoencoders.1.encoder.layers.2.weight f4 [2, 4]
1.4985305e-38 -2.432954e-38 5.0817147e-38 3.0269532e-38 -1.0156569e-38 2.649823e-38 -4.0930928e-38 2.509941e-39
00000000: ef2c a300 6e76 0481 6256 8a01 92cd 2401
00000010: 6298 6e80 2445 1001 63d9 5e81 b254 1b00

autoencoders.1.encoder.layers.2.bias f4 [2]
-4.4629372e-38 -7.047094e-38
00000000: 44fc 7281 14d7 bf81

autoencoders.1.encoder.layers.4.weight f4 [1, 2]
6.1747824e-38 5.7724635e-38
00000000: f417 a801 3324 9d01

autoencoders.1.decoder.layers.0.weight f4 [2, 1]
-9.09501e-39 2.4515487e-38
00000000: 3009 6380 9a79 0501

autoencoders.1.decoder.layers.0.bias f4 [2]
-0.012044288 -1.6954704e-38
00000000: 6855 45bc d19e b880

autoencoders.1.decoder.layers.2.weight f4 [4, 2]
-0.0043567973 -1.5279274e-38 -0.0051030517 -5.8734713e-38 -0.009343845 1.1013205e-38 -0.014046974 -6.7265953e-38
00000000: 77c3 8ebb 6660 a680 8037 a7bb 1fe4 9f81
00000010: ed16 19bc 56ec 7700 4725 66bc 871d b781

autoencoders.1.decoder.layers.2.bias f4 [4]
0.17284237 0.72833526 0.26178268 0.25200185
00000000: 97fd 303e 2e74 3a3f 6108 863e 6306 813e

autoencoders.1.decoder.layers.4.weight f4 [8, 4]
-0.0027914178 -0.009331386 -0.07046526 -0.06861598 0.6369598 0.22348577 0.608131 0.4576557
0.23396356 0.3019806 -0.45485267 -0.4395741 -0.13599382 -0.2578698 0.0729111 -0.077224575
0.34812787 -0.028563483 0.54259 0.7175126 0.5326536 0.47888422 -0.05841094 0.023576917
0.28369743 0.53920513 0.40932733 0.4480162 -0.21699826 0.4932051 -0.19495845 0.3265162
00000000: 38f0 36bb abe2 18bc 1750 90bd 8986 8cbd
00000010: cc0f 233f 74d9 643e 79ae 1b3f d951 ea3e
00000020: 2594 6f3e 349d 9a3e 73e2 e8be db0f e1be
00000030: f741 0bbe 8307 84be 6a52 953d eb27 9ebd
00000040: d13d b23e f7fd e9bc 2ee7 0a3f e8ae 373f
00000050: fd5b 083f 5030 f53e 4f40 6fbd 6124 c13c
00000060: ca40 913e 5909 0a3f 5a93 d13e 6162 e53e
00000070: cb34 5ebe 6185 fc3e 30a3 47be 222d a73e

autoencoders.1.decoder.layers.4.bias f4 [8]
0.28377366 0.23389378 0.20330688 0.3628418 0.22198567 -0.12652484 0.011234925 0.14213803
00000000: c84a 913e da81 6f3e ae2f 503e 67c6 b93e
00000010: 3650 633e ba8f 01be b112 383c a28c 113e
