models/model_diabetes_5.pth (torch, 10735 bytes, 23 tensors)

weights f4 [2, 8]
0	0x4085f30d	4.1859193
1	0x409b8f36	4.861232
2	0x3f94a2a8	1.1612139
3	0x3f9f1b1c	1.2430148
4	0x3f1c8c69	0.6115175
5	0x4153fd40	13.249329
6	0x41627505	14.153569
7	0x411a7869	9.654397
8	0xbf1bee1a	-0.6091019
9	0x41010e90	8.066055
10	0x3eca8528	0.39554715
11	0x3efc9ff7	0.49340793
12	0x400b5585	2.1770947
13	0x416b7695	14.716451
14	0x417565c0	15.337341
15	0x41267a28	10.404823

autoencoders.0.encoder.layers.0.weight f4 [4, 8]
0	0x01876633	4.9737817e-38
1	0x81b18918	-6.521625e-38
2	0x019ce98b	5.764047e-38
3	0x017c053e	4.628885e-38
4	0x01bc4c13	6.9169454e-38
5	0x8135dda2	-3.3403463e-38
6	0x819265b7	-5.3777883e-38
7	0x01a59e33	6.083843e-38
8	0x812f0d24	-3.2151852e-38
9	0x015d27bc	4.0619797e-38
10	0x0075209a	1.0756448e-38
11	0x0097c0ed	1.3936369e-38
12	0x81948a62	-5.4565183e-38
13	0x000f3e75	1.399938e-39
14	0x01b17603	6.518887e-38
15	0x009f17fd	1.4610449e-38
16	0x018e532a	5.2281896e-38
17	0x01814206	4.7481855e-38
18	0x80ecad6b	-2.1735388e-38
19	0x81bb71ca	-6.885623e-38
20	0x00203a39	2.959622e-39
21	0x01a62dd6	6.104454e-38
22	0x8198d162	-5.613643e-38
23	0x00aaecb1	1.5696943e-38
24	0x013f54dc	3.5142043e-38
25	0x80065e8f	-5.84934e-40
26	0x8189e170	-5.064934e-38
27	0x01a951ca	6.2198157e-38
28	0x00c5890c	1.8140756e-38
29	0x805c09b3	-8.452345e-39
30	0x80fa9370	-2.3011765e-38
31	0x80b1438f	-1.6279118e-38

autoencoders.0.encoder.layers.0.bias f4 [4]
0	0x81a6d180	-6.127939e-38
1	0x00738403	1.0608439e-38
2	0x0126c30a	3.0629318e-38
3	0x008396f0	1.2084596e-38

autoencoders.0.encoder.layers.2.weight f4 [2, 4]
0	0x810715ce	-2.4811228e-38
1	0x81bb13ff	-6.8721644e-38
2	0x00283509	3.692445e-39
3	0x01af90e5	6.449276e-38
4	0x018e02d2	5.216661e-38
5	0x0175b0d2	4.5126255e-38
6	0x81ae65fd	-6.406385e-38
7	0x8101d15e	-2.3843772e-38

autoencoders.0.encoder.layers.2.bias f4 [2]
0	0x0161eb16	4.149464e-38
1	0x017e2afc	4.6683272e-38

autoencoders.0.encoder.layers.4.weight f4 [1, 2]
0	0x01ab89e7	6.301336e-38
1	0x004e7b6f	7.207448e-39

autoencoders.0.decoder.layers.0.weight f4 [2, 1]
0	0x8067baa5	-9.526012e-39
1	0x01a4b920	6.0509727e-38

autoencoders.0.decoder.layers.0.bias f4 [2]
0	0x813171fe	-3.259155e-38
1	0x80d7bcbc	-1.9812337e-38

autoencoders.0.decoder.layers.2.weight f4 [4, 2]
0	0x80019db0	-1.48403e-40
1	0x8060a6a6	-8.87599e-39
2	0x812d45ea	-3.1825243e-38
3	0x0165f4bc	4.2236246e-38
4	0x80cd335f	-1.8844705e-38
5	0x01053be2	2.4471206e-38
6	0x811c48b6	-2.8704842e-38
7	0x019da940	5.7915553e-38

autoencoders.0.decoder.layers.2.bias f4 [4]
0	0x808ff5a5	-1.3220597e-38
1	0x80ca0e84	-1.8555977e-38
2	0x8033ab47	-4.745053e-39
3	0xbb5c4ef7	-0.0033616403

autoencoders.0.decoder.layers.4.weight f4 [8, 4]
0	0x818d9020	-5.200203e-38
1	0x80466b60	-6.467004e-39
2	0x01826000	4.789221e-38
3	0x3d357d2e	0.044308834
4	0x81a9b85a	-6.2345327e-38
5	0x8193a0e3	-5.4230133e-38
6	0x818d0396	-5.1800365e-38
7	0xbd13a397	-0.036044683
8	0x80de9554	-2.0441049e-38
9	0x80d74d88	-1.9772445e-38
10	0x806bbaa6	-9.893355e-39
11	0xbc0a7bf7	-0.008452407
12	0x815bdcd2	-4.0382378e-38
13	0x015df242	4.07651e-38
14	0x01873394	4.966518e-38
15	0xbd10f6cf	-0.035391625
16	0x80c1faf8	-1.7814281e-38
17	0x011c4478	2.87018e-38
18	0x016ab9ef	4.3112413e-38
19	0x3d213980	0.039361477
20	0x817cc739	-4.6428025e-38
21	0x0183fcb0	4.848439e-38
22	0x819ca10e	-5.753645e-38
23	0x3ba96747	0.0051697823
24	0x013e3b6a	3.4940116e-38
25	0x01499bba	3.7029598e-38
26	0x0182f975	4.811241e-38
27	0xbd030391	-0.031985823
28	0x00ebbe4c	2.1649607e-38
29	0x81a14f68	-5.9256e-38
30	0x017a199e	4.5936128e-38
31	0x3b8ca5ea	0.0042922394

autoencoders.0.decoder.layers.4.bias f4 [8]
0	0x3e3ba860	0.18325949
1	0x3ef788c7	0.4834654
2	0x3d88ce4c	0.06679973
3	0x3d298958	0.041390747
4	0x3ed8cc2b	0.42343268
5	0x3dde421a	0.108524516
6	0x3e8e19db	0.277541
7	0x3e53e673	0.20693378

autoencoders.1.encoder.layers.0.weight f4 [4, 8]
0	0x8082c94f	-1.201083e-38
1	0x003e97bd	5.748234e-39
2	0x802f300c	-4.333504e-39
3	0x80ec3558	-2.1692313e-38
4	0x0188c30e	5.02384e-38
5	0x8147622b	-3.662096e-38
6	0x809f43c2	-1.4626151e-38
7	0x80f2832f	-2.227125e-38
8	0x01ab06ce	6.2825244e-38
9	0x812fc235	-3.228176e-38
10	0x0025e325	3.479397e-39
11	0x802b7ddc	-3.994076e-39
12	0x00cf13f2	1.9017103e-38
13	0x814cabe1	-3.75922e-38
14	0x80d3dfac	-1.9457528e-38
15	0x81ac83f5	-6.337217e-38
16	0x810100d0	-2.369414e-38
17	0x80841be2	-1.2132288e-38
18	0x007dab4c	1.1540887e-38
19	0x81566020	-3.937456e-38
20	0x00ebc8e8	2.1653413e-38
21	0x8185b17f	-4.911118e-38
22	0x012db408	3.1904248e-38
23	0x004b18f8	6.89662e-39
24	0x00e610fd	2.1128258e-38
25	0x80591bb4	-8.183297e-39
26	0x018f1569	5.2560626e-38
27	0x00e37372	2.0888072e-38
28	0x808c7b96	-1.2901304e-38
29	0x0197d54f	5.577472e-38
30	0x00de96f4	2.0441632e-38
31	0x018bbdcf	5.13329e-38

autoencoders.1.encoder.layers.0.bias f4 [4]
0	0x819a25f1	-5.662511e-38
1	0x01a90e74	6.2101535e-38
2	0x00104e30	1.497416e-39
3	0x0167260e	4.2455302e-38

autoencoders.1.encoder.layers.2.weight f4 [2, 4]
0	0x01082e17	2.5012323e-38
1	0x00ca34e5	1.8569745e-38
2	0x00648a68	9.2332e-39
3	0x80a0f01a	-1.4779812e-38
4	0x80e58f94	-2.1081835e-38
5	0x009f0414	1.4603307e-38
6	0x01acfab2	6.354255e-38
7	0x01ba787a	6.8498485e-38

autoencoders.1.encoder.layers.2.bias f4 [2]
0	0x8154d2b4	-3.9089422e-38
1	0x009ef123	1.4596512e-38

autoencoders.1.encoder.layers.4.weight f4 [1, 2]
0	0x80d8051a	-1.9838297e-38
1	0x0116fe8e	2.7733283e-38

autoencoders.1.decoder.layers.0.weight f4 [2, 1]
0	0x00f3439a	2.2340276e-38
1	0x81072b80	-2.4826794e-38

autoencoders.1.decoder.layers.0.bias f4 [2]
0	0x801479d4	-1.880414e-39
1	0x809bd76b	-1.431178e-38

autoencoders.1.decoder.layers.2.weight f4 [4, 2]
0	0x018e7637	5.233219e-38
1	0x006b369b	9.845987e-39
2	0x8186ff12	-4.9589834e-38
3	0x80673708	-9.478798e-39
4	0x8002c682	-2.54882e-40
5	0x008f8293	1.3179317e-38
6	0x80e33890	-2.0866948e-38
7	0x808d4764	-1.2974415e-38

autoencoders.1.decoder.layers.2.bias f4 [4]
0	0x80030c15	-2.79841e-40
1	0x80975d28	-1.3900578e-38
2	0xb8018e0e	-3.0888295e-05
3	0x3f1c2cfa	0.6100613

autoencoders.1.decoder.layers.4.weight f4 [8, 4]
0	0x8130363c	-3.2365006e-38
1	0x8182faa7	-4.8114126e-38
2	0x0129fba8	3.1220952e-38
3	0x3e988476	0.2978856
4	0x80a24b70	-1.4904412e-38
5	0x8195379a	-5.481374e-38
6	0x00b6ef9b	1.6800015e-38
7	0x3e1bcbe3	0.15214495
8	0x010decd6	2.606753e-38
9	0x0071dbb4	1.0456226e-38
10	0x80cd412a	-1.8849653e-38
11	0xbe99e876	-0.30060166
12	0x818ce8b8	-5.1761813e-38
13	0x01b49935	6.63414e-38
14	0x01032a71	2.409135e-38
15	0x3dedfa2e	0.116199836
16	0x005d8f0c	8.592017e-39
17	0x816010d4	-4.1154376e-38
18	0x012d0728	3.1780216e-38
19	0x3c9c3022	0.01906592
20	0x81b978b7	-6.8131484e-38
21	0x81479991	-3.6660706e-38
22	0x80015b8b	-1.24675e-40
23	0x3dc237b7	0.09483283
24	0x805573b4	-7.847524e-39
25	0x813799ba	-3.3722085e-38
26	0x97009050	-4.154118e-25
27	0x3e8b9bc5	0.2726728
28	0x00f37126	2.2356616e-38
29	0x00d34a1a	1.9403872e-38
30	0x0e8c39f5	3.4568475e-30
31	0x3f20c8c2	0.6280633

autoencoders.1.decoder.layers.4.bias f4 [8]
0	0x3d6e0d19	0.05811796
1	0x3f2f6bbe	0.68523777
2	0x3ed84f07	0.42247793
3	0x3d896fbf	0.06710767
4	0x3f0cbcac	0.5497539
5	0x3e8de850	0.27716303
6	0x3f0016e8	0.5003495
7	0x3e1ac54b	0.15114324
