models/model_diabetes_0.pth (torch, 11055 bytes, 23 tensors)

weights f4 [2, 8]
000000 65 f8 fe 3f 5f 2f 0d 40 5e 40 8f 3f 1f fc ad 3f
       1.9919554 2.2060163 1.1191518 1.3592566
000010 42 07 63 3f 0a 62 71 40 44 96 d0 40 92 3e d3 40
       0.8868295 3.7716088 6.518343 6.601388
000020 6b 04 02 3f 8b d7 42 40 40 88 46 40 f7 91 0f 3f
       0.5078799 3.0444057 3.102066 0.560821
000030 ce 0d e1 3f 2b 1f c7 3f 8c b6 96 3f 58 e5 80 3f
       1.7582338 1.5556387 1.1774459 1.006999

autoencoders.0.encoder.layers.0.weight f4 [4, 8]
000000 f9 88 05 80 a8 5e 05 00 c4 5c 05 00 f2 75 05 00
       -5.08314e-40 4.93134e-40 4.92456e-40 5.01488e-40
000010 32 58 05 80 e7 78 05 80 78 62 05 00 7c 70 06 80
       -4.90816e-40 -5.02549e-40 4.94501e-40 -5.91365e-40
000020 8a 5e 05 00 d9 72 05 80 9d 6a 05 00 74 67 05 00
       4.93092e-40 -5.00377e-40 4.97423e-40 4.9629e-40
000030 d2 64 05 00 d9 65 05 80 03 68 05 80 c0 6d 05 80
       4.95345e-40 -4.95714e-40 -4.9649e-40 -4.98548e-40
000040 69 58 05 00 e9 79 05 80 0f 5e 05 80 52 6d 05 00
       4.90893e-40 -5.0291e-40 -4.9292e-40 4.98394e-40
000050 35 93 05 00 54 8a 05 00 c2 45 06 00 f8 9e 05 80
       5.11985e-40 5.088e-40 5.76037e-40 -5.16205e-40
000060 51 64 05 80 c8 f3 05 80 25 69 05 80 9a 5a 05 80
       -4.95164e-40 -5.4663e-40 -4.96896e-40 -4.91679e-40
000070 f7 6d 05 80 50 1a 06 00 73 62 05 00 b0 60 06 00
       -4.98625e-40 5.60452e-40 4.94494e-40 5.85698e-40

autoencoders.0.encoder.layers.0.bias f4 [4]
000000 b3 69 05 80 ff 58 05 80 b7 5e 05 00 91 76 05 80
       -4.97095e-40 -4.91103e-40 4.93155e-40 -5.01711e-40

autoencoders.0.encoder.layers.2.weight f4 [2, 4]
000000 a4 d9 05 80 06 64 05 80 31 59 05 00 f4 8e 05 00
       -5.37252e-40 -4.95059e-40 4.91173e-40 5.1046e-40
000010 51 5e 05 80 ca 5a 05 80 9a 64 05 00 00 61 05 80
       -4.93012e-40 -4.91746e-40 4.95267e-40 -4.93975e-40

autoencoders.0.encoder.layers.2.bias f4 [2]
000000 7e 77 05 80 db 5e 05 80
       -5.02043e-40 -4.93205e-40

autoencoders.0.encoder.layers.4.weight f4 [1, 2]
000000 5e 63 05 00 35 57 05 80
       4.94824e-40 -4.90461e-40

autoencoders.0.decoder.layers.0.weight f4 [2, 1]
000000 14 61 05 80 75 77 05 00
       -4.94003e-40 5.0203e-40

autoencoders.0.decoder.layers.0.bias f4 [2]
000000 0a 64 05 80 2a 63 05 80
       -4.95065e-40 -4.94751e-40

autoencoders.0.decoder.layers.2.weight f4 [4, 2]
000000 85 65 05 80 23 59 05 00 4e 67 05 00 b8 5c 05 00
       -4.95596e-40 4.91154e-40 4.96236e-40 4.92439e-40
000010 99 6c 05 80 e6 5d 05 00 a8 63 05 80 8e 65 05 80
       -4.98135e-40 4.92862e-40 -4.94927e-40 -4.95608e-40

autoencoders.0.decoder.layers.2.bias f4 [4]
000000 b1 c6 c0 b9 73 9e 52 bc 25 8b 09 bc ad e0 b6 98
       -0.0003676913 -0.01285516 -0.008394991 -4.727276e-24

autoencoders.0.decoder.layers.4.weight f4 [8, 4]
000000 44 72 a3 22 a1 13 1a bb 4a 9d d1 3c 92 57 05 80
       4.430222e-18 -0.0023510235 0.025587697 -4.90592e-40
000010 72 e2 c6 a8 95 d2 b4 3c a7 17 16 3d eb 57 05 80
       -2.2080621e-14 0.02207307 0.03664365 -4.90717e-40
000020 98 95 30 ae 53 fb 89 3b db 84 05 3d 2a 5f 05 00
       -4.0150633e-11 0.0042108684 0.032597404 4.93316e-40
000030 44 ab 81 22 38 5f ea 3a f2 75 2d 3d 88 61 05 80
       3.5146855e-18 0.0017881161 0.04234881 -4.94165e-40
000040 e3 e9 31 a9 af ac 9c 3b 20 c1 fb bc 8e 57 05 00
       -3.950476e-14 0.0047813277 -0.030731738 4.90586e-40
000050 9d 5d 05 80 ae be b5 39 24 e7 5a bc 24 5c 05 00
       -4.9276e-40 0.00034665078 -0.013360772 4.92231e-40
000060 5d 89 14 35 4b 20 80 3c a5 53 92 3a a4 3b 06 83
       5.5334186e-07 0.015640398 0.0011163844 -3.9447525e-37
000070 f3 49 3a 32 c1 1e 9e 3b f0 d9 14 bd a0 63 05 80
       1.0843439e-08 0.0048254435 -0.036340654 -4.94916e-40

autoencoders.0.decoder.layers.4.bias f4 [8]
000000 03 de 4d 3e 4d cd f4 3e 54 94 84 3d 0f ab c7 3c
       0.20104222 0.47812882 0.06473604 0.02437356
000010 87 a1 d6 3e b6 7a 1e 3e 33 40 7a 3e 4a c8 4e 3e
       0.4192011 0.15476498 0.24438553 0.20193592

autoencoders.1.encoder.layers.0.weight f4 [4, 8]
000000 36 2e 5d 3e cc 1e 98 3e 51 eb 02 be 65 e1 87 3e
       0.2159966 0.29710996 -0.12785079 0.2653915
000010 7f 96 9f 3d 42 94 dc 3e d5 f6 e4 3e 46 f4 93 3e
       0.07792377 0.43081862 0.44719568 0.28897303
000020 5c 50 0f bd 3a 1b 2b be 60 a8 5f bd e3 d9 99 bb
       -0.034988746 -0.16709605 -0.054603934 -0.0046951636
000030 f9 00 f4 bb 94 03 dc be ab 1b 2c bf c2 bd 0c be
       -0.007446405 -0.4297148 -0.6722972 -0.13744262
000040 39 cc 68 3e b6 e3 73 3e 01 da 05 3f 5a 49 95 3e
       0.22734155 0.23817334 0.5228577 0.29157525
000050 34 49 e0 3d 18 6b 34 bd d9 21 59 3e 4d 79 ac 3e
       0.109514624 -0.044047445 0.21204318 0.33686295
000060 ad 0c 0a 3d 70 55 f1 3c 74 0b fe bb a3 7d 4a 3b
       0.033703495 0.029459685 -0.00775283 0.003089764
000070 2e 25 42 3b 7f 29 a7 3d da d0 11 bf bc 59 b3 bf
       0.0029624212 0.081622116 -0.5695931 -1.401176

autoencoders.1.encoder.layers.0.bias f4 [4]
000000 15 ee ed 3d 52 1a 2b 3f 34 ba 84 be ff 96 f5 3e
       0.11617676 0.66837037 -0.25923312 0.47966763

autoencoders.1.encoder.layers.2.weight f4 [2, 4]
000000 64 2b 3b b7 5e 87 59 af e8 d8 cc 14 14 62 05 00
       -1.1156171e-05 -1.9784127e-10 2.068429e-26 4.94361e-40
000010 3f 1d ef 3e 49 b5 85 bf f5 37 e3 be d5 7f 49 c0
       0.46702 -1.0445949 -0.4437863 -3.1484272

autoencoders.1.encoder.layers.2.bias f4 [2]
000000 93 fc 6c b9 00 74 bb 3e
       -0.00022600805 0.36611938

autoencoders.1.encoder.layers.4.weight f4 [1, 2]
000000 41 dd c6 39 9c 79 ca 3f
       0.0003793035 1.5818362

autoencoders.1.decoder.layers.0.weight f4 [2, 1]
000000 85 8a 11 bf 2a 83 e0 bf
       -0.5685199 -1.7540028

autoencoders.1.decoder.layers.0.bias f4 [2]
000000 d4 e6 62 bd 73 bd 22 3f
       -0.055395916 0.63570327

autoencoders.1.decoder.layers.2.weight f4 [4, 2]
000000 06 44 10 3f ae d2 43 3f c4 5a 05 80 d3 5f 09 b6
       0.56353796 0.76493347 -4.91738e-40 -2.0470368e-06
000010 0e b5 05 00 f6 7f 2c ac 16 8b 71 3f b2 05 14 3f
       5.24128e-40 -2.4513703e-12 0.94352853 0.5782119

autoencoders.1.decoder.layers.2.bias f4 [4]
000000 f1 84 7b 3e 18 6a a9 b6 44 19 2e b3 37 4a f8 3d
       0.24562432 -5.0489434e-06 -4.053551e-08 0.1212353

autoencoders.1.decoder.layers.4.weight f4 [8, 4]
000000 9d 8b 8d be ef 34 af 85 81 69 05 00 ba 07 a1 3e
       -0.2764558 -1.6476366e-35 4.97025e-40 0.31451207
000010 e2 2d 4a 3e 77 cd d8 b1 c5 59 05 80 84 76 ae be
       0.19744065 -6.309786e-09 -4.91381e-40 -0.34074795
000020 26 c7 c0 3f 99 c7 23 b7 f8 69 2b b3 00 81 02 3f
       1.5060775 -9.76203e-06 -3.9910418e-08 0.5097809
000030 0f 96 0e be ce 5f 05 00 bf 5d 05 00 90 06 60 3e
       -0.1392443 4.93546e-40 4.92807e-40 0.21877503
000040 33 12 6f 3d 67 fa cc 23 4b 67 c4 29 67 b6 e8 bc
       0.058366966 2.2223774e-17 8.722067e-14 -0.028407289
000050 64 d8 94 3e a1 5f 05 00 6d 9d 05 00 5b ec db be
       0.29071343 4.93483e-40 5.15651e-40 -0.42953762
000060 0d ea b4 bb 16 f3 af 0b 03 65 05 80 df 98 2f be
       -0.005521065 6.7773303e-32 -4.95414e-40 -0.1714816
000070 79 ff 6c 3e 4a d4 81 b3 11 4f 06 80 86 a8 9e be
       0.2314433 -6.045646e-08 -5.79377e-40 -0.30987948

autoencoders.1.decoder.layers.4.bias f4 [8]
000000 50 84 8f 3e 42 46 4a 3f 81 f4 df be 07 b6 19 3e
       0.28030634 0.79013455 -0.4374123 0.15010844
000010 8d 3f 0d 3f e0 11 83 3e b1 ff 2d 3f 42 e7 01 3f
       0.55175096 0.25599575 0.6796828 0.50743496
