models/model_diabetes_7.pth (torch, 10735 bytes, 23 tensors)

weights f4 [2, 8]
0	0xbe48507c	-0.19561952
1	0x404ae21c	3.1700506
2	0x3f6dc76c	0.9288242
3	0x3f0197a9	0.5062204
4	0x3e549c6e	0.20762798
5	0x41036e0c	8.214367
6	0x418cd2b3	17.60288
7	0x4149ec39	12.620172
8	0x402a6469	2.6623785
9	0x40bfb75a	5.991132
10	0x410f5f4d	8.960767
11	0x3e23ef19	0.16009177
12	0x401e1800	2.4702148
13	0x41022d1c	8.136013
14	0xc0636225	-3.5528653
15	0xc10a55a6	-8.64591

autoencoders.0.encoder.layers.0.weight f4 [4, 8]
0	0x80cf147c	-1.9017296e-38
1	0x8050a39a	-7.405529e-39
2	0x007f06b3	1.1665511e-38
3	0x01992637	5.625816e-38
4	0x80d1c7c0	-1.9265275e-38
5	0x01b1c3b3	6.5300346e-38
6	0x0157dbd1	3.9646974e-38
7	0x0059d06a	8.248124e-39
8	0x80cad653	-1.8627655e-38
9	0x80132321	-1.757476e-39
10	0x00729d2e	1.0525632e-38
11	0x004cae84	7.042102e-39
12	0x00086333	7.7027e-40
13	0x012a9433	3.1330396e-38
14	0x812d97e2	-3.1884052e-38
15	0x8115fad7	-2.7546947e-38
16	0x0130775b	3.2411728e-38
17	0x00637bd9	9.136142e-39
18	0x01ae429e	6.4013096e-38
19	0x00555409	7.836163e-39
20	0x007b604d	1.1330312e-38
21	0x01a4d06a	6.0543145e-38
22	0x8181f033	-4.7731785e-38
23	0x8011f60a	-1.649466e-39
24	0x807dc150	-1.1548784e-38
25	0x80a03b9e	-1.4715066e-38
26	0x00ba6abc	1.7119691e-38
27	0x81b4ac4a	-6.636878e-38
28	0x00340058	4.775569e-39
29	0x8008ca2c	-8.0721e-40
30	0x007d42f4	1.1503455e-38
31	0x004c18c5	6.988383e-39

autoencoders.0.encoder.layers.0.bias f4 [4]
0	0x0140ce8c	3.541302e-38
1	0x81267d43	-3.0579256e-38
2	0x016e6bfb	4.3791168e-38
3	0x013af5aa	3.433906e-38

autoencoders.0.encoder.layers.2.weight f4 [2, 4]
0	0x81785554	-4.5611626e-38
1	0x009c62e1	1.4361808e-38
2	0x00e46722	2.097549e-38
3	0x002c55a6	4.071487e-39
4	0x818a51af	-5.0810404e-38
5	0x002a983b	3.911701e-39
6	0x811b3172	-2.850448e-38
7	0x0079ebc5	1.1196673e-38

autoencoders.0.encoder.layers.2.bias f4 [2]
0	0x00c5876f	1.8140177e-38
1	0x019b97f4	5.715605e-38

autoencoders.0.encoder.layers.4.weight f4 [1, 2]
0	0x802c73ed	-4.082348e-39
1	0x012bf4de	3.1583423e-38

autoencoders.0.decoder.layers.0.weight f4 [2, 1]
0	0x81666013	-4.2313258e-38
1	0x01b053fd	6.4772707e-38

autoencoders.0.decoder.layers.0.bias f4 [2]
0	0x81b3eb5b	-6.6091934e-38
1	0x808c4a33	-1.2883587e-38

autoencoders.0.decoder.layers.2.weight f4 [4, 2]
0	0x8162de83	-4.1669289e-38
1	0x00186a5e	2.242209e-39
2	0x80f50afd	-2.2503638e-38
3	0x002086ec	2.987137e-39
4	0x810cc490	-2.5854966e-38
5	0x0039a813	5.294917e-39
6	0x000416e4	3.75554e-40
7	0x0095096b	1.3686867e-38

autoencoders.0.decoder.layers.2.bias f4 [4]
0	0x818874c8	-5.012608e-38
1	0x80e4a94c	-2.0999225e-38
2	0xabb95a20	-1.3170055e-12
3	0x8096d7f2	-1.3852791e-38

autoencoders.0.decoder.layers.4.weight f4 [8, 4]
0	0x80830980	-1.2033858e-38
1	0x80103442	-1.488115e-39
2	0x005a30a1	8.28264e-39
3	0x0167eb7f	4.259696e-38
4	0x81718092	-4.4356954e-38
5	0x81a3feea	-6.024253e-38
6	0x0101de11	2.3852883e-38
7	0x813023f7	-3.2351898e-38
8	0x00291acc	3.774868e-39
9	0x81500dd2	-3.8213482e-38
10	0x8153b5b2	-3.888494e-38
11	0x8189cde4	-5.062129e-38
12	0x012f0ae8	3.2150249e-38
13	0x8002d07c	-2.58461e-40
14	0x00558384	7.853196e-39
15	0x8184c77c	-4.877539e-38
16	0x00bb3179	1.7190985e-38
17	0x0091fd06	1.3406915e-38
18	0x80954d96	-1.3711322e-38
19	0x0106abb7	2.4735112e-38
20	0x01b9ec30	6.829718e-38
21	0x0134e38e	3.322404e-38
22	0x8072ba72	-1.053613e-38
23	0x80a4a66e	-1.5120725e-38
24	0x006d3e9d	1.003253e-38
25	0x81b06f54	-6.481194e-38
26	0x93f32a31	-6.1383428e-27
27	0x013b9fe2	3.4461186e-38
28	0x81881175	-4.998356e-38
29	0x01980ef7	5.5857455e-38
30	0x00602b41	8.831724e-39
31	0x808ffbed	-1.322285e-38

autoencoders.0.decoder.layers.4.bias f4 [8]
0	0x3e563698	0.20919263
1	0x3eff6f5b	0.49889645
2	0x3d70a363	0.058749568
3	0x3cc3ec6d	0.023916448
4	0x3ed91cdf	0.4240484
5	0x3e1e9783	0.15487485
6	0x3eab4352	0.334498
7	0x3e83cb8c	0.2574123

autoencoders.1.encoder.layers.0.weight f4 [4, 8]
0	0x3dc9b48e	0.09848891
1	0x3df9fcfd	0.12206457
2	0xbf1ff092	-0.62476456
3	0xbe609dd3	-0.21935205
4	0xbd0f0d48	-0.034924775
5	0x3f861600	1.0475464
6	0x3e8f21ac	0.27955377
7	0x3e1b72e5	0.15180548
8	0x3e07637a	0.13221541
9	0x3e03dec0	0.12877941
10	0xc00882ec	-2.1329908
11	0x3fa9829f	1.3242987
12	0x3c9e0177	0.019287808
13	0x3f34b37e	0.70586383
14	0x3e67b15f	0.22626255
15	0x3dd10c53	0.10207429
16	0x3dc10474	0.094246775
17	0xbd4166c8	-0.04721716
18	0xbd68ac9f	-0.05680525
19	0x3d25a4f0	0.0404405
20	0x3be39b3b	0.006945995
21	0x3e15f0cd	0.1464264
22	0xbcafa1de	-0.021439489
23	0xc00af67b	-2.171294
24	0xbba3b7d9	-0.0049962816
25	0xbd85ee22	-0.06539561
26	0xbda379b5	-0.07982198
27	0x3cf0034b	0.029298445
28	0x3c4543fd	0.012040135
29	0xbd5bb09c	-0.053635225
30	0xbfa702ab	-1.3047689
31	0xbc2c6d46	-0.0105241

autoencoders.1.encoder.layers.0.bias f4 [4]
0	0x3e446a3c	0.1918115
1	0x3e30ce75	0.17266257
2	0x3edff2b4	0.43739855
3	0x3f114d35	0.56758434

autoencoders.1.encoder.layers.2.weight f4 [2, 4]
0	0x3eb003ce	0.34377903
1	0x3ef5d43b	0.48013481
2	0xc0602117	-3.5020196
3	0xc091d29a	-4.556958
4	0xb96c5468	-0.00022538158
5	0xb83a51b3	-4.4421944e-05
6	0x00a6ebde	1.5329306e-38
7	0x803941f3	-5.258281e-39

autoencoders.1.encoder.layers.2.bias f4 [2]
0	0x3e180139	0.14844216
1	0xbaada8f1	-0.0013249201

autoencoders.1.encoder.layers.4.weight f4 [1, 2]
0	0xbfc75789	-1.5573589
1	0xbbdc741c	-0.0067277085

autoencoders.1.decoder.layers.0.weight f4 [2, 1]
0	0x3f993a21	1.1970865
1	0xbf49e372	-0.7886268

autoencoders.1.decoder.layers.0.bias f4 [2]
0	0xbe067f13	-0.13134412
1	0x3eae1609	0.34001186

autoencoders.1.decoder.layers.2.weight f4 [4, 2]
0	0x3b3ffa1e	0.0029293369
1	0xbc87a5c0	-0.016558528
2	0x81628acc	-4.1609226e-38
3	0xb8b41c14	-8.588299e-05
4	0x3fb369d3	1.401667
5	0xbf790c31	-0.9728423
6	0x3f656ed5	0.8962224
7	0x3f2117fd	0.6292723

autoencoders.1.decoder.layers.2.bias f4 [4]
0	0xbbe56f4e	-0.007001794
1	0xb91ba685	-0.00014843985
2	0x3f74aee8	0.95579386
3	0x3e23cd11	0.15996195

autoencoders.1.decoder.layers.4.weight f4 [8, 4]
0	0x3c88cdd2	0.016699705
1	0xaefaf60c	-1.14123905e-10
2	0x3e0ee0e2	0.13952973
3	0x3e6ef80a	0.23336807
4	0x3c5ba61b	0.013406302
5	0x33e7ccd5	1.07940345e-07
6	0x3e0d31e6	0.13788566
7	0x3e58f713	0.21188001
8	0x3cb385ec	0.021914445
9	0xb4acdba7	-3.2197315e-07
10	0x3fcab613	1.5836815
11	0x3e074e47	0.13213454
12	0x3bb4938e	0.005510754
13	0x8045ffcc	-6.428412e-39
14	0x3fee7a0d	1.8630997
15	0x4021f90e	2.530826
16	0xbd481ef5	-0.048857648
17	0x31eefe21	6.9556028e-09
18	0x3d27c015	0.040954668
19	0x3be3aba6	0.0069479523
20	0x3c7491f0	0.014927372
21	0x33c1286d	8.994616e-08
22	0x3d11aad3	0.0355633
23	0x3d3b96bf	0.04579806
24	0xbc535603	-0.012898925
25	0x2b377b61	6.5185883e-13
26	0x3d4a1a99	0.04934177
27	0x3e22492b	0.15848224
28	0xba9c5f12	-0.0011930189
29	0xb58ac0f0	-1.0337953e-06
30	0x3d8a50d3	0.06753697
31	0x3e3c8771	0.18411042

autoencoders.1.decoder.layers.4.bias f4 [8]
0	0x3d696096	0.056976877
1	0x3f1acd19	0.60469204
2	0xbe179dcf	-0.14806293
3	0xc000f695	-2.0150502
4	0x3f11ba89	0.56925255
5	0x3e877507	0.26456472
6	0x3efeac3f	0.49740788
7	0x3ebcdeee	0.36888832
