models/model_octminst_1.pth (torch, 563411 bytes, 27 tensors)

weights f4 [4, 784]
1.0356284 1.0004832 0.8732047 0.86785084 0.8650483 0.8356415 0.90528417 0.96299875
1.0802882 0.95345706 1.1675458 1.0795685 1.10793 0.9892689 0.99970704 0.9679734
1.0833272 0.96330994 1.0676854 1.0271575 0.9916703 0.96919084 0.94103557 0.8406227
0.8324783 0.873176 0.8790539 0.850508 0.92310244 0.86070836 0.6058424 0.73887753
0.66745424 0.5779383 0.7514497 0.7469374 0.91106427 0.96224546 0.83941835 0.66672665
0.9269282 0.9645677 0.8648085 0.82665884 0.8015187 0.81284523 0.7819631 0.68269825
0.85158074 0.7988233 0.83501565 0.7943357 0.855294 0.8577013 0.8313625 0.76374865
0.55970854 0.4322041 0.49559155 0.5411098 0.70603305 0.67926824 0.65460634 0.70502096
0.87672544 0.88783485 0.84340405 0.84073156 0.89856476 0.8994857 0.9503717 0.8887997
0.94747245 0.8131788 0.8044572 0.79220754 0.74062574 0.66170335 0.64251035 0.7162993
0.66387624 0.74694043 0.79692906 0.71112335 0.6921217 0.7323935 0.54079103 0.58387727
0.6300449 0.7042925 0.6430135 0.6727071 0.9823395 0.8804377 0.91524625 0.7506933
0.6454774 0.69513434 0.7682813 0.7471025 0.6898092 0.6606017 0.50647044 0.41823578
0.442953 0.47933453 0.48642847 0.49508455 0.47306362 0.6750386 0.7675036 0.7879768
0.94324636 1.0080745 0.8567512 0.72209454 0.8474636 0.7383178 0.78821677 0.7027656
0.65666705 0.7302762 0.9135781 0.7225597 0.68595874 0.5787178 0.7940669 0.9231606
1.1380093 0.72077173 0.6929532 0.69898623 0.83212614 0.9371652 1.0338365 0.95326805
0.8552416 0.83761066 0.76712507 0.68656665 0.833669 1.0279595 0.8930632 0.9177898
0.7552782 0.9637469 0.7968578 0.8986546 0.83889663 1.2039224 1.0795332 1.2299193
0.8431337 0.7845169 0.8952864 0.9202699 1.0629792 0.73708045 0.7706819 0.8371588
0.7249305 0.83936113 0.77637833 0.73366636 0.6341793 0.86533374 0.90934175 0.9896176
1.0648212 0.9521611 0.88654184 0.87882674 0.9000448 1.0759779 1.0476276 0.8178341
0.91905004 0.857227 0.83266324 0.609626 0.8053062 1.0118358 1.2755009 0.89680165
0.8035252 0.77795446 0.9729237 0.94797236 0.7720897 0.7130873 0.71962875 0.8090771
0.6571832 0.84724635 1.0864183 1.0345354 1.4302899 1.5017745 0.9738703 0.8996208
0.68964887 0.9418712 1.033325 1.2650971 1.3384284 1.2647588 1.1192386 0.86480343
0.77395386 1.2027698 1.270491 0.8086095 0.7309222 0.9759948 1.1241996 1.2687551
1.0722198 1.0155382 0.71981215 0.7027004 0.6185988 1.0389876 1.3340228 1.169648
1.182773 1.2118628 1.329746 1.1701784 1.0040874 1.0767052 1.1636212 1.1917694
1.2585655 1.0259564 1.1141464 1.111577 0.7452404 0.9581522 1.2964464 0.9912071
0.94160914 0.91610837 0.86652803 0.8373296 0.74048454 0.9731021 1.3365897 1.6851821
1.3725879 1.1395534 1.0938152 0.8980748 1.6206774 1.7526658 1.3888963 1.1589043
00000000: 798f 843f d50f 803f 588a 5f3f 792b 5e3f
00000010: ce73 5d3f 9aec 553f b4c0 673f 1687 763f
00000020: e246 8a3f c315 743f 2472 953f 4d2f 8a3f
00000030: a6d0 8d3f ba40 7d3f cdec 7f3f 1bcd 773f
00000040: 77aa 8a3f 7b9b 763f eaa9 883f e679 833f
00000050: 1bde 7d3f e41c 783f b5e7 703f 0d33 573f
00000060: 4c1d 553f 7688 5f3f ad09 613f e4ba 593f
00000070: 7150 6c3f 6257 5c3f 7d18 1b3f 1427 3d3f
00000080: 48de 2a3f c4f3 133f 025f 403f 4a37 3f3f
00000090: 823b 693f b855 763f 1fe4 563f 99ae 2a3f
000000a0: 2b4b 6d3f e9ed 763f 1764 5d3f ea9f 533f
000000b0: 5430 4d3f a016 503f bc2e 483f 50c5 2e3f
000000c0: 3201 5a3f af7f 4c3f 96c3 553f 9659 4b3f
000000d0: 8cf4 5a3f 5092 5b3f 2cd4 543f 0885 433f
000000e0: 0f49 0f3f db49 dd3e 2dbe fd3e 2c86 0a3f
000000f0: 95be 343f 86e4 2d3f 4894 273f 417c 343f
00000100: 1471 603f 2549 633f 54e9 573f 2f3a 573f
00000110: 5708 663f b244 663f 8f4b 733f 6188 633f
00000120: 8e8d 723f 7c2c 503f e8f0 4d3f 1dce 4a3f
00000130: a699 3d3f 6465 293f 8f7b 243f 645f 373f
00000140: cbf3 293f 7d37 3f3f 8b03 4c3f 2e0c 363f
00000150: e32e 313f 247e 3b3f 4871 0a3f fb78 153f
00000160: 9f4a 213f 834c 343f 889c 243f 8836 2c3f
00000170: 9a7a 7b3f 5d64 613f 944d 6a3f 702d 403f
00000180: 023e 253f 53f4 313f 15ae 443f 1c42 3f3f
00000190: 5697 303f 311d 293f 0ca8 013f 0023 d63e
000001a0: bcca e23e 566b f53e 270d f93e b97b fd3e
000001b0: 6535 f23e 54cf 2c3f 1e7b 443f d9b8 493f
000001c0: 9878 713f 9608 813f 0c54 5b3f 30db 383f
000001d0: 60f3 583f 6502 3d3f 93c8 493f 72e8 333f
000001e0: 551b 283f 62f3 3a3f 41e0 693f acf9 383f
000001f0: fe9a 2f3f da26 143f f847 4b3f 4154 6c3f
00000200: 4aaa 913f 7f84 383f 6265 313f c3f0 323f
00000210: 3806 553f 0fea 6f3f c154 843f 6009 743f
00000220: 1df1 5a3f a76d 563f 4f62 443f d5c2 2f3f
00000230: 556b 553f 2d94 833f ca9f 643f 46f4 6a3f
00000240: ea59 413f 1eb8 763f dffe 4b3f 3a0e 663f
00000250: eec1 563f 211a 9a3f 252e 8a3f ff6d 9d3f
00000260: 9cd7 573f 19d6 483f 7d31 653f cf96 6b3f
00000270: b40f 883f 4eb1 3c3f 694b 453f 0a50 563f
00000280: 0c95 393f 5fe0 563f bbc0 463f 8fd1 3b3f
00000290: 9359 223f 8386 5d3f 9fca 683f 9457 7d3f
000002a0: 104c 883f d4c0 733f 68f4 623f cafa 603f
000002b0: 5669 663f a5b9 893f a918 863f 935d 513f
000002c0: dd46 6b3f 3b73 5b3f 6b29 553f 7310 1c3f
000002d0: 8c28 4e3f d683 813f 9d43 a33f cb94 653f
000002e0: d4b3 4d3f 0628 473f 8711 793f 51ae 723f
000002f0: aca7 453f e48c 363f 9739 383f ad1f 4f3f
00000300: 283d 283f 23e5 583f c10f 8b3f a86b 843f
00000310: bd13 b73f 263a c03f 904f 793f 8c4d 663f
00000320: d48c 303f 791e 713f fe43 843f b4ee a13f
00000330: 9f51 ab3f 9ee3 a13f 3643 8f3f c263 5d3f
00000340: d721 463f 5cf4 993f 739f a23f 0801 4f3f
00000350: b81d 3b3f ccda 793f c6e5 8f3f 9166 a23f
00000360: 803e 893f 28fd 813f 9c45 383f 2ce4 333f
00000370: 7e5c 1e3f 8cfd 843f 42c1 aa3f 07b7 953f
00000380: 1b65 973f 521e 9b3f 1e35 aa3f 68c8 953f
00000390: f085 803f 7ad1 893f 8af1 943f e68b 983f
000003a0: ad18 a13f 8a52 833f 599c 8e3f 2848 8e3f
000003b0: 13c8 3e3f 7649 753f f5f1 a53f c0bf 7d3f
000003c0: 4c0d 713f 1486 6a3f c8d4 5d3f 3c5b 563f
000003d0: 6590 3d3f 381d 793f 5f15 ab3f 0cb4 d73f
000003e0: f6b0 af3f e3dc 913f 2302 8c3f 3be8 653f
000003f0: 5b72 cf3f 5a57 e03f 5bc7 b13f fa56 943f

encoder.model.0.weight f4 [8, 1, 3, 3]
0.138661 -0.42299396 -0.090656474 0.10547764 -0.49680543 0.30127588 -0.10027236 0.18637586
0.4198968 0.048119247 0.61590534 0.32430777 -0.030143041 -0.2518589 -0.10680602 -0.002206293
0.038163997 0.045308862 0.5127349 0.48166302 0.07921887 -0.30458996 -0.20256634 -0.2087138
-0.13102521 0.014828634 0.2457773 0.3606711 -0.21196437 0.49779713 0.11340345 0.7573674
0.70950526 -0.40538847 -0.5881111 -0.024043562 0.51057583 0.2291643 -0.5652326 0.39418525
0.681775 -1.0485252 0.42239103 0.19274712 -0.85532314 0.25888038 0.02012503 0.28639406
-0.36476895 -0.4315291 -0.64479566 -0.010625754 0.25468028 -0.05909557 0.6541371 0.683024
0.3375397 -0.48983046 0.017065724 -0.14232522 -0.40423775 0.06361956 -0.03925616 0.9424474
0.4328333 -0.43955094 0.23644684 0.2092397 -0.65039724 -0.19950296 0.18670177 -0.5062689
00000000: 26fd 0d3e aa92 d8be 1aaa b9bd a904 d83d
00000010: 485d febe d540 9a3e 985b cdbd 50d9 3e3e
00000020: b7fc d63e b018 453d f9ab 1d3f ab0b a63e
00000030: 8aee f6bc a6f3 80be 1dbd dabd 7497 10bb
00000040: da51 1c3d c995 393d 9842 033f 899c f63e
00000050: 813d a23d 37f3 9bbe 8d6d 4fbe 12b9 55be
00000060: 792b 06be cdf3 723c 0bad 7b3e e2a9 b83e
00000070: 300d 59be 44df fe3e 1140 e83d d4e2 413f
00000080: 23a2 353f 148f cfbe 738e 16bf 01f7 c4bc
00000090: 19b5 023f 0caa 6a3e 15b3 10bf a6d2 c93e
000000a0: ce88 2e3f 1336 86bf a343 d83e 805f 453e
000000b0: 75f6 5abf f88b 843e 3fdd a43c 3ea2 923e
000000c0: ffc2 babe 62f1 dcbe 5411 25bf a417 2ebc
000000d0: 7465 823e 320e 72bd 8775 273f a9da 2e3f
000000e0: 01d2 ac3e 0fcb fabe 6bcd 8b3c b4bd 11be
000000f0: 40f8 cebe f94a 823d 11cb 20bd 3c44 713f
00000100: 549c dd3e d20c e1be 1f1f 723e ef42 563e
00000110: 6f80 26bf 814a 4cbe c02e 3f3e d79a 01bf

encoder.model.0.bias f4 [8]
0.037443906 -0.07682583 0.049759 -0.035710756 0.07836949 0.22560714 -0.21773762 0.05862342
00000000: c85e 193d dc56 9dbd 18d0 4b3d 7145 12bd
00000010: 2f80 a03d 8f05 673e 9cf6 5ebe 1c1f 703d

encoder.model.2.weight f4 [16, 8, 3, 3]
0.21403366 0.0314396 0.4329823 -0.23776269 -0.24390054 -0.21049401 0.00079726375 0.07738222
-0.013786067 -0.02002857 -0.1987324 -0.20452589 0.13706464 -0.121188 -0.098641515 -0.1821689
-0.4386964 -0.11249114 -0.20570318 -0.34755376 0.08052101 0.04569105 -0.062838055 -0.06268064
-0.31343162 -0.23633265 0.24085766 0.1702573 0.49847832 0.14451882 0.09860667 0.18388201
0.324724 -0.3664855 -0.03529967 0.03860592 -0.038452264 0.12203059 -0.08768075 0.08920755
0.0103491405 -0.14395094 0.19798036 0.13315217 -0.2834578 -0.21169604 -0.18565719 0.04772031
-0.025384497 -0.083840415 -0.3841298 0.10999984 0.20962986 0.2908572 -0.17626493 -0.35526207
-0.1439946 -0.38277903 -1.1703864 -0.568637 0.14151837 -0.4242847 -0.57602006 -0.14847803
-0.08600844 -0.08912006 0.31341967 0.07801957 0.13258177 -0.24581946 -0.16377601 0.039886907
4.90606e-40 4.91765e-40 4.92404e-40 4.92332e-40 4.90518e-40 4.94005e-40 4.94323e-40 4.9196e-40
4.94122e-40 4.92241e-40 4.92534e-40 4.9444e-40 4.94284e-40 4.92458e-40 4.90527e-40 4.94258e-40
4.94363e-40 4.906e-40 4.91573e-40 4.92999e-40 4.92489e-40 4.91374e-40 4.94741e-40 4.91072e-40
4.94822e-40 4.92872e-40 4.9286e-40 4.95055e-40 4.93721e-40 4.90667e-40 4.90516e-40 4.91278e-40
4.91213e-40 4.91105e-40 4.91688e-40 4.94402e-40 4.9418e-40 4.93707e-40 4.91451e-40 4.9195e-40
4.91028e-40 4.94601e-40 4.92575e-40 4.92712e-40 4.94726e-40 4.93526e-40 4.92402e-40 4.94218e-40
4.90467e-40 4.91692e-40 4.91731e-40 4.92783e-40 4.94319e-40 4.94422e-40 -4.92862e-40 -4.90794e-40
-4.95025e-40 4.92952e-40 4.91923e-40 4.91236e-40 -4.92481e-40 -4.94939e-40 -4.93121e-40 4.9491e-40
4.9365e-40 4.90498e-40 4.90586e-40 4.93428e-40 4.91358e-40 4.9243e-40 4.9056e-40 4.93546e-40
-0.23773131 -0.21423747 0.6014211 -0.08750393 0.009372389 -0.0005000366 -0.0030053123 -0.15457538
0.04365161 0.08079568 -0.015978707 -0.34330425 0.4057754 -0.14235081 -0.19753174 0.108237915
-0.13152365 -0.07559703 -0.11662071 0.09754291 -0.10933722 -0.058327522 -0.058603063 -0.2760467
0.033962414 0.30609706 0.30831525 0.24080119 -0.11226184 0.11803528 0.14943872 -0.29317468
0.05359824 0.19677426 -0.07508998 -0.22244613 0.20032379 0.84399045 -1.3454489 0.16562672
0.5765278 -1.239246 -0.13002251 0.277418 -0.28969434 -0.44934168 0.52091116 0.25212568
-0.3363185 0.14661887 -0.19335982 -0.3728117 -0.16643392 0.035659358 0.055000223 -0.1751933
0.023366153 0.3772725 -0.4219431 -0.5414368 -0.36546832 -0.88986367 -0.5749314 0.07636301
0.3587332 -0.45694444 0.020235814 0.15964821 -0.62377787 0.059648734 0.17305303 -0.13673578
4.92112e-40 4.95154e-40 4.95009e-40 4.94756e-40 4.91019e-40 4.91734e-40 4.95156e-40 4.94178e-40
4.92472e-40 4.9189e-40 4.95018e-40 4.92748e-40 4.90913e-40 4.91653e-40 4.95187e-40 4.94906e-40
4.94178e-40 4.93858e-40 4.907e-40 4.91682e-40 4.93116e-40 4.92238e-40 4.91339e-40 4.94052e-40
4.91788e-40 4.9244e-40 4.93341e-40 4.91458e-40 4.93904e-40 4.92449e-40 4.93027e-40 4.91155e-40
4.932e-40 4.918e-40 4.91169e-40 4.94479e-40 4.94266e-40 4.92378e-40 4.90977e-40 4.94281e-40
00000000: a42b 5b3e cfc6 003d dbaf dd3e 1078 73be
00000010: 10c1 79be be8b 57be 77ff 503a 927a 9e3d
00000020: f5de 61bc f512 a4bc 8280 4bbe 3c6f 51be
00000030: ac5a 0c3e 6a31 f8bd 9004 cabd 7c8a 3abe
00000040: d19c e0be c161 e6bd dba3 52be 91f2 b1be
00000050: 33e8 a43d 8a26 3b3d 3db1 80bd b55e 80bd
00000060: 1c7a a0be 3001 72be 64a3 763e ee57 2e3e
00000070: 8d38 ff3e befc 133e 4bf2 c93d 914b 3c3e
00000080: 3942 a63e fda3 bbbe 6396 10bd 3e21 1e3d
00000090: 1f80 1dbd 2deb f93d f791 b3bd 73b2 b63d
000000a0: 718f 293c e067 13be 5dbb 4a3e 0b59 083e
000000b0: 6121 91be d9c6 58be eb1c 3ebe 5f76 433d
000000c0: 26f3 cfbc 86b4 abbd a9ac c4be 9947 e13d
000000d0: 36a9 563e 3ceb 943e cb7e 34be e9e4 b5be
000000e0: 5273 13be 9dfb c3be 39cf 95bf 3292 11bf
000000f0: 31ea 103e d83b d9be 0d76 13bf a00a 18be
00000100: 3125 b0bd 9484 b6bd 8b78 a03e b9c8 9f3d
00000110: 84c3 073e 19b8 7bbe e6b4 27be 7460 233d
00000120: 9c57 0500 d75a 0500 9f5c 0500 6c5c 0500
00000130: 5d57 0500 1661 0500 f961 0500 625b 0500
00000140: 6961 0500 2b5c 0500 fc5c 0500 4c62 0500
00000150: dd61 0500 c65c 0500 6457 0500 ca61 0500
00000160: 1562 0500 9857 0500 4e5a 0500 485e 0500
00000170: dc5c 0500 c059 0500 2363 0500 e958 0500
00000180: 5d63 0500 ed5d 0500 e55d 0500 0364 0500
00000190: 4b60 0500 c857 0500 5c57 0500 7c59 0500
000001a0: 4d59 0500 0059 0500 a05a 0500 3162 0500
000001b0: 9361 0500 4160 0500 f759 0500 5b5b 0500
000001c0: c958 0500 bf62 0500 195d 0500 7b5d 0500
000001d0: 1863 0500 c05f 0500 9e5c 0500 ae61 0500
000001e0: 3957 0500 a35a 0500 bf5a 0500 ae5d 0500
000001f0: f661 0500 3f62 0500 e65d 0580 2258 0580
00000200: ee63 0580 265e 0500 485b 0500 5e59 0500
00000210: d65c 0580 b063 0580 9f5e 0580 9c63 0500
00000220: 1860 0500 4f57 0500 8e57 0500 7a5f 0500
00000230: b559 0500 b25c 0500 7b57 0500 ce5f 0500
00000240: d66f 73be 1161 5bbe bcf6 193f 4335 b3bd
00000250: a68e 193c e314 03ba c6f4 44bb 0249 1ebe
00000260: 08cc 323d 3578 a53d c7e5 82bc 93c5 afbe
00000270: cbc1 cf3e 69c4 11be c345 4abe d7ab dd3d
00000280: 23ae 06be 9ed2 9abd d7d6 eebd 94c4 c73d
00000290: 31ec dfbd d7e8 6ebd c409 70bd fe55 8dbe
000002a0: 2c1c 0b3d c1b8 9c3e 7fdb 9d3e 9694 763e
000002b0: 89e9 e5bd 7bbc f13d 7706 193e fe1a 96be
000002c0: d489 5b3d 317f 493e c7c8 99bd ebc8 63be
000002d0: ae21 4d3e c20f 583f ab37 acbf 0d9a 293e
000002e0: 5397 133f 9d9f 9ebf 9f24 05be bb09 8e3e
000002f0: d152 94be 1d10 e6be 6f5a 053f 9e16 813e
00000300: f031 acbe 4223 163e 1e00 46be 2de1 bebe
00000310: a76d 2abe 8c0f 123d ea47 613d df65 33be
00000320: 606a bf3c dc29 c13e ed08 d8be 9a9b 0abf
00000330: aa1e bbbe 1bce 63bf b42e 13bf 3664 9c3d
00000340: e1ab b73e 9ff4 e9be 94c5 a53c d27a 233e
00000350: e8af 1fbf 3b52 743d d034 313e 7704 0cbe
00000360: cf5b 0500 4a64 0500 e263 0500 2e63 0500
00000370: c358 0500 c15a 0500 4b64 0500 9161 0500
00000380: d05c 0500 305b 0500 e963 0500 955d 0500
00000390: 7758 0500 875a 0500 6164 0500 9963 0500
000003a0: 9161 0500 ad60 0500 df57 0500 9c5a 0500
000003b0: 9b5e 0500 295c 0500 a759 0500 3761 0500
000003c0: e85a 0500 b95c 0500 3c5f 0500 fc59 0500
000003d0: ce60 0500 bf5c 0500 5c5e 0500 2459 0500
000003e0: d75e 0500 f05a 0500 2e59 0500 6862 0500
000003f0: d061 0500 8d5c 0500 a558 0500 db61 0500

encoder.model.2.bias f4 [16]
0.0707666 -1.1266344e-30 0.19096811 -7.4189046e-26 -0.048057932 0.10646896 -0.0068316218 0.053606007
0.10760475 -0.009438341 0.009103415 0.030891312 0.0922241 -5.91346e-25 0.21250919 0.19011839
00000000: 14ee 903d 90ce b68d 258d 433e e5ae b795
00000010: 65d8 44bd 660c da3d ccdb dfbb f991 5b3d
00000020: e15f dc3d 45a3 1abc 7d26 153c c70f fd3c
00000030: fddf bc3d 4203 3797 029c 593e 65ae 423e

encoder.fc.weight f4 [32, 784]
-0.09189166 -0.041355547 0.06623014 0.30373845 -0.08636829 -0.07898295 0.005133178 0.04096037
0.2870177 -0.009243379 -0.15192406 0.038573332 -0.23327972 -0.03884019 -0.3592983 0.016318835
-0.21591714 -0.6950076 -0.3914944 -0.13262141 -0.22404553 -0.20360407 -0.092189826 -0.10016455
-0.3401092 -0.094293445 0.021909885 0.050980493 -0.13490699 -0.22017305 0.011179158 0.14646125
-0.20751792 0.027554864 0.236064 0.090059 0.14619139 0.15583655 0.19928509 0.027100515
-0.26272202 0.028153816 -0.14041367 -0.027293345 -0.13971168 0.27947947 0.06583554 0.3423988
0.12424828 -4.9295e-40 -4.91915e-40 -4.94457e-40 -4.94245e-40 -4.92542e-40 -4.94906e-40 -4.92209e-40
-4.93421e-40 -4.91025e-40 -4.91203e-40 -4.9405e-40 -4.94905e-40 -4.94297e-40 -4.94892e-40 -4.90869e-40
-4.90677e-40 -4.92556e-40 -4.94081e-40 -4.9454e-40 -4.90984e-40 -4.92935e-40 -4.94825e-40 -4.9462e-40
-4.9487e-40 -4.91433e-40 -4.94227e-40 -4.94295e-40 -4.91044e-40 -4.94525e-40 -4.9292e-40 -4.93498e-40
-4.90468e-40 -4.93e-40 -4.9269e-40 -4.93446e-40 -4.9371e-40 -4.95044e-40 -4.92915e-40 -4.93979e-40
-4.9422e-40 -4.91444e-40 -4.91416e-40 -4.92153e-40 -4.92957e-40 -4.93334e-40 -4.93645e-40 -4.91908e-40
-4.91884e-40 -4.92391e-40 0.00450373 -0.016234446 -0.36238086 -0.14784269 -0.28663442 -0.10933159
-0.09175531 0.10207716 -0.31616443 -0.036793437 0.21798754 0.17684309 0.018967422 0.05375752
0.36659807 0.11691839 0.0046387007 0.21630757 0.28108585 0.27230132 0.04127388 -0.38067308
0.16837195 -0.029667132 -0.008683093 0.034529183 -0.23283386 -0.08956817 0.11296842 -0.22300564
-0.20293407 0.082578324 -0.5929906 -0.0450331 0.2872489 0.06908422 0.05794073 -0.112778656
-0.2132877 -0.7382131 -0.16063507 -0.112272345 0.1474974 -0.21769486 -0.46942034 -0.1698548
-0.2278402 -0.15444726 -0.39466777 -4.94756e-40 4.95084e-40 4.9273e-40 4.93064e-40 4.92803e-40
4.92157e-40 4.91365e-40 4.9369e-40 -4.95174e-40 -4.9153e-40 4.9441e-40 4.91001e-40 4.91228e-40
4.92601e-40 4.92348e-40 4.93264e-40 4.94216e-40 4.9441e-40 4.93773e-40 4.93619e-40 4.92975e-40
4.92771e-40 4.91044e-40 4.93258e-40 4.93268e-40 4.92741e-40 4.94396e-40 4.92612e-40 4.94688e-40
4.9405e-40 4.9304e-40 4.92528e-40 4.92862e-40 4.95059e-40 4.95087e-40 4.91887e-40 -4.9195e-40
-4.91735e-40 -4.90492e-40 -4.91061e-40 4.9442e-40 4.9485e-40 4.93065e-40 4.92887e-40 4.9379e-40
4.91762e-40 4.93512e-40 4.90963e-40 4.9262e-40 0.13955891 0.08283766 0.21270917 0.34839737
0.12851071 -0.060152814 0.34476867 -0.121117316 -0.1322756 0.125959 0.23204628 -0.2639645
0.0060946876 0.092880495 -0.50117093 0.054192223 0.043640252 0.36664125 0.23366064 0.17549255
0.20242459 -0.04157978 0.09661497 0.06423971 -0.4179023 -0.3351776 -0.20810586 0.2307629
-0.17952938 0.29436868 0.48943615 0.017393239 0.18287794 -0.108366676 0.11952129 0.15542969
-0.05203499 0.17469743 0.47078884 0.20335637 -0.14495331 -0.30239725 0.13991879 0.41153324
-0.14959586 -0.1965377 0.027911766 0.08476783 -0.33494803 -0.008031663 0.1278567 -0.011081851
-0.15929891 -0.15670669 -0.047578625 -0.15203144 -0.16253133 -0.23422658 0.30636463 0.8610044
00000000: b231 bcbd 6f64 29bd aba3 873d 9b83 9b3e
00000010: dce1 b0bd d0c1 a1bd 3834 a83b 10c6 273d
00000020: fcf3 923e 8b71 17bc fb91 1bbe 12ff 1d3d
00000030: e1e0 6ebe e416 1fbd f2f5 b7be 14af 853c
00000040: 6219 5dbe 05ec 31bf f471 c8be e8cd 07be
00000050: 316c 65be 967d 50be 05ce bcbd 1223 cdbd
00000060: cb22 aebe ec1c c1bd 5c7c b33c ecd0 503d
00000070: 0f25 0abe 0b75 61be ca28 373c f0f9 153e
00000080: 947f 54be bdba e13c c3ba 713e da70 b83d
00000090: 32b3 153e 9e93 1f3e 6411 4c3e e601 de3c
000000a0: 8083 86be d5a2 e63c 9ac8 0fbe 4b96 dfbc
000000b0: 9410 0fbe ef17 8f3e c9d4 863d e54e af3e
000000c0: e275 fe3d 255e 0580 425b 0580 5862 0580
000000d0: c161 0580 025d 0580 9963 0580 145c 0580
000000e0: 755f 0580 c758 0580 4659 0580 3661 0580
000000f0: 9863 0580 e661 0580 8f63 0580 5858 0580
00000100: cf57 0580 0c5d 0580 4c61 0580 9462 0580
00000110: aa58 0580 1a5e 0580 5f63 0580 cd62 0580
00000120: 7f63 0580 ea59 0580 b461 0580 e561 0580
00000130: d558 0580 8962 0580 0f5e 0580 ac5f 0580
00000140: 3a57 0580 495e 0580 6b5d 0580 875f 0580
00000150: 4360 0580 fb63 0580 0c5e 0580 0361 0580
00000160: af61 0580 f259 0580 de59 0580 ec5b 0580
00000170: 2a5e 0580 375f 0580 1560 0580 3d5b 0580
00000180: 2c5b 0580 965c 0580 0794 933b 1afe 84bc
00000190: fc89 b9be 1364 17be bfc1 92be 3ee9 dfbd
000001a0: 35ea bbbd d40d d13d 4ee0 a1be b7b4 16bd
000001b0: 2038 5f3e 5b16 353e 9161 9b3c d830 5c3d
000001c0: beb2 bb3e e972 ef3d 3e00 983b bb7f 5d3e
000001d0: 7cea 8f3e 146b 8b3e cd0e 293d 95e7 c2be
000001e0: b269 2c3e 7c08 f3bc 8843 0ebc 796e 0d3d
000001f0: 006c 6ebe 846f b7bd fd5b e73d 975b 64be
00000200: f3cd 4fbe d31e a93d 3bce 17bf a174 38bd
00000210: 4a12 933e 077c 8d3d 4253 6d3d 7ff8 e6bd
00000220: 1768 5abe 89fb 3cbf 857d 24be 0bef e5bd
00000230: 8f09 173e 67eb 5ebe dd57 f0be 6bee 2dbe
00000240: f14e 69be 6c27 1ebe e511 cabe 2e63 0580
00000250: 1864 0500 885d 0500 765e 0500 bc5d 0500
00000260: ef5b 0500 ba59 0500 3560 0500 5864 0580
00000270: 305a 0580 3762 0500 b658 0500 5859 0500
00000280: 2c5d 0500 775c 0500 055f 0500 ac61 0500
00000290: 3762 0500 7060 0500 0260 0500 375e 0500
000002a0: a55d 0500 d558 0500 015f 0500 085f 0500
000002b0: 905d 0500 2d62 0500 345d 0500 fd62 0500
000002c0: 3661 0500 655e 0500 f85c 0500 e65d 0500
000002d0: 0664 0500 1a64 0500 2e5b 0500 5b5b 0580
000002e0: c25a 0580 4b57 0580 e158 0580 3e62 0500
000002f0: 7163 0500 775e 0500 f85d 0500 7c60 0500
00000300: d55a 0500 b65f 0500 9b58 0500 395d 0500
00000310: 88e8 0e3e cba6 a93d 6fd0 593e 2461 b23e
00000320: 5098 033e cc62 76bd 8585 b03e 5b0c f8bd
00000330: 4173 07be 65fb 003e 8a9d 6d3e 5b26 87be
00000340: f2b5 c73b 2138 be3d bd4c 00bf aaf8 5d3d
00000350: 1fc0 323d 67b8 bb3e bc44 6f3e 52b4 333e
00000360: 6448 4f3e 8f4f 2abd 12de c53d 1c90 833d
00000370: 4af7 d5be 669c abbe b419 55be 1c4d 6c3e
00000380: 8dd6 37be 7eb7 963e 6097 fa3e 447c 8e3c
00000390: 5b44 3b3e 59ef ddbd 94c7 f43d f628 1f3e
000003a0: a422 55bd e2e3 323e 3c0b f13e a73c 503e
000003b0: a46e 14be d0d3 9abe df46 0f3e 7cb4 d23e
000003c0: a82f 19be 2e41 49be 37a7 e43c c29a ad3d
000003d0: 4f7e abbe 3c97 03bc deec 023e a790 35bc
000003e0: 411f 23be b877 20be cee1 42bd 21ae 1bbe
000003f0: 9d6e 26be 18d9 6fbe d3db 9c3e c96a 5c3f

encoder.fc.bias f4 [32]
0.01011889 -0.24339251 -0.33385888 -0.109767996 0.22906081 -0.19668733 -0.2773118 -0.1997107
0.10676698 0.09798906 0.1310662 -0.122332126 -0.08771824 -0.2688504 -0.17544645 -0.2128692
0.37730423 -0.18449305 0.1849205 -0.15980563 -0.17498031 -0.22446722 -0.08771629 0.20674787
-0.15276395 -0.21285392 0.16486554 0.15598318 0.20121063 -0.118934155 -0.26877978 0.20154384
00000000: b3c9 253c e33b 79be 8def aabe 0bce e0bd
00000010: eb8e 6a3e 6768 49be d0fb 8dbe f680 4cbe
00000020: a5a8 da3d 7dae c83d 3836 063e 4489 fabd
00000030: 9fa5 b3bd c2a6 89be 3ca8 33be 62fa 59be
00000040: 052e c13e bfeb 3cbe cd5b 3d3e 16a4 23be
00000050: 0a2e 33be bcda 65be 99a4 b3bd b7b5 533e
00000060: 276e 1cbe 61f6 59be 83d2 283e 0eba 1f3e
00000070: 290a 4e3e c093 f3bd 819d 89be 8261 4e3e

decoders.0.model.0.weight f4 [16, 8, 3, 3]
-0.042234667 0.016783116 -0.22416829 -0.14989118 0.03231298 0.49335694 -0.06332202 0.027346626
-0.09836281 0.065296665 0.19493145 -0.34704188 0.0021102072 4.94884e-40 0.30316696 -0.09726495
0.36173874 0.0912826 -0.095803246 0.034931522 -0.22031325 0.1750739 0.008111149 -0.04719751
-0.051317345 -0.05163869 -0.4090204 -0.07703856 0.12132426 0.16010968 -0.16365215 0.15857829
-0.30050492 0.205809 -0.02142392 0.013075166 0.1158397 0.08690368 -0.025541183 0.043484602
0.13359371 0.09108516 0.27567598 0.087374255 0.41775128 0.04845411 0.13895994 0.03436114
-0.0864447 0.25831413 0.07077556 0.23317112 0.07554808 -0.15334983 0.097960904 0.17239805
-0.0031281055 0.15617305 0.05894955 0.43558767 0.09737612 0.21688494 0.0063278517 -0.37645188
-0.08706649 0.030172577 0.18290815 -0.19726184 -0.04294493 -0.30158004 0.11821931 0.14207356
0.25183097 -0.21026962 -0.015438173 0.22259684 0.09503945 0.1732246 -0.11155152 0.124637775
0.08383749 0.09811928 0.1133082 0.1658089 -0.06556156 4.92832e-40 0.34890354 0.0020689047
0.030954659 0.44398332 -0.0018854096 0.33569044 0.037030146 0.24113247 0.7160983 0.8523458
0.11811443 0.28816932 -0.022436727 0.4175063 -0.19782642 -0.39127427 -0.13390237 -0.48203474
0.1223717 -0.09453385 0.10286638 -0.5027733 0.07398847 -0.21233717 0.089223936 -0.1780146
0.2227039 0.14766817 -0.097822376 -0.23418164 -0.024393657 0.17458953 -0.07580883 0.32325625
0.17717148 -0.40145043 -0.26373965 -0.37881708 0.021813493 0.17136993 0.014354973 -0.22266597
0.20665962 -0.047084816 -0.2916167 0.20566355 0.25880286 0.3251823 -0.51119834 0.39917755
0.20998773 -0.13601023 0.3592962 -0.14234737 -0.22448736 -0.3427793 0.08489339 -0.020631153
-0.1918469 0.111249015 -0.2938263 0.010821096 -0.2038948 -0.12812454 0.2073137 -0.51536494
-0.6487487 -0.076728284 -0.10305936 -0.08583854 -0.029533066 -4.92527e-40 0.11937699 0.5235242
-0.29174644 -0.32322618 -0.5698723 -0.33761305 0.0033031218 -0.05763271 -0.30181676 -0.20797037
0.019857971 -0.42530876 -0.14904718 -0.1273029 -0.110423885 -0.3785978 0.09991372 -0.34932667
0.18827172 -0.115734324 -0.31029087 0.28170177 0.17842275 -0.08065233 -0.10200064 0.17335911
0.36674038 0.23981312 0.20400517 0.14845991 -0.06732233 0.07802517 0.09571824 -0.03519378
0.25501043 0.14270572 -0.15088923 0.28354657 0.0030727934 -0.2053966 -0.18905157 0.06295516
0.008854127 0.120140776 0.1454427 0.2914223 0.08115912 -0.43929672 -0.14029051 -0.033576634
-0.13562383 0.30603772 -0.113218375 -0.12506205 -0.05393766 0.22245759 0.06954964 -0.1969382
0.14529134 0.3101608 0.023987668 0.13870807 -0.076603495 0.19320169 0.049943756 0.34199673
0.28531662 0.18650745 0.115528814 0.009466395 0.3466811 4.93492e-40 0.25967807 0.2866755
0.025862604 -0.23666759 0.10711262 0.35354325 -0.018229343 -0.05497615 -0.16802882 -0.092190936
-0.2276815 -0.101419635 0.21142647 0.27657464 0.041599624 0.034113698 -0.19212353 0.021102536
-0.3521033 0.23420084 0.0177733 -0.099147566 -0.18487112 -0.09720902 -0.20181003 -0.23356982
00000000: 42fe 2cbd bf7c 893c 5f8c 65be 137d 19be
00000010: 9e5a 043d 4899 fc3e faae 81bd 0806 e03c
00000020: 7172 c9bd 42ba 853d 1c9c 473e 79af b1be
00000030: 674b 0a3b 8963 0500 b338 9b3e d932 c7bd
00000040: d235 b93e 5ff2 ba3d 7e34 c4bd 5b14 0f3d
00000050: cc99 61be 9346 333e a0e4 043c 2d52 41bd
00000060: 2332 52bd 1783 53bd 1f6b d1be 64c6 9dbd
00000070: db78 f83d cbf3 233e 6e94 27be 5962 223e
00000080: c8db 99be 98bf 523e 3781 afbc 3939 563c
00000090: 5d3d ed3d 8efa b13d be3b d1bc e91c 323d
000000a0: cacc 083e db8a ba3d 6725 8d3e 46f1 b23d
000000b0: 7fe3 d53e d177 463d 844b 0e3e 44be 0c3d
000000c0: eb09 b1bd c041 843e c7f2 903d 69c4 6e3e
000000d0: f4b8 9a3d bd07 1dbe ba9f c83d 1d89 303e
000000e0: e700 4dbb d4eb 1f3e 1575 713d 5905 df3e
000000f0: 226d c73d 1617 5e3e de59 cf3b 4dbe c0be
00000100: ea4f b2bd 7b2c f73c 464c 3b3e 02ff 49be
00000110: 06e7 2fbd b368 9abe f71c f23d bb7b 113e
00000120: fdef 803e eb50 57be 64f0 7cbc 6df0 633e
00000130: 0ba4 c23d ca61 313e 2075 e4bd 1742 ff3d
00000140: fdb2 ab3d c3f2 c83d 210e e83d cfc9 293e
00000150: 2445 86bd d15d 0500 7ca3 b23e 7696 073b
00000160: a094 fd3c c851 e33e d91f f7ba 9edf ab3e
00000170: ecac 173d 6eeb 763e 3852 373f 5633 5a3f
00000180: fae5 f13d ee8a 933e 3acd b7bc 63c3 d53e
00000190: 0293 4abe 1a55 c8be b41d 09be 42cd f6be
000001a0: 049e fa3d f79a c1bd 9cab d23d c0b5 00bf
000001b0: 4487 973d ea6e 59be 0abb b63d 7649 36be
000001c0: 7e0c 643e 5336 173e 1957 c8bd 50cd 6fbe
000001d0: 35d5 c7bc 99c7 323e a941 9bbd d881 a53e
000001e0: 716c 353e e98a cdbe e208 87be 50f4 c1be
000001f0: 36b2 b23c 997b 2f3e 1f31 6b3c 8c02 64be
00000200: 949e 533e 02dc 40bd c94e 95be 7799 523e
00000210: cf81 843e 4b7e a63e e5dd 02bf 0061 cc3e
00000220: 0607 573e 4446 0bbe acf5 b73e 82c3 11be
00000230: 04e0 65be c580 afbe 96dc ad3d aa02 a9bc
00000240: 8473 44be 86d6 e33d 6770 96be f74a 313c
00000250: ccc9 50be 1433 03be 0b4a 543e f5ee 03bf
00000260: 6514 26bf b823 9dbd c910 d3bd 1ecc afbd
00000270: 54ef f1bc f75c 0580 ec7b f43d af05 063f
00000280: ca5f 95be e77d a5be 27e3 11bf 9edb acbe
00000290: 3079 583b 4710 6cbd ba87 9abe 2ff6 54be
000002a0: 2fad a23c 12c2 d9be d39f 18be b15b 02be
000002b0: eb25 e2bd 92d7 c1be 909f cc3d f2da b2be
000002c0: 4dca 403e 1e06 edbd 72de 9ebe 373b 903e
000002d0: 74b4 363e 0c2d a5bd b6e5 d0bd 0d85 313e
000002e0: 65c5 bb3e 9291 753e bbe6 503e e005 183e
000002f0: 4ae0 89bd a9cb 9f3d ed07 c43d 5a27 10bd
00000300: ba90 823e 7321 123e b582 1abe 042d 913e
00000310: eb60 493b 7c53 52be bc96 41be a3ee 803d
00000320: e610 113c 5e0c f63d eeee 143e 4e35 953e
00000330: c136 a63d 80eb e0be 51a8 0fbe a787 09bd
00000340: f9e0 0abe fab0 9c3e 09df e7bd 4410 00be
00000350: bced 5cbd eccb 633e 0b70 8e3d 2baa 49be
00000360: 41c7 143e 65cd 9e3e c981 c43c 7d09 0e3e
00000370: 4be2 9cbd aad6 453e d391 4c3d 321a af3e
00000380: 0515 923e cffb 3e3e 5f9a ec3d f018 1b3c
00000390: 2f80 b13e a85f 0500 86f4 843e 22c7 923e
000003a0: d0dd d33c fd58 72be dc5d db3d 9f03 b53e
000003b0: b455 95bc ac2e 61bd bf0f 2cbe 9ace bcbd
000003c0: 5725 69be 19b5 cfbd 2e80 583e 319b 8d3e
000003d0: 5e64 2a3d ceba 0b3d 08bc 44be 3adf ac3c
000003e0: e246 b4be 58d2 6f3e 5099 913c e10d cbbd
000003f0: db4e 3dbe 8615 c7bd 4aa7 4ebe ed2c 6fbe

decoders.0.model.0.bias f4 [8]
-0.31836557 -0.82946914 -0.10311601 -0.27297896 0.22831218 -0.093801826 0.19822903 -0.027490223
00000000: d000 a3be 1758 54bf 7d2e d3bd e6c3 8bbe
00000010: abca 693e 2c1b c0bd 8dfc 4a3e 2d33 e1bc

decoders.0.model.2.weight f4 [8, 1, 3, 3]
-0.02394077 0.14670704 0.18330626 0.33523664 0.52439135 0.37831137 0.4399884 0.45534286
0.32770282 0.39327633 0.2746924 0.53317165 -0.023427438 -0.17524742 -0.015549931 -0.23944558
-0.3395223 -0.48371723 -0.1757604 -0.15337962 0.019753903 -0.27730995 -0.50538737 -0.35394508
-0.27467045 -0.30348057 -0.14569032 0.12347191 -0.01711743 -0.11923733 -0.0003770527 -0.4239247
-0.39384982 -0.23075265 -0.63678664 -0.7278855 -0.08834541 -0.08437926 0.088133454 -0.22942176
-0.51916844 -0.3136341 0.036830947 -0.30667672 -0.08167585 -0.34409764 -0.03913515 -0.058490593
0.088336624 -0.3715398 -0.029953683 -0.0086066 -0.31805477 -0.15204167 0.18561736 0.0065443506
0.12007079 -0.19640233 -0.4163693 -0.33950946 -0.39149684 -0.47475198 -0.57225436 -0.20071787
-0.030025216 -0.08525019 -0.33462003 -0.4523408 -0.24413681 -0.050732967 -0.5386649 -0.6407269
00000000: 6f1f c4bc 5f3a 163e a3b4 3b3e 23a4 ab3e
00000010: 833e 063f 07b2 c13e 2946 e13e b322 e93e
00000020: aac8 a73e 845b c93e 7ba4 8c3e f07d 083f
00000030: e6ea bfbc 0f74 33be 23c5 7ebc 3931 75be
00000040: ded5 adbe c9a9 f7be 89fa 33be 8c0f 1dbe
00000050: f0d2 a13c 92fb 8dbe 1161 01bf 4a38 b5be
00000060: 9ba1 8cbe ce61 9bbe d82f 15be d7de fc3d
00000070: da39 8cbc b432 f4bd 28af c5b9 a90c d9be
00000080: afa6 c9be 6c4a 6cbe 7304 23bf b456 3abf
00000090: 70ee b4bd 09cf acbd 507f b43d 8aed 6abe
000000a0: 39e8 04bf a694 a0be 0cdc 163d bb04 9dbe
000000b0: ab45 a7bd 912d b0be 2e4c 20bd d593 6fbd
000000c0: d5e9 b43d 773a bebe 6d61 f5bc b202 0dbc
000000d0: 13d8 a2be d0b0 1bbe 7a12 3e3e fe71 d63b
000000e0: ade7 f53d b11d 49be 5b2e d5be 2fd4 adbe
000000f0: 4672 c8be b112 f3be 437f 12bf fc88 4dbe
00000100: 71f7 f5bc a797 aebd 5153 abbe 3799 e7be
00000110: 00ff 79be 5fcd 4fbd f1e5 09bf ae06 24bf

decoders.0.fc.weight f4 [784, 32]
-0.0165636 0.024041 -0.03319788 -0.09185292 -0.10143437 0.02027633 0.014942645 0.046980355
-0.29778877 -0.06743706 -0.18270564 -0.22935283 -0.11308214 0.012086602 -0.08083663 0.0801612
0.14246178 0.042115394 -0.35903743 0.0316248 0.13133883 -0.005951857 -0.02410616 0.039379817
0.1639066 0.055622872 -0.21489878 -0.0843849 0.18317567 0.15054448 -0.003803479 0.14933822
0.017368738 -0.08922961 0.111367494 -0.12122803 0.00853625 -0.046795443 0.07910136 0.21286151
-0.13661015 -0.3433482 0.015598434 -0.08964118 -0.014733773 0.14413185 0.027153704 0.2134571
-0.036674507 -0.2707203 0.12209648 -0.0041699223 -0.1294836 -0.040128697 0.018500967 0.0031988071
-0.07691208 0.002699825 -0.08916935 -0.06255878 0.08510599 -0.06884637 -0.0784054 0.10761948
0.20107333 -0.037703697 0.1614424 -0.049984433 -0.058649193 -0.072466135 0.08010933 -0.0068242545
-0.25736976 -0.40537572 0.04403575 -0.0138310855 -0.06562852 0.1555861 -0.42264533 0.36473432
-0.5804652 -0.17056622 0.11856759 0.16225809 0.011877531 -0.20211026 0.20132703 -0.11725817
0.050753493 -0.038988207 -0.016227497 0.023509 0.035516378 0.10013564 0.13464426 0.18996266
0.037535887 -0.2219077 -0.08973315 -0.18871306 -0.107021816 -0.21244526 -0.12722623 0.07263412
-0.5280323 -0.03720914 -0.1572362 0.20903663 -0.20314714 -0.0055185845 -0.4313145 0.022031788
-0.24550207 -0.08887146 -0.10038314 0.2117893 -0.14305556 -0.32181528 0.076279014 -0.16697598
-0.11014042 0.062286712 -0.031624567 0.11153478 -0.07775098 0.00035684858 -0.30314314 0.2752304
-0.25455236 0.3393637 0.13810828 -0.11100083 -0.2599222 0.015490447 -0.17042844 0.01854016
0.058794018 0.1259273 -0.083712205 0.3808122 -0.22134008 -0.054467853 -0.26990283 0.23282821
-0.10436535 -0.1716373 0.06618774 0.33354446 -0.038695656 -0.2092606 0.08435924 0.029386608
-0.13342437 -0.019889208 0.25143537 -0.008955695 -0.22077607 0.18237461 -0.13875619 0.04947824
0.2247687 0.26622584 0.057861745 -0.3132176 -0.0309904 -0.35565543 0.013616508 0.084025584
-0.18430778 0.0032850946 -0.22163107 -0.11321342 -0.085955866 0.06991784 -0.20671466 0.09404667
-0.47208098 0.012087752 0.0077769463 0.09546971 0.28363225 -0.39941505 -0.10534253 0.15198147
0.014218999 -0.030054927 -0.079027325 -0.21139386 -0.30851454 -0.18450525 -0.22365925 -0.34468657
0.029566137 -0.0117902085 -0.20129165 -0.024115434 -0.0743476 -0.13301238 -0.1706037 0.16299029
-0.33872306 -0.17913271 0.026474886 -0.029761447 -0.11104865 0.084747024 -0.4535569 0.14877757
-0.32492936 0.07233964 -0.4549742 -0.010779077 0.120827526 -0.1233902 0.011541493 0.034719016
0.0114036035 -0.09912042 -0.31757158 0.020990202 0.0005927792 -0.30865583 -0.43097636 0.04825356
-0.005986536 -0.009855431 0.08044584 0.05114318 -0.03029027 0.022075744 -0.2727821 0.14965206
-0.07851361 -0.16229299 -0.0022863122 0.022663122 -0.15884726 -0.21373111 0.0884954 -0.14367433
-0.015374383 -0.1515618 -0.06771634 0.06980531 0.42971274 -0.22567196 0.21178964 -0.3398069
-0.011309246 0.16475256 0.25455818 0.116597414 0.09542839 0.070054226 -0.09577282 0.13106413
00000000: 63b0 87bc a2f1 c43c 80fa 07bd 621d bcbd
00000010: d3bc cfbd 8c1a a63c ffd1 743c 796e 403d
00000020: c577 98be 711c 8abd 3017 3bbe 78db 6abe
00000030: 9c97 e7bd e206 463c ad8d a5bd 8e2b a43d
00000040: 80e1 113e 3181 2c3d c1d3 b7be 0289 013d
00000050: b07d 063e cc07 c3bb 487a c5bc bb4c 213d
00000060: 22d7 273e cfd4 633d 6d0e 5cbe fed1 acbd
00000070: 6792 3b3e 5528 1a3e ca43 79bb 1eec 183e
00000080: e248 8e3c 04be b6bd a414 e43d 6746 f8bd
00000090: a1db 0b3c 94ac 3fbd e5ff a13d 5ef8 593e
000000a0: 88e3 0bbe 56cb afbe 9390 7f3c cc95 b7bd
000000b0: ec65 71bc 4d97 133e 7271 de3c 7f94 5a3e
000000c0: 0238 16bd da9b 8abe b80d fa3d d8a3 88bb
000000d0: 5997 04be fd5d 24bd 578f 973c 14a3 513b
000000e0: 1584 9dbd 8cef 303b 6c9e b6bd d11e 80bd
000000f0: 0d4c ae3d 53ff 8cbd 0393 a0bd 9a67 dc3d
00000100: 2be6 4d3e 316f 1abd 2851 253e 7abc 4cbd
00000110: 233a 70bd 2069 94bd 5c10 a43d ff9d dfbb
00000120: f8c5 83be 688d cfbe d55e 343d c79b 62bc
00000130: 3f68 86bd f651 1f3e f864 d8be 75be ba3e
00000140: 5e99 14bf e9a8 2ebe 91d3 f23d fc26 263e
00000150: fa99 423c fef5 4ebe ac28 4e3e 0d25 f0bd
00000160: e5e2 4f3d 19b2 1fbd 87ef 84bc f295 c03c
00000170: 9f79 113d ea13 cd3d 2fe0 093e 9285 423e
00000180: 3bbf 193d c63b 63be 04c6 b7bd ff3d 41be
00000190: 412e dbbd 408b 59be 9847 02be 33c1 943d
000001a0: 202d 07bf 9c68 18bd 8702 21be b30d 563e
000001b0: ce05 50be 3ed5 b4bb 41d5 dcbe 027c b43c
000001c0: e564 7bbe 3d02 b6bd ad95 cdbd 4bdf 583e
000001d0: 287d 12be f9c4 a4be 2c38 9c3d c0fb 2abe
000001e0: 4d91 e1bd 5a20 7f3d c388 01bd 596c e43d
000001f0: e83b 9fbd 6817 bb39 9435 9bbe 00eb 8c3e
00000200: b054 82be 14c1 ad3e 426c 0d3e 6754 e3bd
00000210: 8614 85be a5cb 7d3c cb84 2ebe 89e1 973c
00000220: ffd1 703d 16f3 003e 4e71 abbd d1f9 c23e
00000230: f9a6 62be af19 5fbd b430 8abe 856a 6e3e
00000240: 80bd d5bd b0c1 2fbe 708d 873d 57c6 aa3e
00000250: 567f 1ebd 6948 56be 8ac4 ac3d 2fbc f03c
00000260: 66a0 08be b1ee a2bc 23bc 803e e8ba 12bc
00000270: 1f13 62be 69c0 3a3e 1a16 0ebe b2a9 4a3d
00000280: c429 663e c14e 883e 7000 6d3d 0f5e a0be
00000290: 94df fdbc 7818 b6be c617 5f3c 9b15 ac3d
000002a0: 2ebb 3cbe be4a 573b 41f3 62be 70dc e7bd
000002b0: a109 b0bd 1631 8f3d 02ad 53be 8a9b c03d
000002c0: 99b4 f1be b50b 463c c1d5 fe3b a085 c33d
000002d0: 3f38 913e 2180 ccbe d3bd d7bd 08a1 1b3e
000002e0: cef6 683c c035 f6bc 14d9 a1bd a277 58be
000002f0: 9ef5 9dbe f2ee 3cbe ee06 65be c27a b0be
00000300: af34 f23c b82b 41bc 661f 4ebe bb8d c5bc
00000310: 8e43 98bd 6634 08be bdb2 2ebe ede6 263e
00000320: 1c6d adbe 916e 37be dce1 d83c 47ce f3bc
00000330: 7a6d e3bd d98f ad3d 9c38 e8be 2659 183e
00000340: 245d a6be ce26 943d 61f2 e8be ba9a 30bc
00000350: 6c74 f73d 00b4 fcbd 8818 3d3c 8735 0e3d
00000360: 2ed6 3a3c a6ff cabd be98 a2be a5f3 ab3c
00000370: bd64 1b3a 2308 9ebe efa8 dcbe 86a5 453d
00000380: b42a c4bb ac78 21bc cac0 a43d 837b 513d
00000390: 4d23 f8bc 31d8 b43c 18aa 8bbe 643e 193e
000003a0: becb a0bd 2230 26be f4d5 15bb 03a8 b93c
000003b0: dba8 22be 54dc 5abe 143d b53d 5d1f 13be
000003c0: d6e4 7bbc 0433 1bbe ddae 8abd 16f6 8e3d
000003d0: 4f03 dc3e 8d16 67be 62df 583e 2cfb adbe
000003e0: 6a4a 39bc e5b4 283e 7355 823e a0ca ee3d
000003f0: f66f c33d 9778 8f3d 8a24 c4bd ad35 063e

decoders.0.fc.bias f4 [784]
0.0030723931 -0.14059484 -0.14927441 0.1077905 -0.045833867 0.07674898 0.14452545 0.056230314
0.13113965 -0.29213217 0.054245718 0.019885186 0.29524064 0.21696508 0.19631054 0.044780944
0.12740524 -0.3125708 -0.061180443 0.16896553 0.06483406 0.0826057 0.16685075 0.08973803
-0.054370634 -0.2104098 0.25235248 0.19600488 0.017650675 0.12871079 0.16994713 -0.03243875
-0.025460701 0.13665539 0.38055262 0.15389007 0.0036392796 -0.04115932 -0.06355345 0.043136373
0.14307976 0.5030324 0.21805699 0.24125195 0.21028781 0.32312682 0.2055806 0.44121358
0.21537031 -0.28120083 0.122980446 -0.10714435 0.064662054 -0.22712837 -0.18029435 -0.23007317
-0.37282988 -0.20528327 -0.11684457 -0.032532685 0.02178346 0.037015755 -0.14164968 -0.25231645
0.1302668 -0.10172616 -0.05611696 -0.41004112 -0.12297163 0.15074898 -0.2576526 -0.2973979
0.16365506 0.18231976 -0.09761266 -0.1212879 0.0049016564 -0.05567146 -0.034418836 -0.17885347
-0.18711852 -0.060612753 0.4900519 0.17476119 -0.15208064 -0.020882687 0.22843406 -0.045328293
-0.12954177 -0.1482562 -0.6507609 -0.34567434 0.09955256 0.46304885 -0.1664962 -0.024535848
0.2600127 -0.43066326 0.22410744 0.19118397 0.15391845 0.32079387 0.21008208 0.005358032
0.47948444 0.523024 0.33988532 0.32062295 0.2003337 0.060093574 0.26690266 0.2702488
0.20648952 0.326928 0.1698482 0.15691523 0.11886074 0.2615432 0.13431461 0.30427024
0.30881423 0.25983435 -0.02630901 0.1996346 0.22840592 0.13769469 0.3877695 0.11493035
0.29603332 -0.11125798 -0.05621715 0.04716435 0.21539918 0.35407376 -0.0019214132 0.15337482
0.16368726 0.07991862 0.2635616 0.4625781 0.17970523 0.18805297 0.17081128 0.03306931
0.35911414 0.1453957 0.45362088 -0.09020386 -0.15318035 0.2257086 -0.10334153 -0.027898896
-0.17285232 -0.3026408 -0.1462018 0.083551094 -0.05479648 -0.10298593 -0.06649806 -0.2261748
-0.22291215 -0.06906725 0.11982966 0.11864183 -0.060310096 0.14743024 -0.013798334 -0.12500626
-0.27571946 0.098320544 -0.09336976 0.24937935 0.001389224 -0.124593735 -0.018607855 -0.3321649
-0.3740125 -0.25528398 0.044499446 -0.15718234 -0.12518138 -0.43508142 -0.095568076 -0.022954905
-0.07738683 -0.09046665 -0.25643355 -0.45965454 -0.65697515 -0.3068262 -0.37349808 -0.19889796
-0.13080303 -0.37318882 -0.26580662 -0.5748574 0.020925548 0.23628871 -0.19520557 0.0018739996
0.18224601 0.07330438 -0.1641723 -0.2617385 0.19215588 0.13463719 -0.19856949 -0.003704842
0.2935167 0.05648337 -0.05943449 0.053303182 -0.21829695 0.1754381 -0.41477054 0.18390982
0.07190521 -0.20269874 0.108167246 0.056370623 0.10604553 -0.20303805 0.22694045 -0.08702207
-0.1578882 0.07762865 0.011850256 0.3390903 -0.1549223 0.21310656 -0.28109255 -0.14130466
-0.0067876596 0.20657106 -0.3395423 -0.07715415 0.119757496 -0.38272062 -0.38244802 -0.03355837
0.21630643 -0.11204379 0.1819473 0.18750636 -0.37651393 0.2763032 0.15984051 -0.23258938
-0.054696213 -0.17896338 -0.044354532 0.30340892 0.35103595 -0.43454713 -0.056434236 -0.05732191
00000000: 345a 493b 18f8 0fbe 64db 18be 44c1 dc3d
00000010: 4bbc 3bbd 922e 9d3d 7bfe 133e c251 663d
00000020: 7949 063e 5992 95be c230 5e3d 42e6 a23c
00000030: c829 973e 182c 5e3e a105 493e 396c 373d
00000040: 8576 023e 4809 a0be 5898 7abd 4d05 2d3e
00000050: b8c7 843d 2d2d a93d ecda 2a3e 93c8 b73d
00000060: beb3 5ebd ab75 57be 5834 813e 81b5 483e
00000070: 2698 903c c3cc 033e 9f06 2e3e 7fde 04bd
00000080: f692 d0bc 64ef 0b3e cbd7 c23e 5c95 1d3e
00000090: fb80 6e3b ad96 28bd 5028 82bd c4af 303d
000000a0: 8083 123e bbc6 003f 554a 5f3e c00a 773e
000000b0: b055 573e e170 a53e b983 523e bfe6 e13e
000000c0: 098a 5c3e 8ef9 8fbe 2cdd fb3d 7f6e dbbd
000000d0: 8a6d 843d 5794 68be 159f 38be 4d98 6bbe
000000e0: 8fe3 bebe c735 52be 354c efbd fe40 05bd
000000f0: 3a73 b23c d59d 173d 9d0c 11be 9f2f 81be
00000100: a964 053e ce55 d0bd e6da 65bd e9f0 d1be
00000110: 8dd8 fbbd f15d 1a3e 0beb 83be 8a44 98be
00000120: 3195 273e 08b2 3a3e 25e9 c7bd ca65 f8bd
00000130: 139e a03b c207 64bd c4fa 0cbd 5d25 37be
00000140: ff9b 3fbe 1445 78bd 15e8 fa3e 99f4 323e
00000150: 07bb 1bbe 2b12 abbc 9eea 693e 29aa 39bd
00000160: 99a6 04be 79d0 17be 4498 26bf 3afc b0be
00000170: 36e2 cb3d bd14 ed3e fb7d 2abe 67ff c8bc
00000180: 6220 853e e57f dcbe 6c7c 653e bbc5 433e
00000190: cc9c 1d3e 183f a43e c21f 573e 6e92 af3b
000001a0: fc7e f53e e7e4 053f 7305 ae3e b128 a43e
000001b0: 4724 4d3e ae24 763d 77a7 883e 0d5e 8a3e
000001c0: fd71 533e 1b63 a73e b0ec 2d3e 63ae 203e
000001d0: 426d f33d fee8 853e c589 093e 4fc9 9b3e
000001e0: e61c 9e3e 0209 853e fe85 d7bc 036d 4c3e
000001f0: 3ee3 693e d6ff 0c3e b989 c63e 9a60 eb3d
00000200: ae91 973e 39db e3bd f443 66bd 682f 413d
00000210: 9a91 5c3e 2849 b53e eed7 fbba 4a0e 1d3e
00000220: a29d 273e 60ac a33d 8cf1 863e 09d7 ec3e
00000230: a604 383e f590 403e 27e9 2e3e af73 073d
00000240: cfdd b73e 9ce2 143e ff40 e83e cdbc b8bd
00000250: 4fdb 1cbe 2820 673e b9a4 d3bd 3a8c e4bc
00000260: 3300 31be bcf3 9abe edb5 15be d61c ab3d
00000270: 4672 60bd 4aea d2bd 2330 88bd 5e9a 67be
00000280: 1543 64be 2173 8dbd 4169 f53d 7dfa f23d
00000290: b807 77bd f4f7 163e 6812 62bc a401 00be
000002a0: 1a2b 8dbe 485c c93d a538 bfbd 4d5d 7f3e
000002b0: 9f16 b63a 002b ffbd 806f 98bc 8511 aabe
000002c0: 917e bfbe 95b4 82be 0d45 363d 68f4 20be
000002d0: 8c2f 00be fec2 debe 32b9 c3bd ed0b bcbc
000002e0: fc7c 9ebd 9446 b9bd 424b 83be d757 ebbe
000002f0: 862f 28bf 5318 9dbe 243b bfbe e8ab 4bbe
00000300: 3bf1 05be 9b12 bfbe ce17 88be db29 13bf
00000310: 0e6c ab3c abf5 713e f8e3 47be fea0 f53a
00000320: b39e 3a3e 9b20 963d c91c 28be 9702 86be
00000330: 83c4 443e 55de 093e cd55 4bbe efcc 72bb
00000340: d247 963e 1b5b 673d 9471 73bd 7054 5a3d
00000350: 3c89 5fbe 0ca6 333e ce5c d4be db52 3c3e
00000360: 0a43 933d 4290 4fbe ca86 dd3d e2e4 663d
00000370: 662e d93d 35e9 4fbe 1463 683e a138 b2bd
00000380: 72ad 21be c5fb 9e3d 9327 423c 3e9d ad3e
00000390: f4a3 1ebe 9b38 5a3e 5deb 8fbe 2bb2 10be
000003a0: 046b debb 5d87 533e 7dd8 adbe ff02 9ebd
000003b0: 6b43 f53d f5f3 c3be 3ad0 c3be 8074 09bd
000003c0: 6f7f 5d3e 3777 e5bd 6550 3a3e ab01 403e
000003d0: 6fc6 c0be 9d77 8d3e 3bad 233e e92b 6ebe
000003e0: 2309 60bd 2d42 37be 19ad 35bd 6a58 9b3e
000003f0: fcba b33e f67c debe 9627 67bd 61ca 6abd

decoders.1.model.0.weight f4 [16, 8, 3, 3]
0.396307 0.14604177 -0.10552333 0.21539189 0.43473023 0.08824727 -0.3111776 -0.20540915
0.036335923 -0.058197632 -0.13766235 0.06042085 0.026755545 0.07277836 0.2238795 0.2948306
-0.05788722 0.029817425 0.076121 -0.043834217 -0.1832963 -0.26580253 0.44126344 -0.17530353
0.031722676 -0.19301519 0.39043024 -0.31350964 0.6496979 0.05225476 0.13462314 -0.085064515
0.010606299 -0.0028703397 0.55400556 0.2276207 0.091119066 0.34422174 0.2567703 -0.29625094
-0.22204702 -0.20963912 -0.10742162 0.040292326 -0.25686023 0.013743826 0.5082229 -0.18640651
-0.4364112 -0.47070262 -0.27190834 -0.25018254 -0.35401937 -0.2872405 0.4504456 -0.269928
0.53633076 0.1101748 0.15921494 0.0540254 0.35740256 -0.15854268 0.11370231 0.08236433
0.48012742 -0.2003364 0.29699823 -0.46795654 -0.42013016 0.29399335 -0.30328408 -0.3618161
0.08259416 -0.22974934 -0.15128314 -0.264095 0.033547852 0.05474225 0.28164864 0.15390007
-0.38528818 -0.27110255 -0.033556003 -0.33227694 0.26306763 0.41652617 0.31594816 0.36749855
0.16129433 0.26867366 -0.20048602 -0.6747591 0.043216016 -0.06680885 -0.13146684 0.21681552
-0.5072599 0.16933006 -0.041299812 -0.4675504 -0.43278232 -0.07349691 0.11431203 0.24183397
0.49339733 0.035560295 -0.29380605 -0.1318645 -0.37553504 0.3517529 0.104704656 -0.1513576
-0.35622367 0.27887702 -0.4149571 0.058498573 0.3327644 -0.10044572 -0.50798047 -0.012551075
0.0979074 -0.36369437 -0.26537934 -0.12089223 0.24346864 -0.108882174 0.12639296 0.4835385
-0.2074297 -0.19571923 0.16270413 0.18605298 -0.0045391475 0.30362552 0.030384436 -0.066971615
-0.27824712 -0.24612953 0.1733718 -0.5638979 -0.0940257 -0.18163402 0.020364065 -0.08231971
-0.16742237 -0.20313281 0.049102414 -0.29808432 -0.13154654 -0.06860955 0.03319178 -0.19049208
-0.07057989 0.06188866 0.07602815 0.4881918 0.018377138 0.0011224124 0.45215175 0.008970787
-0.6296248 0.1511398 -0.41470662 -0.21309428 0.47863817 0.073585 0.19526722 0.37256536
-0.09217004 0.1313659 0.00062242924 0.20718887 0.44083932 0.49635682 0.15445434 -0.6924158
0.40679732 -0.28495613 -0.49970385 0.051802862 -0.17291242 -0.25871894 0.15646164 -0.20336935
-0.5002982 -0.59097695 -0.18360147 -0.3947534 0.024568314 -0.49016023 -0.33011723 -0.13760431
-0.15800528 0.39002022 -0.10716628 -0.38554916 0.13747454 0.41315892 -0.13657159 -0.8094603
0.09870115 -0.12069716 -0.64938676 -0.34004143 -0.106252156 -0.2101895 -0.056501307 -0.21071011
0.099203885 0.17774887 -0.24021104 -0.14033195 -0.057852548 -0.2375494 -0.40930688 0.019492116
-0.18183857 0.04303747 -0.1577159 -0.024580296 -0.16318935 -0.0017116879 0.091313876 -0.111306
0.09201948 0.035040457 0.01858972 -0.34318095 -0.088146664 -0.48324153 -0.68947875 0.14125681
-0.33733022 0.06060418 -0.3617646 0.012923353 -0.45735127 0.13009611 -0.16718729 0.5084687
-0.08849759 -0.16661713 -0.04470883 -0.08737541 -0.16561884 -0.1819134 -0.06108753 -0.218867
0.1751149 -0.18907988 0.25053254 0.49777573 0.18140474 0.51389456 -0.16440138 0.34520504
00000000: c0e8 ca3e f98b 153e 9e1c d8bd b18f 5c3e
00000010: f694 de3e fcba b43d ac52 9fbe c756 52be
00000020: fad4 143d a460 6ebd 5cf7 0cbe da7b 773d
00000030: 722e db3c d20c 953d ab40 653e 09f4 963e
00000040: 261b 6dbd ac43 f43c 54e5 9b3d 828b 33bd
00000050: 06b2 3bbe 4517 88be 48ed e13e c582 33be
00000060: a3ef 013d c6a5 45be 79e6 c73e 5684 a0be
00000070: 9a52 263f 1609 563d a6da 093e 4e36 aebd
00000080: 0bc6 2d3c 4f1c 3cbb 4fd3 0d3f 6715 693e
00000090: a29c ba3d d53d b03e 6677 833e 34ae 97be
000000a0: 4b60 63be a3ab 56be deff dbbd 9109 253d
000000b0: 2f83 83be c92d 613c e51a 023f 59e1 3ebe
000000c0: 4a71 dfbe efff f0be 9237 8bbe ed17 80be
000000d0: 0742 b5be 3011 93be cea0 e63e 0134 8abe
000000e0: f94c 093f 53a3 e13d 3e09 233e bd49 5d3d
000000f0: 78fd b63e 0359 22be c2dc e83d a1ae a83d
00000100: 43d3 f53e fc24 4dbe 2710 983e 0098 efbe
00000110: 4d1b d7be 4c86 963e 0d48 9bbe f63f b9be
00000120: 2127 a93d 6943 6bbe f8e9 1abe 7637 87be
00000130: 7969 093d 6939 603d 4034 903e fb97 1d3e
00000140: 7e44 c5be f4cd 8abe 0572 09bd 3420 aabe
00000150: cdb0 863e eb42 d53e f5c3 a13e c528 bc3e
00000160: 572a 253e 988f 893e 354c 4dbe 03bd 2cbf
00000170: 4703 313d 14d3 88bd 3e9f 06be e304 5e3e
00000180: c9db 01bf dc64 2d3e fe29 29bd c462 efbe
00000190: a595 ddbe 8c85 96bd 6d1c ea3d 53a3 773e
000001a0: 939e fc3e aca7 113d bf6d 96be 7d07 07be
000001b0: 2146 c0be f518 b43e 656f d63d 7dfd 1abe
000001c0: f362 b6be f8c8 8e3e 4275 d4be 339c 6f3d
000001d0: 1860 aa3e 7cb6 cdbd 020b 02bf 06a3 4dbc
000001e0: ad83 c83d 2636 babe cddf 87be 5896 f7bd
000001f0: d84f 793e 9efd debd 286d 013e 5c92 f73e
00000200: 7468 54be 9f6a 48be e99b 263e ac84 3e3e
00000210: 21bd 94bb ce74 9b3e c8e8 f83c 6a28 89bd
00000220: 6876 8ebe 6109 7cbe 6188 313e 9d5b 10bf
00000230: 8c90 c0bd 45fe 39be 8ad2 a63c 3c97 a8bd
00000240: c570 2bbe 0c02 50be 9d1f 493d 829e 98be
00000250: 23b4 06be 2a83 8cbd 1bf4 073d 5b10 43be
00000260: 308c 90bd f77e 7d3d a6b4 9b3d 47f4 f93e
00000270: a78b 963c e91d 933a 6f80 e73e 35fa 123c
00000280: 172f 21bf 64c4 1a3e 6d54 d4be 6335 5abe
00000290: 1010 f53e bcb3 963d 21f4 473e e3c0 be3e
000002a0: a5c3 bcbd c884 063e 852a 233a 5229 543e
000002b0: b1b5 e13e 7b22 fe3e 4729 1e3e 2942 31bf
000002c0: bd47 d03e c5e5 91be 2fd9 ffbe 3d2f 543d
000002d0: f40f 31be cf76 84be 7b37 203e 0e40 50be
000002e0: 8b13 00bf 444a 17bf 0602 3cbe 1e1d cabe
000002f0: 7d43 c93c 48f6 fabe 2005 a9be 25e8 0cbe
00000300: 23cc 21be bbb0 c73e ff79 dbbd b366 c5be
00000310: 20c6 0c3e 9189 d33e 6cd9 0bbe ca38 4fbf
00000320: d423 ca3d 1330 f7bd 363e 26bf e919 aebe
00000330: bb9a d9bd eb3b 57be ea6d 67bd 64c4 57be
00000340: 682b cb3d cd03 363e e2f9 75be 2eb3 0fbe
00000350: cbf6 6cbd 2640 73be ac90 d1be eead 9f3c
00000360: e433 3abe 0f48 303d 4780 21be 9e5c c9bc
00000370: 1c1b 27be b75a e0ba c502 bb3d 66f4 e3bd
00000380: b674 bc3d 9586 0f3d 7849 983c 6ab5 afbe
00000390: 3d86 b4bd 6f6b f7be ae81 30bf a0a5 103e
000003a0: 8cb6 acbe 173c 783d 3639 b9be 79bc 533c
000003b0: f229 eabe ea37 053e 2533 2bbe 012b 023f
000003c0: 393e b5bd ae9d 2abe 9b20 37bd e1f1 b2bd
000003d0: fc97 29be 8247 3abe eb36 7abd ac1e 60be
000003e0: 5251 333e 289e 41be cd45 803e 76dc fe3e
000003f0: 2ac2 393e 988e 033f d658 28be b7be b03e

decoders.1.model.0.bias f4 [8]
-0.5105995 -0.57685053 -0.12667392 -0.20605357 -0.09169024 -0.33528852 -0.17980607 -0.44864312
00000000: a6b6 02bf 7aac 13bf cfb6 01be b5ff 52be
00000010: 18c8 bbbd f0aa abbe 151f 38be 8db4 e5be

decoders.1.model.2.weight f4 [8, 1, 3, 3]
-0.25179526 -0.80752695 -0.73609954 -0.03783517 -0.49818003 -0.25985345 -0.33048555 -0.34538028
-0.047383256 -0.570167 -0.939002 -0.9681771 -0.17611645 -0.8144311 -0.6138334 0.087462656
-0.10244067 -0.08998641 0.24941695 0.1830656 0.14566672 -0.055806067 -0.47380415 -0.3800084
-0.28922307 -0.7212352 -0.7264119 -0.019340184 -0.55215544 -0.5766182 -0.2228552 -0.6356388
-0.5236474 0.019302228 -0.14976716 -0.118648216 0.1981525 -0.018435897 -0.040029623 -0.18024631
-0.4368006 -0.353624 -0.3757569 -0.5293742 -0.4787182 -0.17459103 -0.55932564 -0.6263985
-0.25882742 -0.6368784 -0.6122311 -0.37833804 -0.40699154 -0.24373014 -0.18945436 -0.40524727
-0.26739028 -0.10101416 -0.24189948 -0.07807378 0.33900142 0.5359875 0.6018153 0.3671763
0.49831653 0.40771133 0.49677002 0.5896945 0.537902 0.4137464 0.5004737 0.36631662
00000000: 4feb 80be 16ba 4ebf 0571 3cbf 0df9 1abd
00000010: 7411 ffbe 830b 85be 6735 a9be afd5 b0be
00000020: f214 42bd 77f6 11bf 6f62 70bf 74da 77bf
00000030: df57 34be 8e7e 50bf 3024 1dbf 9f1f b33d
00000040: 6acc d1bd cc4a b8bd 2867 7f3e 8c75 3b3e
00000050: a829 153e e794 64bd 7596 f2be 7690 c2be
00000060: 0c15 94be dfa2 38bf 21f6 39bf 4e6f 9ebc
00000070: 0f5a 0dbf 409d 13bf 2734 64be 39b9 22bf
00000080: c20d 06bf b51f 9e3c 905c 19be d6fd f2bd
00000090: 7de8 4a3e e106 97bc 1af6 23bd 7d92 38be
000000a0: 54a4 dfbe 340e b5be 3563 c0be 1185 07bf
000000b0: 8d1a f5be fec7 32be f72f 0fbf a75b 20bf
000000c0: 0785 84be 760a 23bf 2dbb 1cbf 86b5 c1be
000000d0: 3261 d0be 6594 79be 5300 42be 927c cfbe
000000e0: 61e7 88be 83e0 cebd 7fb4 77be 25e5 9fbd
000000f0: 9891 ad3e 7a36 093f 9110 1a3f 88fe bb3e
00000100: 5823 ff3e 8abf d03e a458 fe3e 38f6 163f
00000110: f2b3 093f 91d6 d33e 0b1f 003f da8d bb3e
