models/model_octminst_8.pth (torch, 563411 bytes, 27 tensors)

weights f4 [4, 784]
00000000: 12ac 883f bd57 623f c60b 623f d0c2 663f
00000010: 6275 713f dca1 5b3f bfea 813f 8e27 6d3f
00000020: 9b9c 583f c454 453f 4795 743f a6a3 4a3f
00000030: 9c73 583f 5543 183f d21f 0b3f 7cad 1c3f
00000040: 611a 7a3f f068 613f f1e9 713f 07d0 503f
00000050: 5849 3f3f c160 313f 231d 433f f5ad 373f
00000060: a05f 583f 082e 543f 594b 5a3f 7242 5f3f
00000070: c989 543f 588b 253f 4f04 2f3f 229f 0a3f
00000080: 7500 373f 26cb 093f 579a 763f 7d3b 3e3f
00000090: 653f 773f ada3 313f 34ef 2a3f 3908 063f
000000a0: 1e93 3b3f 0d32 193f 11cb 383f d908 243f
000000b0: 92fc 683f 3529 433f d865 4e3f ff64 1e3f
000000c0: 323f 273f 7e48 1f3f 11bb 593f 2df5 2e3f
000000d0: c1f8 403f b53e 273f 4f98 773f acfe 7c3f
000000e0: 8287 2e3f e7ae 253f 0061 2c3f 2cec 233f
000000f0: b1ab 523f 28b5 493f 0707 613f bd84 2a3f
00000100: c903 2c3f 6642 353f eb82 6e3f 2f66 543f
00000110: 96a3 353f 6da4 1c3f 0381 6f3f 9835 4c3f
00000120: 73b1 5b3f b326 3d3f 2e8c 573f 9039 293f
00000130: 9241 523f c5b4 383f 299f 713f b75a 313f
00000140: f854 333f afe4 153f b1dc 473f 78d6 1f3f
00000150: dbbb 1d3f 43ae 343f b897 533f bdbb 253f
00000160: 294f 393f 496d 303f 0e23 4e3f dbad 2d3f
00000170: 56af 5f3f 05e7 423f 8108 623f d753 2b3f
00000180: 0a68 4f3f dfd6 263f 5903 3f3f 69d2 273f
00000190: 0abd 5c3f 063a 3b3f 4aa4 433f b32d fa3e
000001a0: 656c 183f 8f95 db3e d06b 153f 6315 ce3e
000001b0: 7933 103f 2f60 023f 6b08 2b3f 4bf4 2e3f
000001c0: 2f5a 7c3f e061 883f 5928 883f 260a 5f3f
000001d0: 79ca 593f a035 2e3f 377b 863f 70bc 663f
000001e0: 9d58 563f 5d00 433f ebcd 823f e74c 423f
000001f0: 07f4 4d3f 44e9 1c3f 78ba 3c3f a681 173f
00000200: 8add 083f 8b3f 103f 5a78 443f c691 373f
00000210: 724b 583f 0773 723f 0831 883f 2b2b 673f
00000220: 5ab3 4e3f 6433 3d3f dd31 463f 0a66 413f
00000230: d619 4e3f 180e 5c3f 94d3 453f 0e69 0c3f
00000240: 52f1 2d3f 32f1 183f 10f3 403f 8bc7 3d3f
00000250: 00c2 5f3f 32b6 4d3f 6830 613f 805b 2e3f
00000260: 43a4 433f b92c 353f 772c 7c3f ba53 523f
00000270: b2d5 6d3f f3c8 543f 5f43 1a3f 1a69 063f
00000280: fa9c 0d3f e6ca d13e 28ae bd3e 7800 7b3e
00000290: 6d75 1c3f 5296 2a3f 1391 4c3f 3b4c 213f
000002a0: 0a75 843f 7d24 933f ca7c a23f 1936 8b3f
000002b0: 098b 7f3f ade5 823f 4e75 8c3f 58b1 8c3f
000002c0: a739 8a3f db11 763f d224 913f 8566 2e3f
000002d0: 640d 463f c0a4 813f 3904 b73f e2ca 9d3f
000002e0: 1628 813f e496 4b3f eb72 2b3f d502 213f
000002f0: 1a5d 5e3f 5e92 3a3f 7990 693f 5912 8b3f
00000300: af8c 813f 1d35 833f 87e9 5e3f f04c 663f
00000310: 88ae c43f a979 b03f b7f7 983f 5f2a 793f
00000320: 2fe4 453f 8a38 4a3f fe06 5f3f d784 523f
00000330: e804 703f aa8c 573f 5c8a 603f dbab 363f
00000340: 7846 613f a467 533f 6d4b 8a3f 9090 773f
00000350: 5461 543f 45a9 3b3f a20c 503f e55e 5b3f
00000360: 5af0 933f 29eb 5a3f ea85 813f ba5e 7c3f
00000370: 766e 753f 8789 813f 170b 913f 931d 7d3f
00000380: 2973 993f 6bcb 9f3f 2398 bd3f deb9 bd3f
00000390: c37c a53f 0490 9d3f 2ae6 ae3f 5466 9e3f
000003a0: 988c b43f fa99 a13f 4798 b03f 5975 a83f
000003b0: 1c6e a83f 74d4 b73f 16e5 ad3f 2f28 503f
000003c0: 7282 993f 5cc3 573f 161f 4e3f 3724 803f
000003d0: 4e3c 6f3f 4073 753f 79f2 a63f 3dc4 b93f
000003e0: 821e 923f ee91 913f f57e 773f 39e8 6a3f
000003f0: dbfd a53f 7a68 9f3f 45ae 793f 9ea4 6d3f
1.0677512 0.8841513 0.88299215 0.9014101 0.94319737 0.8579385 1.0149764 0.9263848
0.8461396 0.7708247 0.9554028 0.7915596 0.84551406 0.5947774 0.5434543 0.61202216
0.976965 0.88050747 0.9449759 0.81567425 0.7472129 0.6928826 0.76216334 0.7174981
0.8452091 0.8288274 0.8527122 0.8721076 0.83022743 0.64665747 0.6836595 0.5414907
0.7148507 0.53825605 0.96329254 0.7430952 0.9658111 0.69390374 0.66771245 0.52356297
0.7327136 0.59841996 0.72184855 0.64076 0.9101039 0.7623475 0.8062415 0.6187286
0.65330803 0.6221999 0.85051066 0.6834286 0.7537957 0.6533006 0.9671678 0.988261
0.6817552 0.64720005 0.6733551 0.64032245 0.8229323 0.7879205 0.8790135 0.6660879
0.67193276 0.7080444 0.93168515 0.8296842 0.7095274 0.61188394 0.9355623 0.7976928
0.8581764 0.73887175 0.8419827 0.6610346 0.821313 0.7215083 0.94383484 0.69279045
0.7005153 0.5855207 0.78071123 0.6243663 0.6161477 0.705784 0.8265338 0.6473959
0.72386414 0.68916756 0.8052224 0.6784341 0.87376916 0.7613376 0.88294226 0.66924804
0.81018126 0.6517162 0.74614483 0.65555435 0.8622595 0.7313541 0.7642256 0.4886299
0.59540397 0.42887542 0.58367634 0.40250692 0.5632854 0.50928015 0.6680972 0.6834151
0.9857511 1.0654869 1.0637313 0.8712486 0.85074574 0.68050575 1.0506352 0.9013128
0.83728963 0.7617243 1.0219091 0.75898594 0.8045048 0.61293435 0.7372203 0.591822
0.5346304 0.5634696 0.7674614 0.7170681 0.8449012 0.9470677 1.0639963 0.90300244
0.8074242 0.7390654 0.77419835 0.75546324 0.8050817 0.85959005 0.7727597 0.548478
0.6794635 0.59743035 0.75370884 0.74132603 0.87405396 0.80356133 0.8796449 0.6810837
0.7642252 0.70771366 0.9850535 0.82159007 0.929042 0.83119124 0.6025905 0.5250412
0.5531765 0.40975112 0.37046933 0.24511898 0.6111668 0.6663562 0.79908866 0.63006943
1.0348217 1.149551 1.2694333 1.0875884 0.99821526 1.0226341 1.0973299 1.0991621
1.0798844 0.96120995 1.1339362 0.6812518 0.7736418 1.0128403 1.4298164 1.232754
1.0090358 0.79527116 0.66972226 0.62894946 0.8686081 0.7287959 0.9123607 1.0864974
1.0121058 1.0250584 0.87075084 0.8996115 1.5365763 1.3787128 1.1950597 0.9733028
0.77301306 0.7899252 0.87120044 0.8223395 0.93757486 0.8419901 0.8771112 0.7135598
0.8799815 0.8258002 1.0804268 0.9670496 0.8296101 0.7330516 0.81269276 0.8569167
1.1557724 0.85515076 1.0118992 0.9858204 0.95871675 1.0120095 1.1331509 0.9887325
1.1988269 1.2483953 1.4812053 1.4822347 1.2928699 1.2309575 1.366399 1.2374978
1.4105406 1.2625115 1.3796471 1.3160812 1.3158603 1.436171 1.3585536 0.81311315
1.1992934 0.8428247 0.80516183 1.0011052 0.9345139 0.9587898 1.3042747 1.4513012
1.141556 1.1372659 0.96678096 0.91760594 1.2968096 1.2453759 0.9753154 0.9282931

encoder.model.0.weight f4 [8, 1, 3, 3]
00000000: 8629 c7be d245 fb3e 2e3c 9e3f 1488 e8be
00000010: 9560 973d ae1e 533f 794f 13be 3618 4fbf
00000020: 9214 e43d 6c8b 1db7 a18e dfb6 045f d8b6
00000030: b82d 59b7 5531 22b7 375f 15b7 bf30 b6b7
00000040: 9f4e 8db7 1b1e 71b7 649d 0300 f5fa d58e
00000050: 5157 f689 ce57 0500 60cf 6680 49d1 1805
00000060: 305f 0500 e55a 0500 045a 0500 d4d1 463e
00000070: af85 563e aa99 0e3e 0be2 c9be efbe d2be
00000080: 1a5c 02bf de99 d73d b79a 013e 46bd ee3e
00000090: fc72 a9be 58e4 1e3d d07d d1be fe66 44be
000000a0: 0c7c d03e d49a f43e 85f1 b83e 8c0f 2e3e
000000b0: 65f0 003f dece e2bb 489e 1dbe dfc4 7a3e
000000c0: 2af8 e8be d755 343d 36d4 5f3e 9e62 fb3d
000000d0: 440b b63e 2724 3e3f bda7 10bd 1cec f8bc
000000e0: 629a f7bc b583 bfbc ef96 c3bc ee6c cbbc
000000f0: b63b e3bc 2ddf d7bc 4255 d8bc 8a66 cbbe
00000100: b36a 2fbd 6071 2cbf b3b4 ab3e 4148 6d3f
00000110: fc4a 283e d026 cfbe 508c d23e 9773 5f3d
-0.38898867 0.49076706 1.2362115 -0.4541632 0.073914684 0.8246869 -0.14385785 -0.8089632
0.11136736 -9.390391e-06 -6.662522e-06 -6.448363e-06 -1.2944853e-05 -9.6674385e-06 -8.903261e-06 -2.171879e-05
-1.684512e-05 -1.4371729e-05 3.31968e-40 -5.2750217e-30 -5.9304458e-33 4.90676e-40 -9.441613e-39 7.185445e-36
4.93324e-40 4.91784e-40 4.91469e-40 0.1941598 0.20949434 0.13925806 -0.3943027 -0.41161296
-0.50921786 0.10527395 0.12656675 0.4662878 -0.3309554 0.038791984 -0.409163 -0.19179913
0.4071964 0.47774374 0.36121765 0.16998118 0.5036681 -0.006921633 -0.15392411 0.24489163
-0.45501834 0.044027176 0.21858296 0.12274669 0.3555547 0.74273914 -0.035316218 -0.030386023
-0.030224983 -0.023378232 -0.023875682 -0.024832215 -0.027738433 -0.026351536 -0.026407842 -0.3972667
-0.042826366 -0.67360497 0.335363 0.92688376 0.16434854 -0.404593 0.41122675 0.054553594

encoder.model.0.bias f4 [8]
00000000: 77cf 14bd 798a e3af d50d 3dab 95ce 99bb
00000010: 50fb f5be a0ac adbd 010c dcbc 6b6e e53c
-0.036330666 -4.138945e-10 -6.7165484e-13 -0.004693816 -0.480433 -0.08480191 -0.026861193 0.028006753

encoder.model.2.weight f4 [16, 8, 3, 3]
00000000: 6e6a 84b8 9f3f 1b3b 4361 183b a4ca b5bb
00000010: c84d 963b 5e2a a13b e04a dfbc a75a 81bc
00000020: a89e 7cbc 2070 0500 4b68 0500 c474 0580
00000030: 5958 0580 9c58 0580 71d9 0680 1681 0580
00000040: 8e5a 0580 da87 0580 d657 0500 bd73 0500
00000050: 0a74 0500 abff 0580 7b63 0500 1d76 0580
00000060: 2479 0500 8f66 0580 adb1 0500 e2eb 20bc
00000070: 89d2 83bb ce56 3fbb d215 2b3c 3668 6d3c
00000080: 70be 413c ba2d dcbb 9b76 72bb 26aa cdba
00000090: 64f8 cbbc 7342 68bc 16e1 0abc 2a8d 383a
000000a0: a652 ec3b 5f45 273c 1138 81ba cea3 21ba
000000b0: 86ec b839 0505 c9bb 3728 ad3a 9073 993b
000000c0: 60e6 07bd 3ea4 94bc 8d20 a8bc 959c 1cbd
000000d0: a43f 0cbd 8c5a f0bc 28ba 0600 fbef 0500
000000e0: 8ad5 0580 e2b9 0580 72af 0500 9179 0580
000000f0: eb49 0680 1f79 0580 9e00 0680 84ae 1abd
00000100: 26a7 c7bc a54f b8bc dc4e 0fbd 749a f1bc
00000110: 3e5d 02bd 2a86 35bd 652f 31bd b997 32bd
00000120: 9358 cc3d eb21 0e3e 73a4 58be 75df f7bd
00000130: ff72 f33d 3b42 fbbe 27ac ff3c 028b 8c3d
00000140: 21c7 bfbe 1dd5 1d05 a263 0500 5263 0500
00000150: c962 0500 6c5c 0500 875f 0500 c35a 0580
00000160: 7458 0500 535e 0580 975d 0580 9065 0500
00000170: e45d 0580 0572 0680 335f 0500 c45d 0500
00000180: 7d9c 0500 b99c 0580 1078 0580 1205 253d
00000190: 2987 043f 5846 8fbe c388 be3e 8dcc 853f
000001a0: 5fa7 61bc 7dbd a0bd 93dc 3d3f 7ad1 4ebd
000001b0: 2ba2 203f 4013 973e 66bc fcbe 495b c83d
000001c0: 0223 2ebe 6967 d6be 907d 9cbd 0c4a cabe
000001d0: 8f37 38bf 44a2 f43d 8c04 793e f1ec 063e
000001e0: f3e8 e83d aa98 a23e 2037 a53d 2fa1 38be
000001f0: dae8 893e e1d4 dcbe 8096 933c c430 a93c
00000200: 12f7 a43c a724 c33c 28a0 ea3c 5e2d f93c
00000210: 5eb6 0d3c c5fd 733c ae0c 6b3c 3f28 1ebf
00000220: 4a2f 6cbf 180d fa3d 3599 bdbe 8e23 3abe
00000230: a950 833e 3ffd 9f3e 5ec3 573e 1965 b43e
00000240: faa9 ee3b ff77 843b 146d 283b 14b6 21bc
00000250: 68ec 1abc 82a2 d3bb ad7c 86bc 9a30 66bc
00000260: c229 59bc 1b82 0500 975b 0500 825b 0500
00000270: 2980 0580 a297 0580 715d 0580 e25a 0580
00000280: e539 0680 da7a 0680 2111 0680 945a 0500
00000290: 9f94 0500 aa6f 0500 f96a 0580 5621 0600
000002a0: 1b83 0580 c05e 0580 1259 0500 24d5 fbbc
000002b0: 0246 14bd 0229 2ebd 519e 2fbc 5988 95bc
000002c0: 669e 86bc 6032 54bd e1ba 57bd d545 61bd
000002d0: a18b a7bc 8611 42bc ac72 5fbc 98b7 10bd
000002e0: 6be8 06bd b25d 07bd 7ec0 23bd 66b9 26bd
000002f0: 16aa 27bd f7e9 25bc 4d41 16bc 09ba 0dbc
00000300: ed58 74bc acdf 6abc 1c5d 6dbc 76be 03bd
00000310: a869 e4bc 0858 11bd 4463 0680 61ba 0600
00000320: 2c02 0600 bf68 0600 8a3e 0680 bcbb 0600
00000330: 0925 0680 849e 0680 84d3 0680 67ef babc
00000340: b4fa b0bc c80c a4bc 8188 17bd 4027 03bd
00000350: c3e4 03bd 6a45 d1bc b788 dcbc b048 c4bc
00000360: 4330 05bf b9d6 f5be d686 833e ffa1 763d
00000370: b9aa 01bd f769 92be 5510 a4bd b82f 2b3e
00000380: e298 8c3e d0be 96b1 e06b 56b0 bb6e 75b0
00000390: 7328 8cb2 5309 30b1 28a7 c8af 86e2 1eb0
000003a0: 28c3 4baf 1a47 1eaf c9bc 0580 b360 0500
000003b0: 9d58 0580 9459 0580 d764 0580 4de9 0500
000003c0: 30ac 0500 bc5f 0500 2773 0580 9974 e23d
000003d0: 58c1 c2be 8f32 f6be 56e9 6b3e cd75 e13e
000003e0: 7154 f33e 6cb5 11bf a6b9 9cbf 7cdb d8be
000003f0: 475a 213d b753 57bd 0dbf 3cbe 6f1e 93be
-6.3140746e-05 0.0023689044 0.0023251332 -0.0055478383 0.004586909 0.0049183806 -0.027257383 -0.015790297
-0.015418686 4.994e-40 4.96591e-40 -5.01065e-40 -4.9087e-40 -4.90965e-40 -6.29016e-40 -5.05485e-40
-4.91662e-40 -5.07912e-40 4.90687e-40 5.00697e-40 5.00804e-40 -5.50894e-40 4.94864e-40 -5.01549e-40
5.02635e-40 -4.95969e-40 5.22916e-40 -0.009821864 -0.0040229005 -0.0029196027 0.010442214 0.014490178
0.011825189 -0.006719318 -0.0036996964 -0.0015690967 -0.024898715 -0.014175999 -0.008476516 0.0007040078
0.007212001 0.01020941 -0.0009858628 -0.00061660714 0.00035271439 -0.0061346316 0.0013210837 0.0046829656
-0.033178687 -0.018144723 -0.020523334 -0.038235266 -0.03424038 -0.029340051 6.17793e-40 5.45266e-40
-5.35781e-40 -5.2586e-40 5.22115e-40 -5.02787e-40 -5.7753e-40 -5.02628e-40 -5.51234e-40 -0.037764087
-0.024371695 -0.022498915 -0.034987316 -0.029492594 -0.031827204 -0.044317402 -0.04325809 -0.043601725
0.09977832 0.13880126 -0.21156482 -0.12103168 0.11887168 -0.49073967 0.031210018 0.06862451
-0.3745661 7.421247e-36 4.94919e-40 4.94807e-40 4.94615e-40 4.92332e-40 4.93446e-40 -4.91737e-40
4.90908e-40 -4.93015e-40 -4.92751e-40 4.95611e-40 -4.92859e-40 -5.91915e-40 4.93329e-40 4.92814e-40
5.15315e-40 -5.15399e-40 -5.02248e-40 0.04028804 0.5176874 -0.27983356 0.37213716 1.0453049
-0.013772815 -0.07848642 0.74164695 -0.05049274 0.6274745 0.29506874 -0.49362487 0.09783036
-0.17005542 -0.4187577 -0.07641137 -0.39509618 -0.71959776 0.11945012 0.24318141 0.13176323
0.113725565 0.31757098 0.08067155 -0.18030237 0.26935464 -0.43131164 0.0180161 0.020653136
0.020137344 0.023821188 0.028640822 0.03041714 0.008649437 0.014892046 0.014346285 -0.6178016
-0.9225966 0.12209529 -0.3703095 -0.18177626 0.25647476 0.312479 0.2107062 0.3523338
0.0072834464 0.004042625 0.0025699781 -0.009870071 -0.009455778 -0.0064585814 -0.016416872 -0.014049673
-0.013254585 5.0585e-40 4.92034e-40 4.92004e-40 -5.05153e-40 -5.13573e-40 -4.92698e-40 -4.9178e-40
-5.71782e-40 -5.95084e-40 -5.57158e-40 4.91671e-40 5.12493e-40 4.99235e-40 -4.97552e-40 5.62972e-40
-5.06209e-40 -4.93167e-40 4.9113e-40 -0.030741282 -0.036199577 -0.042519577 -0.010718898 -0.018253492
-0.016432952 -0.051805854 -0.052668456 -0.054998238 -0.020452322 -0.011844998 -0.01363818 -0.03533134
-0.032936495 -0.03304834 -0.039978497 -0.040704153 -0.04093369 -0.010126582 -0.009170842 -0.008650311
-0.01491378 -0.014335554 -0.014487531 -0.03216406 -0.027882412 -0.035484344 -5.86623e-40 6.17873e-40
5.51792e-40 5.88589e-40 -5.73448e-40 6.1836e-40 -5.64299e-40 -6.07878e-40 -6.2689e-40 -0.022819234
-0.02160392 -0.020025626 -0.036995415 -0.032019854 -0.032200586 -0.025545795 -0.02692066 -0.023960441
-0.52026767 -0.48015383 0.2568881 0.060213085 -0.031656954 -0.2859647 -0.080109276 0.16717422
0.2746039 -4.3872674e-09 -7.8006046e-10 -8.928784e-10 -1.631654e-08 -2.561667e-09 -3.649856e-10 -5.7801974e-10
-1.8532076e-10 -1.4395277e-10 -5.26901e-40 4.93867e-40 -4.90966e-40 -4.91312e-40 -4.95352e-40 5.4287e-40
5.20947e-40 4.9352e-40 -5.00486e-40 0.110573955 -0.38038135 -0.48085448 0.2303823 0.44035187
0.4752536 -0.5691745 -1.2244155 -0.42354953 0.039392736 -0.05257007 -0.18432255 -0.28734156

encoder.model.2.bias f4 [16]
00000000: d2fe 32bd dc10 9e3d 5e7a b4bc 9509 153e
00000010: 0d90 2f3e c35e 3fbd 13f6 983d 2891 72bc
00000020: 372d 873d f8f3 4d3e cb95 493c ea6a bd3d
00000030: d44f b33c c6be e53b 313f c43d 11a9 b1bd
-0.043700047 0.077180594 -0.022031005 0.14554437 0.17144795 -0.04672123 0.0746881 -0.014805116
0.06600421 0.20112598 0.01230378 0.09248908 0.021888651 0.0070112674 0.09582365 -0.08674825

encoder.fc.weight f4 [32, 784]
00000000: bf86 9338 6053 48b5 96e0 83b7 b932 08b7
00000010: 9b28 4736 4434 9e36 fed2 ea36 0eb2 40bd
00000020: 6ed3 2dbd 4201 2cbd 5f92 31bd 1640 0ebd
00000030: 3ad8 bebc a360 86bc fcca 77bb cab5 0cbc
00000040: 3355 a6bc d76f 0fbd f7c3 2bbd 0b8e efbc
00000050: 9ff9 6fbc 85c5 3bbb 9a36 bb3b 3903 863b
00000060: 55a5 6c3b 6b7e 673a c691 73bb 8dec 67bb
00000070: cf9d 37bc 4b7a 16bc bf40 17bc d7b4 18bc
00000080: 2214 3bbc 27e2 60bc be5c 25bc f427 bdbb
00000090: 9bd4 dabb 8353 51bc b52b 64bc 1c32 65bc
000000a0: 09e2 44bc df65 3bbc f311 17bc fbfd e2bb
000000b0: f714 92bb aeb1 eeba ce7f 83ba 0c29 efb9
000000c0: bf12 8ab9 3bdb 193e 9e7c 77be 21c5 c83d
000000d0: 3f23 81be 6902 1dbd d60d f5bc fa77 9fbe
000000e0: ccab 193e 7780 c03d 3492 6bbe e32d 20be
000000f0: 32bb 30bd 4d00 db3c af27 bbbd 553f 1bbd
00000100: 405c e7bc ef2e 3a3e 8662 4e3e f2cd af3e
00000110: da0c 573e 131c 60bc 3d67 5abe f65f 6b3e
00000120: db21 143e 745a 39be 8e46 d13e cc96 52b7
00000130: 286a 8abe e0ec f3bd 1b01 a63e 2ffc 3dbe
00000140: 8970 683f 060d 54bd 66c5 17be 2973 9f3e
00000150: e109 89be 919d c93d 1655 263e fc41 36be
00000160: 62d4 f43d 9a29 083c 762f cd3d 8900 f0bd
00000170: 332a 08bd fdb3 dd3d bb3a 49bd 01f8 83be
00000180: 1922 343e 0146 01bf 15c8 273d 59c3 1f3d
00000190: 1979 183d f4d1 103d df7e 103d 47bb 103d
000001a0: aefd 153d f26f 3b3d 3561 403d 7c7a 3e3d
000001b0: 5939 563d 73e3 593d e147 553d d423 493d
000001c0: 635c 833b 1289 9f3b 7585 4c3c 7873 e03b
000001d0: 1360 0f3c 9c3e 573c 7802 403c 1d9b e03b
000001e0: 41bb 273b 348d ad3b ac88 363b 16d8 e9ba
000001f0: 6a6e 82bb c36e 1c3c d476 413b c454 0c3b
00000200: bc74 3a3c 72c6 5a3c 6f53 8d3c 654d 9e3c
00000210: 4113 8f3c 57d0 633c 7370 923c d141 b53c
00000220: 2317 ad3c 1ee0 bb3c f87d c13c d0f4 923c
00000230: fd91 723c 13d6 8e3c fe9f 943c 9d5f 8a3c
00000240: c190 853c 4d9c 813c 9e5b 8c3c 2194 acbe
00000250: e912 9ebe 0e8b 13be 9d96 acbe f9e8 8bbd
00000260: 0302 febd d057 e33d d58b 1fbe 75d5 393e
00000270: 036f 9fbc be70 8dbd cb45 403e f8b7 8c3e
00000280: 9061 37bd 8b55 213f ff3f ad3d e0cc 023e
00000290: 2ba7 203e 28fa 143f 9a81 eabe d48a 093e
000002a0: 5f34 543d 78c8 103d a70e 033e ecc6 8ebe
000002b0: f13b afbe 4798 39be 828a 8a3c c913 a3bd
000002c0: 3462 6dbe cbe2 fa3c 6281 3bbf 869e 203d
000002d0: bef0 993e 47cb cb3d 6a09 cebe 7787 c3be
000002e0: d530 0fbe 824f c7be f649 a0bc b528 423e
000002f0: b9d6 863e 4ac7 5f3e 7f08 9e3e 77c1 2cbd
00000300: 9cfc 373e 312c a93e 6f1e 2abe 9417 8e3e
00000310: 1f26 bfbc e75c 0cbd 61ed 793c f351 513e
00000320: 2407 893d 51e2 253e fb8c 65bc c5ed 02bd
00000330: 567d c1be 98e1 a7be 9dc9 bebe 7fb5 79be
00000340: 441f ccbe eb0f 4c3d f3df 1ebe fde0 a9bd
00000350: b398 c33e 8ea7 f43e 75c3 6e3d 7fb4 543e
00000360: 1a1c 7dbe f1e6 9bbe 2433 aa3e 59b4 893e
00000370: 6d9c 4e3e b56d eb3e 0339 dc3e 8760 813e
00000380: 8b2a f0bd 95a3 efbc 7f11 d2bd 343c b7be
00000390: 1106 e13d 6b17 99be 5ecf 173d a89d c2be
000003a0: 272b 463e d5f8 9d3e a39f e63d 7fa2 943c
000003b0: e22b c63d c3e5 3a3f 7193 ba3d d6d1 d43d
000003c0: 0988 9dbd a427 f83b 9c59 41be d4a8 2ebd
000003d0: 6808 67be ec55 3d3d 5fcc 1d3d 34cb cdbd
000003e0: f373 5c3d bbe2 aebc accd 713c d2e7 223d
000003f0: b2fd fb3e b7b0 623d 8649 ef3e ed4f 043f
7.034605e-05 -7.462713e-07 -1.5720998e-05 -8.1180415e-06 2.9676946e-06 4.7148515e-06 6.998306e-06 -0.047044806
-0.042437963 -0.041993387 -0.04335248 -0.034729086 -0.023296464 -0.016403502 -0.0037810197 -0.008588264
-0.020304298 -0.03501877 -0.041934934 -0.029242536 -0.014646917 -0.0028651666 0.005713296 0.0040897396
0.0036109288 0.00088307884 -0.0037165745 -0.0035388798 -0.011207058 -0.00918443 -0.009231745 -0.009320459
-0.011418374 -0.013725794 -0.010092912 -0.005772585 -0.0066781766 -0.012776258 -0.013926436 -0.013988998
-0.012016782 -0.011437862 -0.009220588 -0.0069272495 -0.0044580656 -0.0018210912 -0.0010032596 -0.00045616215
-0.00026335378 0.15025036 -0.24168631 0.09803224 -0.25222203 -0.038332377 -0.029913824 -0.31146222
0.15006942 0.09399503 -0.23004991 -0.15642504 -0.043147273 0.026733542 -0.091384284 -0.037902195
-0.02824223 0.18181966 0.20154771 0.3433681 0.21000996 -0.013678568 -0.21328445 0.22985825
0.1446604 -0.18100911 0.4087414 -1.25520855e-05 -0.27034116 -0.11910415 0.32422718 -0.18553232
0.90796715 -0.051770233 -0.14821395 0.31142548 -0.2676535 0.098445065 0.16243395 -0.17798609
0.11954571 0.0083107 0.10018818 -0.11718852 -0.03324337 0.10825346 -0.049128275 -0.2577515
0.17591132 -0.5049744 0.040962297 0.039004657 0.037224863 0.035356477 0.035277244 0.03533485
0.03661888 0.045761056 0.046967704 0.04650353 0.052300785 0.053195428 0.052070502 0.049106434
0.004008816 0.004868635 0.0124829905 0.0068497024 0.008750933 0.013137486 0.011719339 0.0068544284
0.002559379 0.0052963737 0.002785246 -0.0017840888 -0.0039804475 0.009547892 0.002952029 0.002141283
0.011380371 0.013352977 0.017251698 0.019324014 0.017465236 0.013904653 0.017875886 0.02212611
0.021129197 0.022934016 0.023619637 0.017939001 0.014805314 0.017436063 0.018142696 0.016891295
0.016304376 0.0158216 0.01713353 -0.33706763 -0.30873802 -0.14408514 -0.3370866 -0.068315454
-0.124027275 0.11100733 -0.15580685 0.18147834 -0.019462114 -0.069062695 0.18776624 0.27484107
-0.044770777 0.63021153 0.08459472 0.12773466 0.1568877 0.5819421 -0.45802003 0.13431865
0.051807757 0.035347432 0.12798558 -0.2788614 -0.3422542 -0.18124495 0.016911749 -0.07962758
-0.23181993 0.030625721 -0.732443 0.03921368 0.30066484 0.099508815 -0.40241557 -0.3818929
-0.13983472 -0.38927847 -0.019566517 0.18960841 0.26335695 0.21853366 0.30865857 -0.04217669
0.17967457 0.33041528 -0.16613172 0.27752364 -0.023333607 -0.034268286 0.015254349 0.20441417
0.06690815 0.16199614 -0.014010663 -0.031965036 -0.37790936 -0.32789302 -0.37263194 -0.24385642
-0.39867604 0.049819868 -0.15515117 -0.08294866 0.38202438 0.47784084 0.05829187 0.20771979
-0.24717751 -0.30449632 0.33242142 0.26895407 0.20176859 0.45982137 0.43012246 0.25268957
-0.117268644 -0.029252807 -0.10257243 -0.3578812 0.10987485 -0.2990068 0.037062995 -0.38010907
0.19352399 0.30853906 0.11260917 0.01814389 0.09676339 0.7300684 0.091101535 0.103915855
-0.07691962 0.007573085 -0.1888184 -0.042641476 -0.225618 0.04622452 0.03852498 -0.100485235
0.053821515 -0.021348348 0.014758509 0.039771862 0.49216992 0.05534431 0.4673578 0.5168446

encoder.fc.bias f4 [32]
00000000: 675b 8bbd 71ba c2bd 85ff ffbd c897 243e
00000010: 6ed9 413d 482e c03c 2f4f 51bd a97b 0a3d
00000020: e72f 5c3b caf3 e23d ae78 053e 1c45 2fbd
00000030: 0bb1 d13d 0f94 f13d 5ab7 233d 4ede 5bbe
00000040: 2a85 66bd 2b2b 133d 83ca 893d 91a1 6e3d
00000050: 2b92 f4bd 811d 01be cb14 1cbe 69b0 a93d
00000060: bfb6 ad3d acfb ecbc 9474 11be 125c 76bd
00000070: a431 f8bc 1dce d8bc e2db 6e3c 5a87 423e
-0.06804543 -0.09508217 -0.12499908 0.16073525 0.047326498 0.023459569 -0.051100906 0.033809338
0.0033597888 0.11081655 0.13034317 -0.042790517 0.102388464 0.11795818 0.03996978 -0.21471521
-0.05627934 0.03592984 0.06728079 0.05825955 -0.11941942 -0.12608911 -0.15242307 0.08285601
0.08482122 -0.0289286 -0.14204627 -0.0601464 -0.030297108 -0.02646547 0.014578791 0.18996945

decoders.0.model.0.weight f4 [16, 8, 3, 3]
00000000: f2c0 2ebd d56a 9dbe 7d6e 17be 026b 913c
00000010: 3d12 443e e191 9bbe d335 20be 0804 21be
00000020: e971 a4be cd1c 03bf 75ba 8e3e 0c3d 9f3e
00000030: a215 4f3e d156 2c3e 15cf c3bd c6b0 38be
00000040: 716b 8a3b 2f7b 9e3e 64bb 0a3d d7d3 f5bb
00000050: faf5 163e c194 fbba 09f8 ec3c 197e da3d
00000060: 376f 0e3d 23ba cdbd 768d 243e 4f54 893e
00000070: 0902 443e d088 c3be fa61 59bd 3df6 be3d
00000080: a1e6 333e ebc6 683e 8863 a9be 7825 0dbf
00000090: 1190 823e 4a52 15be bd7a 383e 063d 60be
000000a0: a3c5 963d d392 94be b4fe bdbe 1a10 883e
000000b0: ab2e d73e 8651 1abe 0e46 743e d888 553e
000000c0: 1b90 b03d 4275 95be 0c02 c8be d12f dbbe
000000d0: 4e70 cdbe b2bc 133d 2f52 fdbd fbf0 3d3e
000000e0: 742b 6bbe b49a 333f aa77 063f ad30 b9be
000000f0: 9b4c 0dbe eed7 df3e 17fd 9ebe f2b7 edbd
00000100: 5e9a 07be 4827 53be b971 08bf c6a6 c2be
00000110: 8bf0 ccbc d139 ecbc 8e63 0bbe 4705 29be
00000120: 8172 f3be 56dd 1bbe a7b6 b53e ace2 863b
00000130: e715 aa3e 3de7 263f c922 133e 3b88 573e
00000140: fbe2 153e 60a6 9d3e be98 873e d3df 0e3e
00000150: 180c 98be 2cea 12be ce6d 8c3e a3b1 0b3d
00000160: 7803 243d a4b0 353e 5f19 873c 6d0b 84be
00000170: 2fa2 f73d 8638 cebe 60d4 9cbe 50d3 2f3e
00000180: 0446 aebd 1099 533e 91c1 193b 96e9 aa3d
00000190: aeb9 8fbe 414b 21be 7cfa 733d 3e17 ecbe
000001a0: 14e3 66bd 479c 3f3d 6b3d 333c 46f3 e53d
000001b0: 8377 7dbe c073 cf3d 829d 5c3e 1cac 09be
000001c0: 8cb5 45be 18fe b6bc 6859 893e 6158 673e
000001d0: 7e5c 5abd fa98 29bc 70d1 ce3e 4b2a 9e3e
000001e0: 33fb 36be 8106 1cbe 52e9 0dbe 760c 96be
000001f0: 3b67 b4bc 6e30 563e 9b3c 663d fd0d cabd
00000200: e8d5 6e3e eddb 9dbe b266 c83e 091c f13e
00000210: 5c76 01bb 12ad 873e 9c92 333b 7c93 4a3d
00000220: 7a75 fcbd 4fcf d3bd bd41 7dbc ce90 19be
00000230: 27ed 0f3e 3049 fa3d c824 9ebe 7102 803d
00000240: 6b1a 27be 8141 fa3c c806 1e3d 035f 4abe
00000250: d656 053e f3b1 aa3e 88a4 7e3d 83a5 38be
00000260: 5775 bf3d 58e5 903d ee92 b0be 4243 19bd
00000270: e430 febc 4db0 6e3e c606 9fbd c4f5 afbd
00000280: 1c2c 81bd 91bd 60be 25fc 3fbe f3ea bebd
00000290: 0f7e 5a3d 973c bf3d c5cc b1bc 5d25 813d
000002a0: 6ab3 4c3e 96a9 29be 20e7 ca3d 2129 bf3e
000002b0: d7fd 46be 2abe 8a3e 0808 813e c7e1 1b3f
000002c0: 35cd b33e 2fd4 4c3e e8a8 8dbe cd64 e23d
000002d0: 39eb 29be 223e f83d 3da6 7dbe 782b eabc
000002e0: df0c 383e 1d12 e53d bdc1 7f3d 03f0 b83e
000002f0: 6705 913e 6daa 8e3e 8dc4 6b3e 01d9 6a3e
00000300: 5b40 003d 1e70 d93d 9e1d f33e 6d7f e4bd
00000310: b640 533e 83ad 8dbe 4383 27bd 14b4 07be
00000320: cda0 f53c d8a1 6e3e e17e 0abf 14f5 c8be
00000330: 5855 3d3c 9f03 003e e8e2 983e 97c2 9cbe
00000340: 4651 983e e2a3 6ebe f32d f7be 3ae3 01bf
00000350: c35a 25bd a843 e63e f6b6 233e 07e2 8a3d
00000360: 4ae2 793d 3d01 6cbe 2be8 48be 71a3 223e
00000370: 1e3c 543e e7e6 433e 0d0c c9be ef35 d13e
00000380: 0ab6 7c3e 1b37 303c dce9 f93d 98db a6be
00000390: 07ab 37be 6b80 303e fac3 efbd 0f83 aebe
000003a0: fa01 373f a3a5 adbe 5867 35be ba6a cf3d
000003b0: b4b7 b13d 36ea 22be abd5 debe 845c c43d
000003c0: e1c1 17bd 3792 6e3e 9642 1a3e 5248 00be
000003d0: 619a 773e 35aa 73be d588 4bbe 8235 b33e
000003e0: 2084 9fbe edb9 20bd de00 febe c9e9 8c3e
000003f0: 1689 4c3c 8407 433d 397d d0bd 1fac 533e
-0.042664476 -0.3074557 -0.14788242 0.01775122 0.19147582 -0.30384734 -0.15645532 -0.15724194
-0.32118157 -0.5121582 0.2787663 0.31101263 0.20223096 0.16829993 -0.09560982 -0.18036184
0.004224234 0.30953357 0.033870116 -0.00750206 0.1474227 -0.0019194112 0.028926866 0.106685825
0.03477403 -0.100452684 0.16069588 0.26822135 0.19141401 -0.38190317 -0.053071953 0.0932431
0.17568447 0.22732131 -0.3308375 -0.551353 0.2550054 -0.14582172 0.18015571 -0.21898279
0.07361915 -0.29018268 -0.37108386 0.26574785 0.42027792 -0.15070161 0.23854849 0.20852983
0.08621236 -0.29191023 -0.39064062 -0.4280992 -0.40124744 0.036068626 -0.12369191 0.18548958
-0.22965795 0.70157933 0.5252634 -0.3616995 -0.13798754 0.4371943 -0.31052467 -0.116073504
-0.1324248 -0.20620453 -0.53298527 -0.38017863 -0.025017044 -0.028836163 -0.13612196 -0.1650592
-0.47548297 -0.15221152 0.35490915 0.004116377 0.33219835 0.6519659 0.14368738 0.21048062
0.14637367 0.30790997 0.2648372 0.1395257 -0.29696727 -0.14347142 0.27427524 0.034104954
0.04004237 0.17743164 0.01649159 -0.25789967 0.12091481 -0.402775 -0.3063078 0.17170453
-0.08509448 0.20663857 0.0023461322 0.08345334 -0.2807135 -0.15751363 0.059565052 -0.46111482
-0.056368902 0.046779897 0.010939936 0.11228041 -0.24752621 0.101294994 0.2154446 -0.13444561
-0.19307536 -0.022337958 0.26826024 0.22592308 -0.053310864 -0.010351414 0.40394163 0.30891642
-0.17869262 -0.15236856 -0.13858536 -0.29306382 -0.02202188 0.20916912 0.05621014 -0.09865949
0.23323786 -0.30831853 0.3914085 0.47091702 -0.0019754386 0.2649923 0.0027400618 0.04945706
-0.123270944 -0.10342275 -0.015457568 -0.14996645 0.1405531 0.12220991 -0.30887437 0.06250466
-0.16318671 0.030548813 0.038580686 -0.19762807 0.13021407 0.3333889 0.062168628 -0.18031888
0.09348553 0.07074994 -0.34487098 -0.037417658 -0.031029172 0.23309441 -0.07764964 -0.08591798
-0.06307241 -0.21947314 -0.1874853 -0.09322157 0.053342875 0.093377285 -0.021704087 0.063059546
0.19990316 -0.16568598 0.09907365 0.37336066 -0.1943277 0.2709821 0.2520144 0.60891384
0.35117498 0.20002817 -0.27667928 0.110543825 -0.16593637 0.12121226 -0.24770446 -0.02858518
0.1797366 0.111850955 0.062440623 0.36120614 0.28324434 0.278644 0.23024197 0.22934343
0.031311374 0.10617088 0.47483534 -0.11157117 0.20630154 -0.2767144 -0.040896665 -0.13252288
0.029983902 0.23303926 -0.5409985 -0.3924948 0.011555992 0.12501381 0.29860616 -0.3061721
0.29749507 -0.23304704 -0.48277244 -0.50737345 -0.04036976 0.44973493 0.15987763 0.067813925
0.06100682 -0.23047347 -0.19619815 0.1588266 0.20726058 0.19131051 -0.39267007 0.4086146
0.24678817 0.010755326 0.12202808 -0.32589412 -0.17936336 0.17236488 -0.117073014 -0.34084365
0.7148739 -0.33915433 -0.17715204 0.10127778 0.08677617 -0.15909657 -0.4352239 0.095879585
-0.03705013 0.23297964 0.15064463 -0.12527588 0.24179985 -0.23795398 -0.19876416 0.3500176
-0.3115549 -0.039239813 -0.49610037 0.27522114 0.012483856 0.04761459 -0.10180134 0.20671128

decoders.0.model.0.bias f4 [8]
00000000: b002 bdbc 239b 09bc 4fe7 93be 30ee 86be
00000010: 8dd5 bdbe b61b 91bd 4d29 94be e014 25bc
-0.02307257 -0.008398804 -0.28887412 -0.26353598 -0.3707699 -0.070853636 -0.2893776 -0.010075778

decoders.0.model.2.weight f4 [8, 1, 3, 3]
00000000: 0334 1c3e b640 523e 7f8f 2a3e 2301 aa3e
00000010: b88f 173f 767b ba3e 73ec 0c3e 499d 773e
00000020: 1b1f 213e e686 96bd bc65 bfbd bdc1 99bd
00000030: 1644 60be a3dd 35bf 826f ccbe d4c2 98bd
00000040: 476b ebbe 1e4b a9be e815 b3bc 550b 803e
00000050: 17a7 703e aff9 a5bc 01e9 a83b 4e05 533e
00000060: e9a5 bb3d fe95 213e eb75 753e 917b e6bd
00000070: 2d43 b1be bf23 90be 5a8d b3be 0e1d 34bf
00000080: 651d dabe 0429 5abe 1822 fbbe e7f3 b9be
00000090: 1497 c73d 91c2 cfbd 6e02 80bd 3170 903d
000000a0: 2d35 22be f8d7 42bc a2bf ffbd 72b2 b9be
000000b0: a507 8ebe 80da dbbd c330 65be 8a3c 3cbe
000000c0: 2a65 70be d447 febe 601f c6be 23aa f4bd
000000d0: 0e50 9ebe 15c6 83be c567 ea3c b26d 26be
000000e0: 8465 0cbe e4bc 9dbd 5b43 14bf cdd3 efbe
000000f0: 83b7 abbc 4035 d1be ec12 b1be 6054 01be
00000100: 0452 43be 94d2 1ebe 928a 98be f84d 3cbf
00000110: 0c2a 06bf e481 88bd 4d10 a4be 786e 83be
0.15254216 0.20532498 0.16656302 0.33203992 0.5920367 0.36422318 0.13762073 0.24181093
0.15734522 -0.073499486 -0.09345576 -0.07507656 -0.21900973 -0.71041316 -0.39928824 -0.074590355
-0.45980284 -0.33065122 -0.021861032 0.25008646 0.2350124 -0.02026066 0.0051547294 0.20607492
0.09162504 0.15779874 0.23970763 -0.11254037 -0.34621564 -0.28152272 -0.3506878 -0.70356834
-0.4260055 -0.21304709 -0.4904945 -0.36318895 0.09745613 -0.101445325 -0.062504634 0.07052649
-0.15840597 -0.011892311 -0.12487723 -0.36268955 -0.27740207 -0.10735035 -0.22381882 -0.18382469
-0.23476091 -0.49664176 -0.38695812 -0.119465135 -0.30920452 -0.25737062 0.028613934 -0.16252783
-0.137106 -0.07702044 -0.57915276 -0.4684128 -0.020961529 -0.4086094 -0.3458475 -0.12629843
-0.19074255 -0.15510017 -0.2979322 -0.7355647 -0.5240791 -0.066654 -0.32043687 -0.25670218

decoders.0.fc.weight f4 [784, 32]
00000000: bcb7 18be 1765 343e 6860 dcbe 2fea 983d
00000010: 4b60 833e e550 23bd 0c16 933d 0773 aabc
00000020: da06 aebe 5f00 93be 3609 9bbd 2d73 f53d
00000030: 9362 2fbe cafe a0be 7229 e03d b887 b13d
00000040: d54a 283e 52cc e8bd 0b1c 73bd 184c 29be
00000050: 220c 4d3e ad49 a6bd 9a9e 40be b2ef df3a
00000060: e683 833e 5e18 38be e3b5 85bd 80e2 043e
00000070: be51 5ebe d65f 253e fffa 4639 fede 9dbe
00000080: 9223 243e e651 19be 2461 22be a825 883a
00000090: f14e db3c 49f6 aabd 09a3 c83d 26cd ba3d
000000a0: 99e5 503e ac36 69bd c431 613e 760d 45be
000000b0: ea8c f23c 756d 833d e391 ecbd 2616 8e3b
000000c0: 7eb1 6a3d 6ddd fa3d 9973 8c3e 73a3 3c3e
000000d0: 34f0 67be 61ea acbe 84a7 343e bc1a a93e
000000e0: 5761 d73d 3fdb 813e ffa9 8b3e 520e 003e
000000f0: 6c8d ae3e 8a76 b4bd aabb bc3d 01d8 ce3d
00000100: 0f78 84be 7031 623e b061 7e3d 6896 d83e
00000110: 7a3e abbd 76c0 37be 1246 8ebd 49fa b4be
00000120: 23af 1bbe d280 c53d 880c a4be 4d63 44be
00000130: ce23 d43d 7aef 51be 9951 52bd b38d b23e
00000140: fa06 d83d f773 fcbd bad0 40bd 6674 043e
00000150: f15b bb3e 2167 6d3d e980 f0bd 3d02 0c3d
00000160: 7665 47be ca98 ce3e 3b8e 09be 4deb ee3e
00000170: f1c1 75bc fa69 d7be cb49 bdbd a900 393e
00000180: 762a cbbd 88d4 d0be e196 bc3d 3072 c9bd
00000190: 1758 f3bd c092 7b3e 2b07 6c3b a312 b0bd
000001a0: 5927 9ebd 4a01 803e 333c 6cbe d069 38be
000001b0: f901 a0bd 8a29 29be ca8e babd 4a09 24be
000001c0: 0b49 8e3b 9564 903d 25f6 e93d 99bb 80be
000001d0: 4d9b 0a3e 9c2c bb3c c3c7 96be 1bee cfbd
000001e0: a37b 7abd 2612 63bd b409 06be dadb 523e
000001f0: 0890 09be 2844 863e 87af 91bd 2574 943c
00000200: b679 7d3d 7165 a1bc d888 0f3e d153 09bb
00000210: 2438 203d 6f87 6bbd 41d3 a43c e51b 353e
00000220: debd e3bc c5ca e93a 3ef2 55be b130 67bd
00000230: 913e 1c3d 1eda 1dbe 3c14 65be c25e 793e
00000240: a7f6 3bbb 361d 89be b8c0 2f3e 4c09 3c3e
00000250: 2375 553e b292 48bd d051 e03d 2ea0 d53d
00000260: 2df0 c5bd 73af 2dbe 985f 513d 8096 aa3e
00000270: ee70 81be 81bb 8bbd d0e9 0c3b 7857 dbbc
00000280: 9ec9 3f3e 4729 12bd 39d5 0f3d 1763 ddbc
00000290: 573f 2d3e 62dd 75be b50b f53c c3fc a63e
000002a0: ffc7 ab3d c8ac 5d3d e3b6 bfbd 9eb4 ff3d
000002b0: dadd b93d c676 8fbd 5ce0 133d 72d3 a6bd
000002c0: a124 2f3d 4df4 bb3e d06e 853e 0358 453e
000002d0: ca4e b53e db18 20be 2542 dfbc ec7c b43e
000002e0: 9d06 ca3d a60f f5be bf4d 11be 1b7a 493d
000002f0: aad2 383e 16c4 a8bd 292f 02be 2f4b 883d
00000300: 0513 18be c58a 8c3d 8f95 9d3c 2f83 db3c
00000310: 96cd 84bd 4663 2fbe d35b db3c cd74 64be
00000320: a76e 8fbe a839 87be be0d 97be 5b03 ca3d
00000330: de52 e33d 3c13 a4be b3fd c33d 3613 af3e
00000340: fa22 d33a 96e2 89be 12a9 f0bd d597 973e
00000350: 1efa 05bd 3365 8a3d ecfd a5be 0a63 00bd
00000360: d864 a13e 4cd5 073d a703 17bc 4108 e33d
00000370: aa62 1a3e c895 84bc 1d21 b1bd 1d3f 083d
00000380: be95 343e dd7c 383e 6159 98be 7947 62bc
00000390: e9ab 6c3d b620 06be b437 8e3e 3afe 07be
000003a0: bcab ab3e 0229 a5be cc0f a33d 9eb8 7c3e
000003b0: 7ae0 4dbe 619f 83be 8284 743e c783 7bbe
000003c0: 9c74 38be 368e 033e 828d 773d 74de ae3e
000003d0: 3a6d 8bbe 7586 1abc 7069 6dbe 555d 07bd
000003e0: 807d 9e3e 0c1e d5bd 1b0f 523e 85c0 f5bd
000003f0: fd5f cb3d b03a 763e 5107 0fbe eb92 50be
-0.14913839 0.17616688 -0.43042302 0.07466542 0.25659403 -0.03987207 0.071819395 -0.020806802
-0.33989602 -0.2871122 -0.07570116 0.11984859 -0.17127447 -0.3144439 0.10945405 0.086684644
0.16434796 -0.11367096 -0.059352916 -0.16532934 0.2002416 -0.08119521 -0.18810502 0.0017084985
0.25686568 -0.17978045 -0.06528833 0.12977028 -0.2171087 0.1614984 0.00018976255 -0.30834192
0.16029194 -0.14972648 -0.15857369 0.0010387199 0.02677104 -0.083477564 0.097967215 0.0912116
0.20400085 -0.056936905 0.2199164 -0.19243416 0.029608209 0.06417362 -0.11551263 0.0043361364
0.057298176 0.12249265 0.27431944 0.18421726 -0.22650224 -0.33772567 0.17642027 0.3302821
0.10516613 0.25362584 0.27278134 0.12505463 0.3409227 -0.08811672 0.092154816 0.10099793
-0.25872847 0.22089171 0.06210488 0.4230225 -0.08361526 -0.17944512 -0.069469586 -0.35347202
-0.15203528 0.09643711 -0.3204081 -0.19178505 0.10358392 -0.2050151 -0.05134735 0.34873733
0.10548206 -0.12326806 -0.047074057 0.12935027 0.36593583 0.05795968 -0.11743338 0.034181822
-0.19472298 0.40350944 -0.13433163 0.46663895 -0.0149998525 -0.4207304 -0.092425905 0.18066658
-0.09920208 -0.40787148 0.09208465 -0.09836233 -0.11882036 0.245677 0.0036015015 -0.08597305
-0.07722349 0.25000983 -0.23069839 -0.18009114 -0.07812876 -0.16519752 -0.09109266 -0.16019168
0.0043422035 0.070504345 0.114239015 -0.25143126 0.13535805 0.02284842 -0.2944928 -0.10152837
-0.061153065 -0.05543723 -0.13089639 0.20591679 -0.1343385 0.26223874 -0.07113557 0.018121788
0.06188365 -0.019701691 0.14017045 -0.00209545 0.03911604 -0.057502206 0.020120265 0.17686422
-0.027800497 0.0017836919 -0.2089319 -0.05644292 0.038145605 -0.15415236 -0.22371 0.24352553
-0.0028680952 -0.267801 0.1716336 0.18362921 0.20845465 -0.048968025 0.109531045 0.104309425
-0.096649505 -0.1696146 0.051116556 0.33317947 -0.2528147 -0.06822873 0.0021501668 -0.026775107
0.18729255 -0.035683896 0.035115454 -0.027024789 0.16918693 -0.24010232 0.029912809 0.32614717
0.083877556 0.054119855 -0.09361055 0.12485622 0.09075518 -0.07005076 0.036102638 -0.08145799
0.04275954 0.36709824 0.26061106 0.19271855 0.35411674 -0.15634482 -0.02725322 0.35251558
0.09864543 -0.478635 -0.14189814 0.049188714 0.18049112 -0.082405254 -0.12713303 0.06654965
-0.14851005 0.06862406 0.019236354 0.026795952 -0.06484525 -0.17127714 0.026777184 -0.22310181
-0.2801411 -0.26411176 -0.29502672 0.09863921 0.1109979 -0.32045925 0.09569874 0.34194344
0.0016108446 -0.26930684 -0.117509976 0.29608026 -0.032709233 0.067575835 -0.3242029 -0.03134445
0.3152225 0.0331624 -0.009217179 0.11085559 0.150767 -0.016184703 -0.08648894 0.033263315
0.17635247 0.18016382 -0.2975569 -0.013810986 0.057781134 -0.13098416 0.27776873 -0.13280573
0.3352946 -0.3225785 0.079619974 0.24679801 -0.20105162 -0.25707534 0.23878673 -0.24561988
-0.18013233 0.12847218 0.060437687 0.34154093 -0.2723177 -0.009431471 -0.23184752 -0.033047993
0.30955124 -0.104061216 0.20513575 -0.11999611 0.09930418 0.24045825 -0.13967635 -0.20368545

decoders.0.fc.bias f4 [784]
00000000: e34e 0c3c 5b75 c13e 132b b7bd d385 a73e
00000010: 3272 a3bc dbe9 b03d 3b3b d1bd a1da 483e
00000020: f289 f83d e255 4fbe a057 023e 0911 a23e
00000030: 53ea 2839 9b1f f6bd 639e d43b 125c 223d
00000040: 7414 643e 3cb6 933d eed2 363e bda7 4fbd
00000050: 0b8e eb3d 0e02 d3bd c94a d13a db1e f93d
00000060: a0ea c3bb 6160 9dbd c4cf 9b3c c153 133d
00000070: fee1 c73c 5789 a0be 3f7c 093d 3631 0bbe
00000080: ecac 6e3e 2c0d 793c 7cb7 c83d 0177 a83e
00000090: 9ad9 98be b66a 543e 74f9 60be 6918 f93c
000000a0: 0dde edbe e611 843e a063 da3d 9b17 a23c
000000b0: d490 b0bd c442 1dbe 903c 443e 6d84 7f3d
000000c0: 8221 42be 4182 c43e 5be8 453c 2ab8 473e
000000d0: 0c87 f93d 4912 3ebd ce7e 713e 0806 583d
000000e0: 2666 62bd 728e 32bd ce99 babe 66a3 87be
000000f0: 33a2 5b3e ffa2 323d 183e 89bd d90b d33d
00000100: fee0 75bd fa83 293e 2516 393c 340c 60be
00000110: 29ec 67be 9b96 9cbe c290 76be 6717 edbd
00000120: db88 c9bd 244a 5f3e cfb0 8a3d 1e1f 72bd
00000130: b3a9 1bbe 1252 bfbc 74a5 34be 00e6 c0bd
00000140: e883 89bd c672 0dbe 506c a2be 6639 4cbb
00000150: f628 c0bd 5a09 08bd 5fc3 893d 5782 0ebe
00000160: 1b56 23be 57e7 19be 88c0 183d 962b bc3d
00000170: 85be eabd 28ba 6bbe f74f 173e a8fb a73d
00000180: 5d48 56be a03c 0fbe 37f4 92be 96e7 b33d
00000190: 37f7 7fbe eab7 3cbc de3e 00be c0de 21be
000001a0: 7eb5 0c3d 5a89 efbe 4ddd ccbe 0aeb fd3c
000001b0: 783d a23e ca7d 3dbe 8822 3b3e b630 663e
000001c0: 17e9 d5bd ed3c e43d eb23 2cbd f01e 173c
000001d0: 3c4c 60be ce7c 8f3c 1a5f 9b3e 61c4 513d
000001e0: b321 59bd 554f 023e d524 17be 5f30 8dbe
000001f0: 3f5f c5bd f64d 91bd 0a3c d9bd dde6 ff3b
00000200: a751 9bbd 5e69 12be 387e 78be 3e5f 613d
00000210: 8a5d 443e 1388 34be 5d30 00be 6d79 a4b8
00000220: 76c8 123e 8633 4cbe 0ea3 18bd 3eda c3bd
00000230: fac2 95be 9252 cd3e 2c9b 9a3d 62af 9abe
00000240: c1fe 38bd 4365 b03d a4cb 553d f8e7 4bbd
00000250: 0a58 aa3d dc95 b2be ab45 a23e 6807 a9be
00000260: f8e2 d43b 140d a93e 213b 97bd d7ba 1ebe
00000270: f815 fabc 1c78 523b c7b6 7f3d 5139 2bbe
00000280: 87ee 783e 2b76 04be f4b5 9b3e 6f05 abbd
00000290: 52d4 2fbe 514e 9e3d 9e98 9b3d 2551 5b3e
000002a0: 09c7 883d f477 9c3d f7a2 183e 144a debd
000002b0: e602 1dbb cd87 183e 04b9 55be 201d f33d
000002c0: db40 013f 33f6 6ebd 16d0 cfbd f63b 3bbd
000002d0: 90ef 86ba c9d3 7ebe 90c0 aa3e 9fbe 333d
000002e0: 6a49 0cbc 9f2a 1fbb e08e 6a3d 0a39 9cbd
000002f0: 3c3b fd3d 9cef af3e 3483 59bd f0b4 3fbd
00000300: 28b9 8f3e 0ee4 8cbe fcc0 c53e b77c c73e
00000310: 8485 a1bd 3fa0 0f3e f365 6bbe 9ff2 ca3d
00000320: 65dd 9abe af4f bfbd b9fe 8e3d 196e 473d
00000330: bd03 ab3d c2e7 d33b e440 01be 605f 143e
00000340: 9ff4 6bbc 24a3 b13d 3ae8 07be a6e5 8f3d
00000350: 3604 c1bc aca1 1bbd fa2b 02bd cd78 9fbd
00000360: 85d4 0abe 526e b83b 1aeb 123e 53f5 083d
00000370: 4da0 45be 162e af3e 875a 77bd a996 c03c
00000380: 88fe 7b3e 45b1 fe3d 318b e9bd 6189 32be
00000390: e018 033e 9f0e cf3d 5648 efbd 229b a03e
000003a0: ade8 39bd 8d7c 8abe c9df 953e 7986 dc3e
000003b0: 06f4 223e 1f74 fe3d 8a81 8e3e 4db3 b6be
000003c0: 69bb 6dbe d1be 94be fc31 f3bd 3be8 83be
000003d0: b7d3 a73e 5d50 cfbc a475 35bd d92f 573e
000003e0: 93ad 083e e24d aa3d 93d9 e7be 34e3 55be
000003f0: 2e56 c43b 40b4 52be 22ce 8f3e f8b2 193e
0.00856373 0.37784848 -0.08943763 0.32719287 -0.019951914 0.086383544 -0.102163754 0.1961465
0.12135686 -0.20247605 0.12728739 0.31653622 0.00016109021 -0.12017747 0.0064886077 0.039638586
0.22273427 0.07212493 0.17853901 -0.050697077 0.11501702 -0.10303126 0.0015967722 0.12164088
-0.005978897 -0.076843984 0.019019969 0.035968546 0.024399754 -0.31354782 0.033565756 -0.13592991
0.23308152 0.015200894 0.09800622 0.32903293 -0.29853517 0.20743832 -0.21970159 0.030407147
-0.46458474 0.25794905 0.10663533 0.019786647 -0.08621374 -0.153575 0.19163728 0.06238215
-0.18958095 0.38380626 0.012079324 0.19503847 0.12183961 -0.046404157 0.23583528 0.052740127
-0.055273198 -0.043592878 -0.3644547 -0.2649185 0.21448593 0.043612476 -0.067012966 0.10304994
-0.060029022 0.16554251 0.011296784 -0.21879655 -0.22648682 -0.30583653 -0.24078658 -0.11576729
-0.09840556 0.21805626 0.06772005 -0.059111707 -0.15201454 -0.023354564 -0.1764124 -0.09418869
-0.06714612 -0.13813314 -0.3172326 -0.0031162142 -0.09382813 -0.033212043 0.06726717 -0.13916908
-0.15950815 -0.15029655 0.037292987 0.09188001 -0.1146212 -0.23020232 0.14776598 0.082022965
-0.20926042 -0.1398797 -0.28701946 0.08784406 -0.24996649 -0.011518458 -0.12523982 -0.15807629
0.034352772 -0.46784478 -0.4001259 0.030995864 0.31687522 -0.18505016 0.18274891 0.22479519
-0.10444849 0.11144433 -0.04202644 0.009223685 -0.21904081 0.017515566 0.30345994 0.051212672
-0.053010654 0.12725575 -0.14760144 -0.27575967 -0.096373074 -0.07094948 -0.10607155 0.0078095035
-0.07583933 -0.14298007 -0.24266899 0.05502247 0.19176307 -0.17630033 -0.12518449 -7.842747e-05
0.14334282 -0.1994153 -0.037264876 -0.09563111 -0.29250318 0.4010206 0.07549128 -0.3021193
-0.045164827 0.08613064 0.05219616 -0.04978177 0.08317573 -0.3487996 0.31693777 -0.33013463
0.0064967833 0.3301779 -0.07384325 -0.15500961 -0.030528054 0.0032115048 0.06243017 -0.16721083
0.24309741 -0.12935703 0.30412257 -0.08350646 -0.17170838 0.077297814 0.07597469 0.21417673
0.06678588 0.07640067 0.14905916 -0.10853973 -0.0023958026 0.14895554 -0.20871359 0.118707895
0.50489587 -0.058340263 -0.10147111 -0.04571148 -0.0010294784 -0.24885477 0.3335004 0.043882962
-0.008562425 -0.0024286879 0.057265162 -0.07628067 0.12364814 0.34362495 -0.05310364 -0.046803415
0.2807095 -0.27517742 0.38623798 0.38962337 -0.07886794 0.14025973 -0.2298811 0.099095576
-0.30247036 -0.0934137 0.06982178 0.04868898 0.083503224 0.0064668367 -0.1262241 0.14489508
-0.014401584 0.08673695 -0.13272181 0.07026224 -0.023561578 -0.03799598 -0.03178022 -0.07786713
-0.13557632 0.0056283856 0.14347497 0.033437084 -0.19299431 0.34214848 -0.060389068 0.02350934
0.24608815 0.12436155 -0.11403502 -0.17435218 0.12802458 0.101102106 -0.11683719 0.31368357
-0.045387913 -0.2704815 0.29272297 0.43071344 0.159134 0.12424492 0.27833205 -0.3568367
-0.23216023 -0.2905183 -0.11874768 -0.25763115 0.32778713 -0.025306875 -0.044301644 0.21014346
0.13347463 0.08315636 -0.45283183 -0.20887452 0.0059917187 -0.20576572 0.28086954 0.15009677

decoders.1.model.0.weight f4 [16, 8, 3, 3]
00000000: 0a1f d7bd 75ca 0dbe 186f 59bd 81a5 b6bc
00000010: ef1e 2dbd 3937 6dbd a291 23be 0c0b 8bbd
00000020: 83a4 a6be 3b0a d5be 0428 2d3d 69b0 a2bd
00000030: c2c2 a33e 6e6e 3f3f 4c05 a73e 456d 59bc
00000040: d2e7 673e 41e3 ea3e b6be 383c 5384 b93e
00000050: ffe0 943e db3b 4c3e c2da bf3e 0a0b c33e
00000060: f3c6 b43e ac13 beba 7e77 c1bb 5c4f d2bd
00000070: 9c2d 333e 2677 993e dec3 0f3f 023b 4bbd
00000080: 3f9f 9f3d bbdd 523e e20f b83d ad22 a5bd
00000090: 754d 53bd 74d0 af3d 6760 dd3e 7bbc 103f
000000a0: 685e 9f3e fc24 cd3e e18c 00bd 8b2c 043f
000000b0: 45c8 033e 864f 5c3e 07e9 2bbe 829d 89be
000000c0: aac8 183e 670f 8abc 2c95 ab3d efd9 a13e
000000d0: 0ae5 de3e fd5a 043f dfa5 4e3e 02c8 543d
000000e0: 653b 903e e9ba 95be 08f7 3c3d ada7 22bf
000000f0: 5f26 823e 3799 d23d 798f 913d 7f81 453e
00000100: d41c 173e 2e92 053f 3dca a4bc 4e51 b33e
00000110: fec3 c03e 5620 b93e 8ea6 683e 1e23 e6be
00000120: f9ca b8bc b4f3 323e d555 fa3d 71b7 573e
00000130: db39 083e 7af9 e53e ff1a 54be 42c0 143e
00000140: fca9 403e f5f2 013e c42c 39be 8d5e 38be
00000150: 21de 183f e660 793e 4855 11be 416c 45be
00000160: 5b46 8a3e 2f90 043e 4d26 553c f2eb 47be
00000170: bfcc 9f3e b848 153e fd89 debc e5c4 a63e
00000180: 2b4b da3e 6524 cabe 8018 1b3e f70e 953e
00000190: 5b0f 943e 55b3 573d f6b7 b0be f82d aa3e
000001a0: 8e41 3abe 04b9 95bd 26ec 913c 85dd 983e
000001b0: 6051 033d 8d9f a43e 13c4 d83d 85ad 67be
000001c0: 5ebc 1b3f aecf 4bbe faca a6be 25a3 0f3f
000001d0: e9c5 32be 4dbf 86bd 8562 773e ddaa 1d3e
000001e0: 68df f73d b128 b03e 2573 753e dc2e 233f
000001f0: f94e 963d 0c3c a5be 13d2 c1be 9745 7ebd
00000200: 2696 063e 72ee abbe 82c6 97be a0f1 d23e
00000210: 4587 e63d 79f6 953d f73c 103f 3239 0e3d
00000220: 2efe d53e d94d 9dbd f81d a5bd 4b58 c93d
00000230: 24cd 6d3e dc5c 8d3c ad49 2b3e d995 493e
00000240: 049e 893e 7037 07be bb45 4cbe dc4c e23d
00000250: 42fe 9b3c b719 f63c 1953 3cbd 94e0 18bd
00000260: edc6 b5bc da34 68bd 6fb7 cbbd 1d80 2bbd
00000270: ead3 323d 219b 8dba a905 89be 7672 c8be
00000280: fe70 75be c629 a6be 7920 b33e 3197 3d3e
00000290: 2d34 4b3e be90 b73e 14b4 0d3f c3f6 42bf
000002a0: 0552 3d3e 5c49 8f3e 52f2 0e3e 37f9 9a3e
000002b0: c97f 21be 867f 28be e70f 85be ceb9 8d3e
000002c0: 6731 873e f049 013e 72b6 13be 4199 85be
000002d0: e792 45bd 1fda c8be 484c 9bbd f938 903d
000002e0: b7e6 3ebe 0c9a a03e afe6 60be 1bc4 c53d
000002f0: 26e0 c73c 1b11 833e a57b 83be b631 75be
00000300: e870 203e dad8 54be f595 fd3e a9f5 0c3e
00000310: 18ff e5bd 0b3e 30be a62f fc3d 5bb7 5a3d
00000320: 6a96 2fbe dd34 ff3d ff3c 4c3e 735d a63e
00000330: 2c36 42bd 38e8 e1bd c0b3 fdbd bbe8 a9be
00000340: 7f46 a33e 6230 8bbd 264d 493d 58b7 dbbc
00000350: 38a4 f7be 4f47 8bbe 8681 0d3e f59a e73d
00000360: 5c93 80bd df6f f0bc 6923 01bd d233 26be
00000370: 3158 0dbe f50f ddbe 7bcd 57be c17e 07be
00000380: 3f48 9abe 4ef9 5ebc 8a95 833e 0ba0 d1ba
00000390: f0a2 aabe 651e d6be c5c8 b23e 2dc0 d1be
000003a0: f404 f33e 6a46 eb3e 67c0 00bc 56bd d03d
000003b0: 1b3a 103e bc52 48be 9d6f d93e f8c8 003c
000003c0: fad0 923e 953f 6cbe 0d5a 5a3d e8b3 a93e
000003d0: 1d6d 9c3e 2b89 16bf e1bc ac3e 6005 89be
000003e0: 8b8d c5be e04c f83d f471 003f 4ea1 14bd
000003f0: 3040 333e 947a ca3d bf9d d4be f7e0 be3e
-0.10503967 -0.13846762 -0.053084463 -0.022295715 -0.04226583 -0.057913993 -0.15973523 -0.067892164
-0.32547387 -0.41609368 0.04227449 -0.07943804 0.31984526 0.7477788 0.3262123 -0.013270681
0.22647026 0.45876506 0.011275938 0.36233768 0.29077908 0.19944708 0.37471586 0.3809436
0.35308036 -0.0014501712 -0.005904137 -0.10269043 0.17497867 0.29973716 0.56158245 -0.04961682
0.07794046 0.20592396 0.089874044 -0.080632545 -0.05158754 0.08584681 0.43237612 0.565376
0.31126714 0.4006728 -0.031384353 0.5163047 0.12869366 0.21514711 -0.16788112 -0.2687798
0.14920297 -0.016853048 0.08378062 0.31611583 0.43534118 0.5170134 0.20180462 0.051948555
0.28170314 -0.29244164 0.046134025 -0.635371 0.254199 0.1028313 0.07107443 0.1928768
0.14757091 0.5217618 -0.020115966 0.35022968 0.3764953 0.36157483 0.22719786 -0.44948667
-0.022557722 0.17475778 0.122234024 0.21066071 0.1330332 0.44916898 -0.20713423 0.14526466
0.18814844 0.12690337 -0.18083483 -0.18004818 0.5971394 0.2435337 -0.14192688 -0.19279577
0.27006802 0.12945627 0.01300962 -0.195236 0.31210896 0.14578521 -0.027165407 0.32572094
0.42635474 -0.39480892 0.15146065 0.2911298 0.28917965 0.05266126 -0.3451535 0.33238196
-0.1818907 -0.073106796 0.0178128 0.29856506 0.032060027 0.32152978 0.10584273 -0.22624786
0.608343 -0.19903442 -0.32576734 0.56108314 -0.17458309 -0.065794565 0.24158676 0.1539721
0.12103158 0.34406045 0.23969705 0.63743377 0.073392816 -0.32272375 -0.37855586 -0.062078085
0.13143215 -0.33580357 -0.29643637 0.4119997 0.11256269 0.073224016 0.56343025 0.034722514
0.41795486 -0.07680864 -0.08062357 0.09831294 0.23222786 0.017256193 0.16727324 0.19686069
0.2687837 -0.13204741 -0.19948475 0.11049816 0.019042138 0.030041559 -0.045977686 -0.03732355
-0.022189582 -0.05669103 -0.099470966 -0.041870225 0.04365913 -0.0010803678 -0.2676213 -0.39149827
-0.23968884 -0.32453746 0.34985712 0.18514706 0.19844122 0.35852617 0.553529 -0.7615778
0.18488319 0.27985656 0.13959625 0.3026826 -0.15771402 -0.16454896 -0.25988695 0.2768082
0.26404878 0.12625861 -0.14425066 -0.26093486 -0.0482358 -0.39228913 -0.07582909 0.07042117
-0.18642698 0.31367528 -0.21962999 0.09656545 0.024398874 0.25598988 -0.2568027 -0.23944744
0.1566807 -0.20785847 0.4952847 0.13765587 -0.11230296 -0.17211168 0.12313776 0.053397518
-0.17147222 0.12461255 0.19945143 0.3249317 -0.047414944 -0.1103062 -0.123878 -0.33185372
0.31889722 -0.06796338 0.04914584 -0.026820824 -0.48367476 -0.27202842 0.1381894 0.113088526
-0.062781066 -0.02935022 -0.03152791 -0.16230705 -0.13803174 -0.43176237 -0.21074478 -0.13231947
-0.30133244 -0.013609244 0.25700027 -0.0015993131 -0.33327436 -0.41820064 0.349188 -0.4096693
0.47464716 0.4595216 -0.007858372 0.10192363 0.14084665 -0.1956281 0.42467967 0.007860415
0.2867506 -0.2307113 0.053308535 0.3314507 0.30551997 -0.5880305 0.33737853 -0.26761913
-0.3858455 0.12124038 0.5017388 -0.036286645 0.17504954 0.09886661 -0.415266 0.3728101

decoders.1.model.0.bias f4 [8]
00000000: 7ffe 5bbe ffd8 afbe d5c0 e3bd da11 cabd
00000010: e929 d2be db68 79be d32b e2bd 9364 6a3d
-0.21483801 -0.34345242 -0.11120764 -0.09866686 -0.410476 -0.24356405 -0.11043515 0.05722482
