models/model_octminst_5.pth (torch, 563411 bytes, 27 tensors)

weights f4 [4, 784]
000000 95 0e 9e 3f 86 e9 84 3f a7 59 68 3f 6c 57 5f 3f
       1.23482 1.0383766 0.907618 0.8724277
000010 97 14 7e 3f cf ea 47 3f f1 34 55 3f 8d 03 41 3f
       0.9925017 0.78092664 0.8328391 0.75396043
000020 c7 2d 67 3f da ea 49 3f 7b f0 41 3f 36 54 48 3f
       0.90304226 0.7887398 0.7575757 0.78253496
000030 b0 74 73 3f 8d b3 37 3f dd b0 49 3f 1e 3d 3f 3f
       0.95099926 0.7175835 0.78785497 0.7470263
000040 d6 30 82 3f bf e6 64 3f 3b d0 6a 3f 8c 49 61 3f
       1.0171154 0.8941459 0.91723984 0.8800285
000050 c2 91 83 3f 2b 6f 5f 3f 3c 06 65 3f 86 37 4d 3f
       1.0278857 0.87279004 0.8946264 0.8016285
000060 eb c2 5a 3f 81 75 48 3f f6 a9 38 3f 27 2c 37 3f
       0.8545367 0.78304297 0.7213434 0.71551746
000070 9b 42 6b 3f 4c 21 4a 3f 5e cc 29 3f b2 9a 33 3f
       0.91898507 0.78957057 0.66327465 0.7015792
000080 86 61 4c 3f c2 5a 56 3f 40 73 3b 3f ae 92 53 3f
       0.7983631 0.83732235 0.7322273 0.8264569
000090 6a 10 6a 3f 9a ae 52 3f 1a 97 44 3f 9f 27 4e 3f
       0.91431296 0.8229767 0.7679306 0.80529207
0000a0 08 18 6b 3f 47 74 51 3f 27 8c 42 3f 47 53 55 3f
       0.91833544 0.8181805 0.75995106 0.83330196
0000b0 e9 35 4d 3f f6 be 6f 3f 76 19 3d 3f fb db 85 3f
       0.80160385 0.9365076 0.73866975 1.0457758
0000c0 46 9e 62 3f 3c 2a 7e 3f 68 69 53 3f ca 09 85 3f
       0.88522756 0.99283195 0.8258271 1.0393612
0000d0 f2 83 7c 3f 5c 23 8e 3f a5 52 61 3f 9b 60 70 3f
       0.9863883 1.1104541 0.8801673 0.9389741
0000e0 8a ea 20 3f 01 61 15 3f cb 3e 20 3f 00 d2 23 3f
       0.6285788 0.5835114 0.62595814 0.6399231
0000f0 3b d1 91 3f 85 66 5f 3f ae b5 6b 3f a3 c5 33 3f
       1.1391977 0.8726581 0.92074096 0.70223445
000100 44 f3 45 3f ff 15 09 3f 62 31 37 3f fb bd 45 3f
       0.7732432 0.5354919 0.7155973 0.7724301
000110 9f a7 53 3f 77 35 4a 3f b1 3a 54 3f 79 8c 38 3f
       0.82677644 0.7898783 0.82902056 0.72089344
000120 c0 c2 5a 3f 9a 6b 39 3f d9 9b 5c 3f a3 cc 27 3f
       0.85453415 0.7242981 0.86175305 0.65546626
000130 b4 62 72 3f 31 00 4b 3f 6d 6c 62 3f da 09 37 3f
       0.9468186 0.7929717 0.88446695 0.7149941
000140 8f 45 5d 3f 8a 84 35 3f d3 98 3d 3f c9 02 40 3f
       0.86434263 0.70905364 0.74061316 0.7500425
000150 af 5e 1a 3f b8 06 25 3f 31 cb 11 3f 17 48 0a 3f
       0.60300726 0.64463377 0.5695067 0.5401625
000160 34 84 3b 3f fd 7b 11 3f fa 3a 0e 3f 44 b4 20 3f
       0.732486 0.56829816 0.5555874 0.62775064
000170 6c b2 29 3f 61 bb 37 3f 7c 23 06 3f 41 26 0c 3f
       0.66287875 0.7177029 0.52397895 0.5474587
000180 02 7e 2c 3f 17 16 38 3f 64 ca 3e 3f 74 3e 64 3f
       0.6737977 0.71908706 0.74527574 0.89157796
000190 d6 82 47 3f 2c b4 4e 3f 1b 79 19 3f 33 39 3a 3f
       0.77934015 0.8074367 0.5995042 0.7274353
0001a0 3a c0 21 3f a8 c4 29 3f 03 c3 f1 3e 2c fa 05 3f
       0.6318394 0.663157 0.47219095 0.52334857
0001b0 5d e5 25 3f c8 d3 42 3f 85 c2 67 3f d2 46 83 3f
       0.64803106 0.761044 0.9053119 1.0255988
0001c0 2c 6f 54 3f a3 e6 62 3f e2 d8 28 3f cc cf 25 3f
       0.82982135 0.88633174 0.65955937 0.647702
0001d0 3d 67 61 3f ac 77 3a 3f 74 8d 70 3f 33 fe 49 3f
       0.88048154 0.72838855 0.9396584 0.789035
0001e0 10 30 33 3f 22 dc 20 3f 09 13 55 3f 7d 72 33 3f
       0.6999521 0.62835896 0.8323217 0.7009657
0001f0 7a b5 47 3f 7c c3 32 3f 78 2b 65 3f d6 21 3f 3f
       0.78011286 0.69829535 0.89519453 0.74661005
000200 30 ef 3b 3f bb 11 22 3f cf 36 6e 3f 1a 3c 4d 3f
       0.73411846 0.63308305 0.9305238 0.8016983
000210 2b 1e 77 3f d9 e8 50 3f c4 79 6a 3f 43 33 50 3f
       0.9653041 0.816053 0.9159205 0.8132822
000220 91 24 5a 3f 87 65 3b 3f c7 9b 3e 3f 63 74 e6 3e
       0.85212046 0.73201793 0.7445645 0.4501067
000230 99 52 3e 3f 7e bc 61 3f 5c ac 11 3f b6 93 2c 3f
       0.74344784 0.8817824 0.56903625 0.6741289
000240 2c 34 26 3f 38 86 42 3f 9f dc 19 3f 2f ea 2f 3f
       0.6492336 0.7598605 0.60102266 0.6871671
000250 a0 dc 50 3f 41 af 5e 3f 63 55 43 3f 66 0c 2e 3f
       0.8158665 0.86986166 0.76302165 0.6798767
000260 6b e5 34 3f 8f 41 48 3f 9b f2 5e 3f 7f be 62 3f
       0.70662564 0.78225034 0.87088937 0.88571924
000270 db 06 3a 3f 37 f4 45 3f e4 b8 26 3f cd 20 67 3f
       0.7266671 0.7732577 0.6512587 0.90284425
000280 20 c2 5a 3f ae 61 35 3f a3 b4 ce 3e cf 68 04 3f
       0.8545246 0.7085217 0.4037219 0.51722425
000290 cf b5 19 3f 7b eb 3c 3f 0d 4f 2f 3f 15 89 24 3f
       0.6004304 0.73796815 0.68479997 0.6427167
0002a0 2f 0d 77 3f ab e9 82 3f 88 37 5b 3f 3c 8c 8a 3f
       0.9650449 1.022756 0.8563161 1.0824046
0002b0 90 5e 97 3f 1f 60 8b 3f 2b 1d 4d 3f 77 ed 41 3f
       1.1825733 1.0888709 0.8012263 0.7575297
0002c0 05 ea 82 3f 8a 7d 6b 3f 96 9f 5c 3f da 7d 28 3f
       1.0227667 0.9198843 0.8618101 0.65817034
0002d0 25 8c 96 3f a5 54 7c 3f 59 f3 76 3f 08 de 82 3f
       1.1761519 0.9856666 0.9646507 1.0224009
0002e0 18 94 9b 3f 3d 28 5d 3f 32 d7 62 3f 5d fd 63 3f
       1.215457 0.86389524 0.8860961 0.89058477
0002f0 18 1a 74 3f ea 29 7e 3f d8 7a 80 3f a8 68 89 3f
       0.95352316 0.99282706 1.0037489 1.0735064
000300 b8 4f 72 3f 95 8e 89 3f fe e6 87 3f a2 34 6c 3f
       0.9465289 1.0746638 1.0617368 0.9226781
000310 54 6e a6 3f 06 9a af 3f c1 15 86 3f 05 f7 89 3f
       1.300242 1.3718879 1.0475389 1.0778509
000320 05 c1 71 3f e2 0b 7f 3f a7 43 3b 3f c4 7c 38 3f
       0.9443515 0.99627507 0.73150104 0.7206538
000330 68 08 97 3f 23 55 7e 3f 57 07 48 3f a9 bd 62 3f
       1.179944 0.9934866 0.781362 0.8857065
000340 86 87 6b 3f ec 33 62 3f 0d 07 65 3f cb f9 10 3f
       0.9200367 0.88360476 0.89463884 0.56631154
000350 2d 1f 6d 3f 01 7c 83 3f 01 2e 43 3f ed e0 7d 3f
       0.92625695 1.0272218 0.7624207 0.99171335
000360 e2 ff 65 3f 0d 86 90 3f 64 07 8f 3f 80 52 81 3f
       0.8984357 1.1290909 1.117413 1.0103302
000370 b9 8d 8e 3f cd 34 92 3f 76 10 9c 3f 90 c4 35 3f
       1.1137 1.1422364 1.2192523 0.71003056
000380 e4 05 86 3f 63 5a 97 3f d9 d2 bd 3f 9f b8 b7 3f
       1.0470548 1.1824459 1.4829971 1.4353217
000390 24 ce a3 3f df ad 81 3f d6 b1 8b 3f 47 92 61 3f
       1.2797284 1.0131186 1.0913646 0.88113827
0003a0 e6 cc a3 3f 81 16 98 3f 96 f3 aa 3f 21 5c 95 3f
       1.2796905 1.1881868 1.3355587 1.166874
0003b0 aa 4a a3 3f 8f bf c1 3f 2b 52 d1 3f 0a b9 a2 3f
       1.2757161 1.5136584 1.6353201 1.271272
0003c0 5e f3 a5 3f 26 a8 93 3f 16 76 99 3f de 2e 68 3f
       1.2964895 1.153569 1.1989162 0.90696514
0003d0 d2 cd 60 3f 7f 25 5d 3f bd 18 8e 3f 87 a6 bf 3f
       0.87814057 0.8638534 1.11013 1.4972695
0003e0 c1 25 cf 3f cd 88 ab 3f 6e 7f b9 3f 4f 86 a4 3f
       1.6183397 1.3401123 1.4492013 1.2853488
0003f0 4a 89 a0 3f e0 31 c6 3f 5b c4 96 3f 4d 3d b3 3f
       1.2541897 1.5483971 1.1778673 1.4003083

encoder.model.0.weight f4 [8, 1, 3, 3]
000000 7d 3a b3 3e 96 64 2d bd 7c d8 11 3e ec b7 dd 3e
       0.3500556 -0.042332254 0.14242738 0.43304384
000010 40 ea 0d 3f 31 77 c2 be b4 d2 49 be bf 93 12 3e
       0.5543556 -0.3798156 -0.19709283 0.14314173
000020 6e 35 31 bf 10 4e c7 3b 40 28 8f bd d5 34 8c 3d
       -0.6922215 0.006082304 -0.06990099 0.068460144
000030 82 63 15 bf 8b 90 e7 3d 11 f2 15 3f ca ba 23 bf
       -0.5835496 0.11306866 0.5857249 -0.6395689
000040 e4 ec 2e 3e 15 27 0d 3f 7a 0c e0 be 61 68 c6 be
       0.17082554 0.5513776 -0.4375952 -0.3875151
000050 76 4d e7 3e dd 2c c6 be ce c9 78 bf 0e 0e 0e 3f
       0.45176286 -0.38706103 -0.9718293 0.55490196
000060 b6 52 db 3d 6f d8 48 bf f1 64 a6 3e 2d 43 e6 3d
       0.10709135 -0.7845525 0.32498887 0.112432815
000070 81 f3 e3 bd 99 8e 70 3b 6f 58 07 bf 8c f4 fd be
       -0.11130429 0.0036706089 -0.52869314 -0.49600637
000080 ca b3 32 bf 21 f2 3d 3e aa 62 d5 3e 4a a1 8e 3e
       -0.69805586 0.18549396 0.41676837 0.2785743
000090 46 85 1f 3f 1e 69 08 bf 09 d5 5b bf 56 c7 78 3f
       0.62312734 -0.53285396 -0.8587194 0.9717916
0000a0 c1 c2 34 3d 75 f1 4f bf 6f 63 ac 3d 1d 35 b4 3e
       0.044131044 -0.8122781 0.08417403 0.35196772
0000b0 b4 26 16 3d f8 f6 0d 3e db a7 6a 3e 67 60 1b bd
       0.036658004 0.13863742 0.22915594 -0.037933733
0000c0 a8 b0 5f 3e f2 32 aa bd 5c f8 4d 3e a0 d1 2d be
       0.21844733 -0.08310498 0.20114273 -0.16974497
0000d0 14 02 47 be 68 a0 a4 be ba 16 b9 3e 03 28 9d 3e
       -0.19434386 -0.3215363 0.36150151 0.3069459
0000e0 83 e3 da 3e ca 34 73 be 8a 64 12 be 3e 04 c2 3e
       0.42751703 -0.23750606 -0.14296165 0.37893862
0000f0 6a 20 9e be 07 7b b2 be c1 7b 79 be 0b 92 a5 be
       -0.30884105 -0.34859487 -0.24363615 -0.32337984
000100 de 89 f0 be 35 e7 83 be 71 f3 ab 3e 94 40 d6 3e
       -0.46980184 -0.25762334 0.3358417 0.41846144
000110 41 da d8 3e 12 10 8b be 0a 4e 29 3e 8e 15 3b be
       0.42354015 -0.27160698 0.16533676 -0.18269941

encoder.model.0.bias f4 [8]
000000 35 16 01 bd af 50 13 3d 6f fd aa 3e 8b 4a 8b 3e
       -0.03151532 0.035965618 0.3339648 0.2720531
000010 29 36 17 3e 9c 73 26 3e 5d 59 6f bc ad 9e ea 3c
       0.14766754 0.16255039 -0.014608708 0.028640116

encoder.model.2.weight f4 [16, 8, 3, 3]
000000 50 70 d7 bd 0f 07 10 be c1 17 3b be 2c c8 29 3e
       -0.10519469 -0.14065193 -0.1827078 0.16580266
000010 c2 14 9d 3e 1f e0 79 3c 82 9b e4 be 27 aa 16 bf
       0.306799 0.015251189 -0.44649893 -0.5885338
000020 ac 85 ad be f9 79 08 3d ea 54 5b 3d 66 f0 0e 3e
       -0.33891046 0.033319447 0.053547777 0.13958892
000030 68 5a d2 3d 3a 85 b2 bc 04 d1 2b be 2d fa 4e 3e
       0.1027115 -0.021792043 -0.16778952 0.20212622
000040 ba a4 85 bd d3 a9 60 be 31 d7 2e 3d 42 e1 8a 3c
       -0.0652556 -0.21939783 0.04268569 0.016953114
000050 9a 6a 95 3d ea 42 3e be 77 72 5e be bd e9 54 be
       0.07295723 -0.18580213 -0.21723352 -0.20792289
000060 13 e8 09 be 3a 1c 60 be 85 41 b5 3c 92 dd 83 3e
       -0.13467436 -0.21885768 0.022125969 0.25754982
000070 ee 7e 1e 3f 44 5b a3 3e 29 25 98 bf df 2e a8 be
       0.6191243 0.31905568 -1.188634 -0.3284826
000080 8a 61 98 be e9 cb f3 bd 4a c8 0f bd 32 de 0d be
       -0.29761916 -0.11904127 -0.03510312 -0.13854292
000090 eb f4 e0 3b 47 37 bf bd 29 65 9f bd ca db 12 be
       0.006865134 -0.09336715 -0.07782967 -0.14341655
0000a0 84 f6 6e be 93 0f b1 3e b1 18 63 3e 3b 10 68 bd
       -0.23336226 0.34582195 0.22177388 -0.056656104
0000b0 8f 5e 3f bd e3 39 fc 3d d9 92 2c 3e e4 f2 2c 3e
       -0.046721037 0.123157285 0.16852893 0.1688953
0000c0 97 95 07 3e f7 4f 6f 3e 61 1e b4 3d a4 b1 ef bd
       0.13240658 0.23370348 0.08794857 -0.11703804
0000d0 c2 d8 d4 bd 51 c0 3d 3d 69 67 43 3e a8 64 9d 3e
       -0.10392906 0.046325985 0.19082417 0.30740857
0000e0 7e d9 47 bc 03 82 c0 bc f5 ac 8c bd 6f e9 db bd
       -0.01219785 -0.023499494 -0.068689264 -0.10737883
0000f0 c2 0e 21 be 65 df 81 be fb ce 57 be 33 2f 82 3d
       -0.15728286 -0.2536575 -0.2107505 0.06356659
000100 ba 25 77 3d 7b 8d 78 3e 86 8d 80 3e 98 92 d3 3e
       0.060338713 0.2427272 0.25107974 0.4132278
000110 ff a3 32 be aa 73 af be 65 65 5f be 8f 4b 04 3e
       -0.17445372 -0.34267932 -0.21816023 0.12919448
000120 60 48 1d be b6 9b aa be 53 af 54 3d 23 6e b4 be
       -0.1535964 -0.33321923 0.051925015 -0.35240278
000130 b6 df b8 be a9 2b 56 3e e6 c4 77 be fc 4b 53 3e
       -0.36108178 0.20915093 -0.24196205 0.20634454
000140 98 49 06 3f 00 54 4f 3d eb d8 75 be 7e ae e7 3d
       0.52456045 0.050617218 -0.24008529 0.113125786
000150 e1 64 04 3f dc 0b 18 bd 5c 49 51 be b6 b9 42 3c
       0.5171643 -0.037120685 -0.2043814 0.011885097
000160 84 1d a1 3e a2 28 89 bc 7e 6f 0e bd 19 a6 7d 3e
       0.3146783 -0.016743008 -0.034774296 0.24770392
000170 ee 59 30 3e 81 47 b5 be f3 a8 1e bf 33 e3 06 bf
       0.17221805 -0.35406116 -0.61976546 -0.5269043
000180 30 3c f9 3e b5 c8 0c be cf 6f 14 be 0b b7 ac 3e
       0.48678732 -0.13748439 -0.14495777 0.337334
000190 28 80 09 3e f5 30 25 3e 6f fa 1c bf 84 65 1c bf
       0.13427794 0.16131957 -0.6131963 -0.610924
0001a0 52 f6 8f be cc d5 fe be dc f0 71 bf c5 0a 40 be
       -0.28117615 -0.4977249 -0.9450815 -0.18754108
0001b0 3b ff 52 3e e9 f4 e0 3d 60 bf b6 bb e0 66 bb bd
       0.20605175 0.10984213 -0.005577013 -0.09150481
0001c0 65 45 f9 3e e8 34 55 3e af 39 77 be 78 52 ae 3d
       0.48685756 0.20820963 -0.24143098 0.085118234
0001d0 f1 4e 05 3f 0e 4f 10 bd ae e0 0b be 99 ee 62 be
       0.5207358 -0.035231642 -0.13659927 -0.2216133
0001e0 45 61 15 3d fb d7 f4 bc 06 b6 16 be 02 48 c0 3d
       0.036469717 -0.029888144 -0.14717874 0.093887344
0001f0 b0 1e 58 3e a1 39 0b 3e 91 8b 94 be fe 28 5b bf
       0.21105456 0.13596202 -0.2901273 -0.85609424
000200 d1 a5 8e 3e 4c 5d e9 be 5a b5 a5 bf d4 f6 2f 3e
       0.27860883 -0.45578992 -1.2945969 0.17184001
000210 b2 36 d7 be 61 16 82 bd ff 3d eb bd 68 ca 5c 3e
       -0.42033917 -0.06351925 -0.11486434 0.21561587
000220 1d db b5 3d 14 e6 5f 3e 00 9e f0 be 9b f5 88 be
       0.08879683 0.21865112 -0.46995544 -0.26749882
000230 99 43 93 be 58 ab 6b be 11 53 6d bf e5 36 2a be
       -0.2876251 -0.23014581 -0.92704874 -0.16622503
000240 d2 c9 11 be 61 dc 7d be 1e c9 41 bc be 3c 52 be
       -0.14237145 -0.24791099 -0.011827735 -0.20530984
000250 27 73 d9 3d 61 91 08 3f 1c cc 76 3d e2 7d e7 bd
       0.10617667 0.5334683 0.060253248 -0.11303307
000260 5b 19 83 3e 38 5a bd 3e 64 cc 06 be 8f a4 24 be
       0.25605282 0.36982894 -0.13163906 -0.16078399
000270 32 f0 95 3c fd 15 9d 3e bf c6 23 bf e0 32 c8 bc
       0.01830301 0.30680838 -0.6397514 -0.024438322
000280 6e 09 21 3e 4b 7f d5 3c 3b 68 71 3e f4 a1 ce bd
       0.15726253 0.026061675 0.23574917 -0.10089484
000290 36 21 d3 bd 2d b1 21 3f bf 45 3a 3b 3b 28 6c be
       -0.10309069 0.63160974 0.002842292 -0.23062222
0002a0 5a 01 ee 3e 5f cc b6 3b 3b ca 02 bf 50 f3 aa be
       0.46485406 0.005578562 -0.5108983 -0.33388758
0002b0 27 d3 8b be 3f 99 0e bd 0a a4 ac 3d 0c 11 37 bf
       -0.27309534 -0.034814116 0.084297255 -0.71510386
0002c0 fa da 52 3e 75 d1 83 3e d6 36 b7 bd c5 a7 f2 bd
       0.20591345 0.2574574 -0.08946006 -0.11848406
0002d0 ad 4f 29 bc 3c 70 a0 3e 78 48 56 3d 7f 8f 2c bf
       -0.010333938 0.31335628 0.052315205 -0.6740646
0002e0 07 e5 cc bd c7 d5 2c 3f 19 ae cc bd 94 31 75 bf
       -0.10004621 0.675137 -0.09994144 -0.95778775
0002f0 00 bc 3d 3f ab 29 1f 3e b4 64 71 3d ca e5 6b bd
       0.7411499 0.15543239 0.05893393 -0.05759219
000300 b7 ec 30 3e 29 76 06 3e 21 7f f0 3d 26 fa 44 bd
       0.172778 0.13131012 0.11742998 -0.048090123
000310 63 16 93 3d a6 9f 37 bc 58 07 5a 3e 83 80 91 be
       0.07182004 -0.011207497 0.21291864 -0.2841836
000320 17 66 38 be c1 f7 17 3e 8f 81 ac bd d3 8d 51 bf
       -0.18007694 0.14840604 -0.08423149 -0.8185703
000330 1e 9c 15 3e 81 65 89 3d eb ad 52 bd 3f af 29 bc
       0.14610335 0.067088135 -0.051435392 -0.010356723
000340 3e ef ce be e7 64 97 be 71 1e 55 be 1c 6f 17 bf
       -0.40416902 -0.2956917 -0.20812394 -0.59153914
000350 0b 2d e7 be 14 5d 86 3e df a2 5f bf 90 8c 36 3b
       -0.45151553 0.26242888 -0.87357897 0.0027854778
000360 25 49 9c be 54 ae 5c be 93 f3 40 be 67 3f 75 be
       -0.30524555 -0.21550876 -0.18842916 -0.23949967
000370 b6 42 95 3d 1a a4 59 bd de 50 0f be f2 ca 67 3e
       0.07288115 -0.053135015 -0.13995692 0.22636011
000380 3a a2 07 3c 63 73 f6 bc 95 bd 97 bd da f3 66 3e
       0.008278424 -0.030084318 -0.07409207 0.2255396
000390 33 2e 3c 3c 0a 8e 4c be 5f 3a e8 3e df 92 53 3d
       0.011485624 -0.19976059 0.45357034 0.05165374
0003a0 4f 79 cd bd 57 c7 4f 3e c7 00 87 bd 0b 3c ad 3e
       -0.100329034 0.20290886 -0.06591945 0.33834872
0003b0 29 a7 8d be ca ee f0 bd e0 96 15 3e 12 6f 16 be
       -0.27666596 -0.117642954 0.14608335 -0.14690807
0003c0 14 2b 49 be 91 2f 0c bd 2d f5 e7 bd e6 e1 13 3e
       -0.19645339 -0.03422505 -0.113260604 0.14441642
0003d0 a2 b0 d7 be e0 c3 5b be a5 7a 0c be 8f ce c6 be
       -0.42126948 -0.21461439 -0.1371866 -0.38829467
0003e0 c6 01 f5 be 4a 8d b8 bd 34 fe c3 3d 2a 36 87 3d
       -0.47852916 -0.09011324 0.0956997 0.06602128
0003f0 24 a1 c4 bd 7a bc 15 3d ce e4 83 be 7e 9c a3 bd
       -0.09601048 0.0365567 -0.25760502 -0.07988833

encoder.model.2.bias f4 [16]
000000 d3 bc 45 3d 51 88 0c 3e cf 28 57 3c 90 2e ce 3e
       0.04827578 0.13723876 0.013132288 0.402699
000010 5c a9 9c 3d c9 c7 d3 bc e3 33 58 bd e6 fb e7 b5
       0.0764949 -0.0258521 -0.052783858 -1.7284153e-06
000020 e3 66 36 bd 6a 16 f9 3d d3 41 ba 3e 2e 60 8e bb
       -0.044531714 0.12162478 0.36378345 -0.0043449616
000030 17 54 5b b8 e3 a0 f1 bc 3d d0 8d bd 5e 81 4b 3e
       -5.2291984e-05 -0.029495662 -0.06924484 0.19873568

encoder.fc.weight f4 [32, 784]
000000 7e 4c cc be 3c 15 8e be d5 a9 51 3d 44 a6 16 3e
       -0.3990211 -0.27750576 0.051187355 0.14711863
000010 20 f3 15 3e 26 bf b0 bc dc 86 9e bd 39 0b 03 3e
       0.14643526 -0.021575522 -0.07740566 0.1279725
000020 44 71 7d be 16 28 b3 3d f7 72 06 3e fd 14 ff 3d
       -0.24750239 0.0874788 0.13129793 0.12455175
000030 11 18 1e 3b ef cc 57 be 87 bb 7e bc 27 0c 49 bd
       0.0024123231 -0.2107427 -0.01554764 -0.049083855
000040 67 69 87 3b 8f 8a 8e be dd 6a e4 3e 28 8b ce 3d
       0.004132438 -0.27840087 0.4461278 0.10085136
000050 5f f6 17 3e 68 e8 33 3e 41 e8 70 3e f9 69 69 3e
       0.14840077 0.17569125 0.23526098 0.22794332
000060 d8 c3 82 3d cb 49 92 be ca f5 81 3e c2 e6 c7 3e
       0.063850105 -0.28571925 0.25382835 0.39043242
000070 af 5f ae 3d 88 4c cd 3e 65 74 6c 3e b2 ea 1c 3c
       0.08514344 0.4009745 0.23091276 0.00957744
000080 c2 ec a2 bd 40 8b 18 3f 6e 84 11 3f c7 95 be 3d
       -0.07955314 0.5958748 0.56842697 0.093059115
000090 30 b0 66 3d d1 a7 1b 3e 13 3c 8d bd e5 d6 d2 3e
       0.05632037 0.15200736 -0.06896224 0.41179577
0000a0 d6 16 b1 bd f3 e5 08 3d c4 9e 38 3d a8 5e 28 be
       -0.08646934 0.03342242 0.045073286 -0.16442358
0000b0 33 0c bc be 40 3b b1 bd 07 9e 81 3c e2 9b bf bd
       -0.36728057 -0.08653879 0.015822424 -0.09355904
0000c0 2f b8 10 3d f0 3a d8 be 59 96 02 3e 11 5d e1 bd
       0.0353319 -0.42232466 0.12752666 -0.11004079
0000d0 21 5a 50 be a1 08 0a 3d 8b 21 27 bd 53 ac ba bd
       -0.20346881 0.033699635 -0.040803473 -0.091148995
0000e0 d2 4f 72 be 81 20 15 bd 7e e0 c2 bd 98 63 6e be
       -0.23663262 -0.03640795 -0.09515475 -0.2328018
0000f0 a3 35 14 3e 9c b9 91 be 3d b8 c4 bd a2 29 21 3f
       0.14473586 -0.2846192 -0.09605453 0.6295415
000100 39 6f c1 3d 48 dd b0 3d 8c c4 c9 3e 13 2e ca be
       0.09445042 0.08635956 0.39407766 -0.39488277
000110 a7 e1 51 be ea ef ae 3d fb c9 03 3f 6c 42 0c be
       -0.20496236 0.08541854 0.5148007 -0.13697213
000120 ca 60 0a bf 29 0d b9 3c 8f 45 06 be d5 84 8f be
       -0.5405394 0.022589283 -0.13112472 -0.2803103
000130 16 6a d3 bd 5d f3 36 bd ac 38 08 3e b5 c7 80 be
       -0.10322969 -0.044665683 0.13302869 -0.25152364
000140 ff 99 ab 3d 88 35 46 be 1f a8 cd 3e 4c 87 c5 3c
       0.08378982 -0.19356358 0.4016733 0.024112366
000150 63 4a e2 bd bd b1 12 be 1d c2 76 be 4f bf 82 be
       -0.110493444 -0.14325614 -0.24097486 -0.25536582
000160 92 6f 05 be c2 15 82 3d 2b b4 a1 be cb 40 b1 bd
       -0.13030842 0.06351806 -0.3158277 -0.086549364
000170 b7 7d f8 3d f5 33 7c 3b fc c3 82 bd f8 b9 2c be
       0.12133353 0.0038483117 -0.06385037 -0.16867816
000180 22 58 10 be ff e2 11 be 2c 75 45 be 0a 59 ed 3c
       -0.1409612 -0.14246748 -0.19282979 0.028973121
000190 b4 fc ea 3c 35 cb ff bd e6 c8 2a 3e aa 41 84 bc
       0.028684951 -0.124899305 0.16678199 -0.016144592
0001a0 19 d7 6d 3e 05 24 c5 3d d3 10 06 be ef 4c ae be
       0.23226584 0.09626011 -0.13092355 -0.3404307
0001b0 60 17 01 be 06 ac f7 bd 98 dd ba bd 2b f9 29 3d
       -0.12606573 -0.12093358 -0.09124297 0.04149739
0001c0 cc 14 5c bd 3b 6b 61 3b 7f 7a 6f be 70 be c3 bd
       -0.05373077 0.003439619 -0.23386572 -0.095578074
0001d0 4d b0 d9 be 8e 07 80 be f3 0a 77 be 25 86 cd 3e
       -0.4251732 -0.25005764 -0.2412527 0.40141407
0001e0 60 b8 8b be 5f 35 9a be 8f 70 06 bf 21 72 38 bf
       -0.27289104 -0.30118844 -0.525155 -0.72049147
0001f0 8b 19 43 bf f3 91 b2 be 3c 12 13 3e 9c 56 cf be
       -0.7621085 -0.34876975 0.14362425 -0.40495765
000200 93 9c c9 be e2 d3 32 3e d0 c3 1a 3e c8 e5 b3 bd
       -0.3937727 0.1746364 0.15113759 -0.08784062
000210 86 67 10 3f e9 2d c8 3e 39 cc 74 3e 6f 4c b1 3e
       0.56407964 0.39097527 0.2390603 0.34628627
000220 4c 50 0d be 87 30 9f 3d c9 b1 4b 3b ea 93 ab 3c
       -0.13800162 0.07772928 0.003108131 0.020944554
000230 f5 64 b2 3d 4a 90 a3 bd 12 76 94 3d 49 da 6a bc
       0.08710662 -0.07986505 0.072490826 -0.01433427
000240 4d ee 26 bf 4b a9 5d be c7 fe 51 be 99 dd 7e be
       -0.6520737 -0.21646611 -0.20507346 -0.2488922
000250 f9 f8 77 3e 96 90 b5 bd 03 4c 46 3d 79 ee aa bd
       0.2421607 -0.08865468 0.048412334 -0.08346266
000260 e9 6c c5 3d 5c c7 95 3e 35 d7 86 3e 71 05 0e 3e
       0.096399136 0.29253662 0.26336065 0.13869263
000270 74 58 6c 3e 23 8f 6a 3e e0 d1 11 3d 57 c7 5a bd
       0.23080617 0.22906165 0.035600543 -0.05341276
000280 2b 13 59 be 0f 79 6f be 8a d7 f2 3e 1b 89 c0 3e
       -0.21198718 -0.23386024 0.47430068 0.37604603
000290 df 00 f4 bc 27 07 84 be 76 b3 7c bd 10 f1 0c bf
       -0.029785572 -0.25786707 -0.061694585 -0.5505533
0002a0 0b 1c bc bc f7 11 ef bd cd 46 8b 3e fd 35 06 be
       -0.02296259 -0.116733484 0.27202454 -0.13106532
0002b0 8b 6a c5 bd 3e 29 00 bf 77 14 1e bf 38 27 89 be
       -0.09639462 -0.5006293 -0.61749977 -0.26787734
0002c0 22 e4 6e be 72 b4 9f 3e d8 a6 c4 3e d7 37 d6 3e
       -0.23329213 0.31192356 0.38408542 0.41839477
0002d0 48 00 73 3d 01 7d 1e bf 7e 6f 40 3e cf 37 7c bd
       0.05932644 -0.6190949 0.18792531 -0.06157666
0002e0 a3 a8 46 be 8c 90 fa 3d 8c 6e a4 bd 84 5d a6 bd
       -0.19400267 0.122346014 -0.08028898 -0.081233054
0002f0 de f7 0b 3e 42 5b 24 be 4c cd 4a 3e 87 7e 24 bc
       0.13668773 -0.16050437 0.19804877 -0.010039932
000300 dd 88 d5 3d 40 db 1d 3e 21 e8 1d 3d 7b 2b 36 be
       0.10426495 0.15415668 0.038551454 -0.17790024
000310 40 58 51 3c 36 e7 72 be d7 e0 e3 3e 8e 4b e4 3e
       0.012777388 -0.23721012 0.44507477 0.44588894
000320 4a 3d 19 3e b1 52 ae be de 47 97 be ae 10 e3 3d
       0.14964786 -0.34047464 -0.29547018 0.11087166
000330 07 5e 21 3e 9a d5 be 3d 77 92 05 be 74 9d 3f 3d
       0.15758525 0.09318085 -0.13044153 0.04678102
000340 fb d4 9a bd 30 29 27 be 3b a2 02 3e 44 e3 bc 3c
       -0.07560154 -0.16324306 0.12757199 0.023057587
000350 9c d4 c4 3d 13 23 cb 3d 9f 40 9b 3e f2 0f 9f bd
       0.096108645 0.09918799 0.3032274 -0.07766713
000360 89 3d eb 3d b2 8c 9b 3d 90 00 8a be bd 49 16 3d
       0.11486346 0.07595195 -0.26953554 0.036691416
000370 cd de 8d 3e cd df 83 be ee b2 33 be 84 bc c8 3d
       0.27709046 -0.25756684 -0.17548725 0.098015815
000380 a5 99 23 3e 34 38 8c 3e e6 4d 91 bd 53 7b 5e be
       0.1597658 0.2738663 -0.07094936 -0.21726732
000390 99 e7 a9 be fb 01 30 be 72 7f 52 3e 86 db 1d bf
       -0.33184507 -0.17188255 0.20556429 -0.6166309
0003a0 0a 1c a2 bd 41 f2 58 3e ae 3c 91 3d 68 ed fc bd
       -0.07915504 0.21186163 0.07091652 -0.12349969
0003b0 d7 5e bb bd 0a 86 22 be 16 1e 4a 3e e8 24 29 3d
       -0.09148949 -0.15871444 0.1973804 0.041294962
0003c0 fb dc 89 3d da 9b 9c 3d cb 87 18 3e c5 fa 76 bd
       0.06731602 0.07646914 0.14895551 -0.060297746
0003d0 66 10 44 3d 4c c4 12 3c 0c 15 2b 3c ef 33 21 3c
       0.0478672 0.008957934 0.01044203 0.009839042
0003e0 c2 37 25 3c 6c ba 29 3c 25 55 1d 3c 75 e9 1a 3c
       0.0100840945 0.010359388 0.00960282 0.009455075
0003f0 1f 9e e3 3b 36 91 0b 3c 3e 65 00 3c 96 f1 eb 3b
       0.0069463397 0.008518508 0.007836638 0.00720043

encoder.fc.bias f4 [32]
000000 cf b5 7d 3e 57 2d df bd da 69 19 be bd ae 8a bd
       0.24776386 -0.1089732 -0.14981785 -0.0677161
000010 69 15 9e 39 df 58 62 be 5c 3c 40 bc f3 3f 73 3d
       0.0003015206 -0.22104214 -0.011733141 0.05938716
000020 a7 dd fb bd cc bc b2 3d 87 c8 b6 3c 49 0e f1 bd
       -0.12298136 0.087274164 0.022312416 -0.11770303
000030 75 3e a9 3c ef c3 07 be 0d fd 0a be 8c 39 97 3d
       0.020659665 -0.13258336 -0.13573094 0.07384023
000040 74 59 2e be 5a e3 fd 3a bd f7 37 3e 14 8e 82 3c
       -0.17026311 0.0019370124 0.17965598 0.015936889
000050 e5 e7 1e 3d cb 90 00 be 8c 8a 56 3e 2e 4f 19 3e
       0.03879537 -0.12555234 0.20951289 0.14971611
000060 95 c2 9b 3d ef 71 bb bd 47 f1 ae 3d c2 2d b8 bd
       0.07605473 -0.091525905 0.08542114 -0.089931026
000070 77 7c cf bc b2 dd 3e be 8d 70 87 bd 4f d0 7d 3d
       -0.025327904 -0.18639258 -0.06613264 0.061966237

decoders.0.model.0.weight f4 [16, 8, 3, 3]
000000 f3 7a 27 be 21 09 bb 3c 30 b7 61 be 74 9e 95 3d
       -0.16355495 0.022831501 -0.22042537 0.07305613
000010 bd de cb 3e 42 e5 8b 3d 57 a3 47 be dd 95 63 3d
       0.39818373 0.06830837 -0.19495903 0.055562843
000020 7f e1 df bc c2 68 47 be d5 21 32 be f6 29 b3 be
       -0.027329205 -0.19473556 -0.17395718 -0.3499295
000030 e0 e4 82 bd c5 6c 01 3f 85 37 b7 3d 03 dd c9 3d
       -0.06391311 0.50556594 0.089461364 0.09856608
000040 f4 77 1a 3e f9 38 39 bc ae c4 42 3e 52 67 34 bf
       0.15084821 -0.011305087 0.1902034 -0.70470154
000050 f5 be 86 3e 97 7d 06 bf 49 01 6b be a0 76 f1 be
       0.26317564 -0.52535385 -0.22949709 -0.47160816
000060 42 42 0e be 94 6b 1c bd ff 71 de bd 2a 27 3a bd
       -0.13892463 -0.038188532 -0.10861587 -0.045447506
000070 99 57 90 3e 41 f2 87 be 18 99 c1 bd b4 07 bc 3d
       0.28191832 -0.26552013 -0.094530284 0.09181157
000080 a1 4f 0d 3f 56 49 56 be 77 58 5b 3e f8 f6 78 3e
       0.5519963 -0.20926413 0.21420465 0.24312961
000090 b2 5f 05 00 49 82 7b 3d bf 57 05 80 a3 97 39 3e
       4.93506e-40 0.061403546 -4.90655e-40 0.18124251
0000a0 3d 5d 05 00 f2 47 50 bd b3 63 05 00 8a a7 80 be
       4.92625e-40 -0.050849862 4.94943e-40 -0.25127822
0000b0 d5 d5 05 80 57 f8 cc 3e b9 33 2c bf 84 fc 03 3e
       -5.35886e-40 0.40033218 -0.6726642 0.12889296
0000c0 65 dc bf 3e 79 a8 ac 3e 30 08 ae be fa 4c 87 3e
       0.37472835 0.33722284 -0.33990622 0.26425916
0000d0 b3 87 e0 3d 64 d4 46 3e 88 13 af bd e5 16 6d 3d
       0.109633826 0.19416958 -0.08548647 0.057883162
0000e0 ac 49 76 bc 70 ff 39 bd 56 52 b9 be d3 86 1f 3e
       -0.015032213 -0.04540962 -0.3619563 0.15578775
0000f0 6a e6 ee bc 31 8c d5 bc 4d 89 dc bd 5f ef 1d be
       -0.029162604 -0.026067825 -0.107683755 -0.15423344
000100 c2 26 ca be 4b 9c 0c be 45 97 98 bd 5f 62 05 80
       -0.39482695 -0.13731496 -0.074507274 -4.94466e-40
000110 36 f0 db bb 27 1b 99 3e 17 22 cc 3d 38 20 34 3e
       -0.006711985 0.29903528 0.099674396 0.17590415
000120 a8 e5 ec bd 4d 60 f3 3d dc c7 91 be 0c 5b b4 3d
       -0.11567241 0.11883602 -0.28472793 0.08806428
000130 3d 6e 47 3e 59 a1 ef be 07 c4 0a 3e d9 96 b2 3e
       0.19475646 -0.46802786 0.13551341 0.34880713
000140 e3 68 ac bc 3b 44 57 bd 77 64 b0 be 34 36 d5 3c
       -0.021046108 -0.052555304 -0.3445165 0.026026823
000150 30 8c 0c 3f 85 53 f1 3e 9c 8b 43 bf 30 61 a2 3e
       0.5490141 0.47134033 -0.763849 0.31714773
000160 e8 0f b4 3d 06 b8 8a be 8e 40 10 be c3 6e 92 3e
       0.087920964 -0.27093524 -0.14087126 0.2860013
000170 f8 7a 31 3d f5 06 a4 3d 49 32 98 be dc 6c cd 3d
       0.043330163 0.080091394 -0.29725865 0.10030529
000180 61 8a 52 3e e7 4c 35 be 66 ba 9f 3e b4 d0 4a bc
       0.205606 -0.17705117 0.31196898 -0.01237886
000190 87 3b e2 bd 8b c8 83 3e d3 22 aa be 37 2d bc 3e
       -0.1104651 0.2573894 -0.33229694 0.36753246
0001a0 6c e1 b9 3e 5b 1a 03 3f 0f 54 17 3f 61 d7 2e be
       0.36304796 0.5121209 0.5911264 -0.17074348
0001b0 bd 5c 05 00 b8 ad d7 3a f4 5c 05 00 eb a5 0a 3e
       4.92446e-40 0.001645497 4.92523e-40 0.13539855
0001c0 63 5f 05 00 0c c8 1e 3e fa 5e 05 00 c0 32 63 be
       4.93396e-40 0.15506 4.93249e-40 -0.22187328
0001d0 48 5f 05 00 2a 6d 53 3e 3d c8 dd 3d 7c 2b 0d bf
       4.93358e-40 0.20647112 0.10829208 -0.55144477
0001e0 5d df 02 3d 2f 47 05 bf c1 45 b2 bd d2 3f 9c be
       0.031951297 -0.5206174 -0.08704711 -0.3051744
0001f0 85 ed 1f be 2c 1e 78 3e 16 bf 30 be b7 3d dc be
       -0.1561795 0.2423026 -0.17260394 -0.43015835
000200 e9 2a 07 bd 83 29 1a 3d 42 dd 23 3f 23 b3 94 be
       -0.032999907 0.037637245 0.6400949 -0.2904292
000210 fc e5 52 3d 4f 61 90 be 5f 2f 76 3e 72 3d 97 be
       0.05148886 -0.2819924 0.24041508 -0.29539067
000220 31 9a f0 3d 0a 40 99 be e2 65 0f be 3f 61 05 00
       0.1174816 -0.2993167 -0.14003709 4.94063e-40
000230 f1 ae b7 be dc 06 c0 bd 1a b0 a9 3e 39 ce 24 be
       -0.35875657 -0.09376308 0.33142167 -0.16094293
000240 ae 96 89 3d 68 9a b5 be 11 ea bc 3d c8 7a 8f be
       0.06718193 -0.35469365 0.09224332 -0.28023362
000250 36 b9 cf 3d c7 15 ca 3e a7 e8 db 3d a4 63 48 3e
       0.10142748 0.3946974 0.10737734 0.1956926
000260 ba 76 db 3c f4 36 15 be e4 b8 d6 3e 2d 7c 4b 3e
       0.026790012 -0.14571744 0.41937935 0.19871588
000270 83 8e d2 be d8 fd a6 3e 2a 36 ba 3e 72 14 c0 3e
       -0.41124353 0.32615542 0.3636945 0.375156
000280 e6 e1 3e 3d 67 3c ad 3d ba f1 1f bd d0 12 8c 3d
       0.046602152 0.084587865 -0.039048888 0.06839526
000290 e6 64 44 3d a8 11 04 bf ff 07 d4 be 57 21 32 be
       0.047947787 -0.5158944 -0.4141235 -0.1739553
0002a0 d7 ea df bd b1 6b 0a 3e 40 56 6a 3e 49 73 39 3e
       -0.10933464 0.13517644 0.22884464 0.18110384
0002b0 aa 88 52 3c 55 9f b4 bd 8d ab 93 be 5a a9 93 3e
       0.012849966 -0.08819453 -0.2884182 0.28840142
0002c0 f2 c3 b1 3e 63 96 4a 3c a3 49 c2 be d1 4d 78 be
       0.34719807 0.012364957 -0.37946805 -0.24248435
0002d0 f8 63 05 80 1b c5 a3 3c df 8b 06 80 7b 07 e6 bd
       -4.9504e-40 0.019991448 -6.01189e-40 -0.112318955
0002e0 af 62 05 80 ac 7c b5 3b f1 60 05 80 6f d4 32 3e
       -4.94578e-40 0.0055385437 -4.93954e-40 0.1746385
0002f0 2a 58 05 00 09 b6 92 bc 05 85 95 be d4 1d 87 be
       4.90805e-40 -0.017909067 -0.29203048 -0.26389945
000300 b4 8f dc 3e ad b6 a1 be 1b 6c 89 be d3 71 c1 be
       0.43078387 -0.31584683 -0.2684029 -0.37782153
000310 7d ee 25 3f 8e 96 aa 3e e8 bc 72 be ab 51 49 bd
       0.6481703 0.3331799 -0.23704875 -0.04915015
000320 00 af 9a be 5b b6 c6 3e a3 e6 3a 3e 39 1d d5 3d
       -0.3021164 0.38811 0.18252043 0.104059644
000330 38 7e b2 3d c6 f5 5a be 29 ee 6c bd 62 5c 8f 3d
       0.087154806 -0.21382818 -0.057844315 0.070000425
000340 a6 4e f4 3c 71 b6 11 3e 3c 3d 67 3e 54 5f 05 80
       0.029822659 0.14229752 0.22581953 -4.93375e-40
000350 15 33 5b 3c f6 9f f6 bd 16 5f 7a 3d d5 ba 40 be
       0.013378878 -0.12042229 0.061125837 -0.18821271
000360 a8 c2 49 3d b6 39 06 3e 8d 58 07 be 50 58 f6 bd
       0.049257904 0.13107952 -0.13217373 -0.12028563
000370 40 91 31 3d 9f a4 29 3e f9 50 9d bd 37 9c 89 bd
       0.04335141 0.16566704 -0.0768146 -0.06719249
000380 b2 d0 79 be a5 85 e0 bd a2 bc 7f bc 6f d8 1b 3e
       -0.24396017 -0.10962991 -0.015608938 0.15219282
000390 b0 e4 fb bd 8b fd 29 3d a5 a7 bd 3e f7 f5 82 3e
       -0.12299478 0.041501563 0.37041965 0.2557828
0003a0 bf 0a e4 be 54 7b 8e be 88 06 c0 3c e3 d5 45 3f
       -0.4453945 -0.27828467 0.023440614 0.7727949
0003b0 22 6b 01 3f 48 1e 94 be 0b 45 54 be 23 0a 2f be
       0.50554097 -0.28929353 -0.20729463 -0.1709371
0003c0 65 72 61 be ce 43 3c 3e a9 30 14 bd 60 fe 7c 3e
       -0.22016294 0.1838524 -0.03617922 0.24706411
0003d0 c5 71 d8 3e 0a 17 11 3c f8 34 c4 3e aa 46 1f be
       0.422743 0.008855591 0.38321662 -0.155543
0003e0 f4 98 3a be e3 8f 05 bf 08 48 04 3f e4 38 e1 3d
       -0.1822241 -0.5217268 0.5167241 0.10997179
0003f0 71 59 05 80 1f 71 79 bd 09 5b 05 80 3a ce 35 be
       -4.91263e-40 -0.060898896 -4.91835e-40 -0.1775445

decoders.0.model.0.bias f4 [8]
000000 ac 4b 3a 3e d3 10 72 3e a9 3e 64 3d 5b 9b 31 be
       0.18192929 0.2363923 0.05572382 -0.1734442
000010 84 a6 0f bf fc e1 c3 3d c6 d3 8b be 9b e8 fd be
       -0.5611346 0.095645875 -0.27310008 -0.49591526

decoders.0.model.2.weight f4 [8, 1, 3, 3]
000000 83 94 fe bb 40 7a 04 be c1 af 6e 3e 39 86 74 be
       -0.007769169 -0.1293726 0.23309232 -0.23879327
000010 9d c8 22 be d4 f0 97 be f9 75 b8 3d 4e 4f dd be
       -0.1589684 -0.29675925 0.090068765 -0.43224567
000020 a5 7b ec 3b df a5 3c 3e 3c 59 8d be 00 90 e5 be
       0.007216888 0.1842265 -0.27607143 -0.44836426
000030 e9 b8 db 3d 3b 6a 00 bf cf 57 c1 be 95 40 76 bd
       0.10728628 -0.50162095 -0.37762305 -0.060120184
000040 aa 16 10 be a4 2c a3 be 4a 28 a8 3d 55 46 26 be
       -0.14071146 -0.31869996 0.082108095 -0.16237767
000050 e7 bb 81 be 30 a5 79 be ea 38 19 bf 0b 10 dd be
       -0.2533867 -0.2437942 -0.5985247 -0.43176302
000060 6e 73 f1 bd cd 6d c1 be 74 ce c7 be 51 a7 40 be
       -0.117895946 -0.37779084 -0.390247 -0.18813826
000070 55 10 52 be 37 d6 a3 be 27 03 39 bd 46 a5 d8 be
       -0.20514043 -0.3199937 -0.045169022 -0.42313594
000080 f6 ef 8f be 26 c6 bc be ac 95 d8 be a2 6f 01 bf
       -0.28112763 -0.36869925 -0.4230169 -0.50560963
000090 18 18 42 3e fc 51 2c 3e ef ab 51 3e 4a 5d 0c 3e
       0.18954504 0.1682815 0.20475744 0.13707462
0000a0 78 b8 53 3e b0 b9 31 3e a4 8c ce 3e 2a e6 8e 3e
       0.20675838 0.1735599 0.40341675 0.27909976
0000b0 12 27 e9 3e d2 69 23 bd 15 ba 64 be bf c1 c3 be
       0.4553762 -0.03989584 -0.2233661 -0.38233754
0000c0 f9 44 28 bd 7c 8f 00 bf 7b 95 f5 be 3a d5 45 be
       -0.041081402 -0.5021894 -0.47965607 -0.1931962
0000d0 40 b2 bb be 63 e9 cb be d9 dc ea 3e 24 48 8e 3e
       -0.3665943 -0.39826497 0.45871618 0.27789414
0000e0 f5 e1 b8 3e 31 68 7c be 3e 3d 29 bf 17 37 19 bf
       0.36109892 -0.24649121 -0.66109073 -0.59849685
0000f0 05 f4 af 3e db 79 96 3d 2b 7e 20 3e 8b 52 98 bd
       0.3436586 0.07347461 0.1567313 -0.07437619
000100 68 00 05 3f 98 be 00 3e cb 61 c6 3e f2 23 e8 3e
       0.51953745 0.12572706 0.38746485 0.45339924
000110 01 73 1c 3f 93 68 a0 bc 67 91 83 3e 33 4c 05 bd
       0.6111298 -0.019581115 0.2569687 -0.032543372

decoders.0.fc.weight f4 [784, 32]
000000 a9 e6 b9 3e d6 b3 21 3e b2 d9 77 be 8e cf 6f 3e
       0.36308792 0.15791258 -0.24204138 0.2341902
000010 3e 50 9e 3d 65 41 b1 3c b1 1a 11 3e 1d 20 06 bd
       0.07730149 0.021637628 0.14170338 -0.03274547
000020 af 15 58 be 55 26 0e 3e 5e 55 83 be 5f 9c 3d bd
       -0.21102022 0.1388181 -0.25651067 -0.046291705
000030 28 7a 77 3d 9a 16 90 3e ba 04 9d 3d d4 44 b1 bc
       0.06041923 0.28142244 0.07666917 -0.021639265
000040 d7 a6 fc bc 04 8b 70 bd 50 0a 4c 3e 4f fb c5 be
       -0.030841274 -0.058726326 0.19925809 -0.38668296
000050 08 1a 86 3e c8 f6 c6 bd e3 cb b3 3e 05 78 82 3e
       0.26191735 -0.097150385 0.3511649 0.25482193
000060 31 12 02 3d a7 f7 ab 3e 9f fe 1c 3e 5f c7 a5 3d
       0.03175563 0.3358738 0.15331505 0.08094668
000070 04 3d fa 3c 5a 43 26 3e f1 a3 2d 3e 05 e8 5f 3c
       0.030546673 0.1623663 0.1695707 0.013666158
000080 64 bb 97 3e 5b fd 81 3d e0 48 0d be 69 7d 10 3e
       0.29635155 0.06347152 -0.13797331 0.1411034
000090 4d 14 a9 be 45 b5 54 be 77 fa 5a bc e9 15 98 3d
       -0.330233 -0.20772274 -0.01336538 0.07426054
0000a0 9a c8 7a bd 48 09 da 3d 3b 49 02 bd 39 ae ad bc
       -0.061226465 0.106463015 -0.03180812 -0.02120124
0000b0 9b 2c 0b 3d b4 f8 05 3d 2b d1 28 3e 50 18 2c be
       0.033978086 0.032707885 0.16486041 -0.1680615
0000c0 d1 5b d8 3d 3d b4 0a 3e 89 86 b4 3e be 29 90 bd
       0.105643876 0.13545318 0.35258892 -0.07039212
0000d0 2f 56 57 3e 7b 57 f0 bd b5 b7 d3 3d 6a bf f0 3d
       0.2102897 -0.117354356 0.10337774 0.11755259
0000e0 99 68 6a 3d 4a 55 2e be 1d a3 24 bd 2b 77 17 3e
       0.05722866 -0.17024723 -0.04019462 0.14791553
0000f0 1c 75 42 be 3e 7b 97 bd bc 19 ba 3d 8f f8 88 3d
       -0.18989986 -0.073965535 0.0908694 0.06688034
000100 36 9e 19 bd ac d9 8f be 56 dd 43 be 1f 12 d8 bd
       -0.037504397 -0.28095758 -0.19127402 -0.10550331
000110 d7 9d 3d bd a2 db 18 3e 88 ea 17 bd 32 2a 04 be
       -0.046293106 0.14927533 -0.0370889 -0.12906721
000120 f6 ea 60 be 4f 93 78 be 2a 4d 91 3d 84 b9 ca 3d
       -0.2196463 -0.24274944 0.07094796 0.098986655
000130 ac 3f 0c 3d 80 92 d6 bc 9c 75 20 be f2 47 28 3e
       0.03424041 -0.026192904 -0.15669864 0.16433695
000140 34 6f 03 be a8 86 4b 3e b2 a4 2e be a3 0b 52 bd
       -0.1283539 0.19875586 -0.17055014 -0.05128063
000150 77 fb 87 bd 93 50 29 3e bd 0c e4 be 3b 84 a9 be
       -0.0663976 0.16534643 -0.4454097 -0.33108696
000160 d9 59 b7 3c ea ba 11 3e 5a de 46 bd a7 36 63 3d
       0.02238171 0.14231458 -0.048551895 0.055472042
000170 21 7c d4 3d ba 2e 0a be a0 53 2a 3c bb d9 4e bc
       0.10375238 -0.13494387 0.010395914 -0.012625153
000180 85 31 7f be 39 a0 ea 3d 9c e9 2e be 92 f4 2f be
       -0.24921234 0.11456341 -0.17081302 -0.1718314
000190 67 65 89 3e 16 83 b4 3e 17 fb 57 3e f4 94 2a 3d
       0.26835176 0.3525626 0.21091877 0.04164596
0001a0 f8 9b a6 be c6 8f 1d 3e 8b 18 10 be 87 30 bd bd
       -0.3254087 0.15386876 -0.14071862 -0.092377715
0001b0 78 f9 76 3e 9a 85 f0 bd 48 24 9a be f3 b0 c1 3e
       0.24118602 -0.117442325 -0.30105805 0.37830314
0001c0 61 1a 73 be 4e ca 57 3e aa 5e 90 be c5 fa a0 bc
       -0.23740532 0.21073267 -0.28197223 -0.019650826
0001d0 87 02 33 be f6 0e 2d 3e d9 2b b4 be 24 46 76 bd
       -0.17481433 0.16900238 -0.35189703 -0.060125485
0001e0 ae d2 44 be 1f 13 cd 3b a0 65 48 3b b2 95 67 bb
       -0.19220993 0.006258383 0.0030578151 -0.0035337028
0001f0 67 39 15 be a9 2c 15 be 16 ad 5f 3e 7e 38 4e 3d
       -0.14572679 -0.14567818 0.21843371 0.050346844
000200 95 2b 8e bd 84 4e 97 3d a0 26 c9 bd bd 5e 4f be
       -0.06941906 0.073880225 -0.0982182 -0.20250984
000210 0f 67 93 3d fb 87 25 bd 8e 47 09 bc 44 76 12 3e
       0.07197391 -0.040412884 -0.008378876 0.14302927
000220 45 31 5c be c8 95 33 be 66 6d aa 3b fa 1e 0d be
       -0.2150317 -0.17537606 0.0052010296 -0.13781348
000230 13 1e 94 3d c4 b8 97 bc dc 6d 2d 3d 52 2b 80 3e
       0.07232299 -0.01852072 0.0423411 0.2503305
000240 d9 fe 01 bd 79 e0 f2 3d 83 4f 4c 3e 29 f8 17 3d
       -0.031737182 0.11859221 0.19952206 0.0371019
000250 62 a6 3c 3d ab 68 d3 bd d4 f4 93 3e 94 69 1b be
       0.046057113 -0.10322698 0.28897727 -0.15176994
000260 95 29 8f be a0 ee 96 3c 88 7d be 3d 29 fb eb bc
       -0.27961412 0.018424332 0.09301287 -0.028806286
000270 e6 32 cb 3d 69 73 e5 3d 89 92 b9 3d b4 09 89 3e
       0.099218175 0.11203653 0.090611525 0.26765215
000280 65 6f 8d be 48 86 b5 bd 9d af b9 3d e9 a2 81 3e
       -0.2762405 -0.08863503 0.09066699 0.25319603
000290 f4 29 48 3e cd 8a 62 3e 26 23 0e 3d b2 3a c9 3d
       0.19547254 0.22123261 0.03470149 0.09825648
0002a0 26 c6 e1 bd 1d f9 b0 be 13 6f 10 be c6 c4 67 3d
       -0.11024122 -0.34565058 -0.14104871 0.056584142
0002b0 a9 26 39 bd e6 59 50 3d 5e 28 ad 3d 0a 46 7f 3e
       -0.045202885 0.050866984 0.08454965 0.24929062
0002c0 07 9e e2 3a 6d 7d 5e 3e 08 39 7a be 57 f2 5a bc
       0.0017289527 0.21727534 -0.24435818 -0.013363442
0002d0 1a af 8b 3e 3f a7 5b 3e 62 8c 0e bd 96 ef f9 3d
       0.2728203 0.21450518 -0.03480185 0.122039005
0002e0 04 0a f5 bd aa b4 1a 3e 19 80 8e be 65 86 98 be
       -0.11964801 0.1510798 -0.27832106 -0.29790035
0002f0 d6 68 9b 3e 75 af e9 3e 24 59 43 3e 08 c5 86 3d
       0.3035342 0.45641676 0.19076973 0.065805495
000300 9f bb 1b 3e cc f5 c3 bd ce e1 4c be 48 27 1c bd
       0.1520829 -0.095683664 -0.20008013 -0.0381234
000310 de 6c c6 3d 46 03 c6 3c 28 8d 0e 3e fa 84 64 3e
       0.096887335 0.024171483 0.13921034 0.22316352
000320 2e 71 48 bd de 91 89 3d 43 e0 0a 3e 81 2f 86 3d
       -0.04893606 0.06717275 0.13562112 0.065520294
000330 1d 30 79 3d 9a be 9a 3d 0f 53 1a 3e c7 57 34 bd
       0.0608369 0.075558856 0.15070747 -0.044029023
000340 fc bb 40 3e 1c 85 b4 3d 98 57 52 3e 81 f3 82 be
       0.1882171 0.08814451 0.20541227 -0.25576404
000350 76 a7 5a 3e 84 34 83 be 27 e0 8f be fe a4 d4 be
       0.21352944 -0.25626004 -0.28100702 -0.4153213
000360 7e ad 03 3e 6e bd 9c be 08 be 93 3e 8d c7 32 3e
       0.12859151 -0.30613273 0.2885592 0.17458935
000370 cf 73 00 be 17 eb bd be f8 20 16 bd d5 57 6a 3e
       -0.12544177 -0.37093422 -0.036652535 0.22885068
000380 63 40 4b be 9a 4f 87 be 1c d0 49 be 04 d0 8b 3d
       -0.1984878 -0.2642792 -0.19708294 0.06826785
000390 ab de cd be 71 dd e1 be 14 aa c9 3d 7d a3 57 3e
       -0.40208945 -0.4411426 0.09846893 0.2105846
0003a0 45 5b 96 bd 09 22 73 be 1e 13 f8 bd c5 5b 23 3e
       -0.07341627 -0.23743452 -0.12113021 0.15952976
0003b0 d4 c8 85 3e 22 8f 3d be 86 4f 84 bd bb 22 6b be
       0.26129782 -0.18511632 -0.064604804 -0.22962467
0003c0 62 8a c0 be 27 90 95 bb b2 cd 88 3e d5 10 27 bd
       -0.37605578 -0.0045643034 0.26719433 -0.040787537
0003d0 62 26 a7 be 2e cd 42 be f7 ee ce 3e 2c 9c 67 3e
       -0.3264647 -0.19023582 0.4041669 0.22618169
0003e0 ea 4e 07 bd 17 2e 84 3d f8 64 f5 bd 46 2e cf bc
       -0.033034243 0.064541034 -0.11982149 -0.02529062
0003f0 31 9e 0f bd f8 fc 0b bd 63 34 28 be 63 56 12 be
       -0.035062972 -0.034176797 -0.16426234 -0.14290766

decoders.0.fc.bias f4 [784]
000000 15 ef d7 3d 10 67 96 3d cc e9 ee be 5d 82 bf bd
       0.10543648 0.07343876 -0.46662748 -0.09351037
000010 66 df 40 be 17 9c da be b5 be 78 3d 45 0b 35 3e
       -0.1883522 -0.42697212 0.060728747 0.1768008
000020 d2 75 f2 3e e1 4e 60 3d 77 5a 75 bd c7 eb c3 3d
       0.47355515 0.054762725 -0.059900727 0.09566455
000030 c3 a4 40 be c4 74 ea bc 3f 4c 24 3d 19 bd b1 3c
       -0.18812852 -0.028620131 0.040111776 0.021696614
000040 e4 3d 88 3d 46 2f 54 3d 9a 98 12 3e 23 55 63 be
       0.0665243 0.051802896 0.14316025 -0.22200446
000050 7b e4 01 3e 47 a3 03 bd 17 92 d1 be b5 26 05 3d
       0.12684815 -0.032138135 -0.4093177 0.032507617
000060 f5 49 d6 3d e5 93 49 be 53 a7 81 3e fa 7a 17 3e
       0.10463325 -0.19685324 0.2532297 0.14793006
000070 30 ab ac 3e 8d 34 dd bd 70 0d b5 bd 70 6d 58 3d
       0.33724356 -0.10801039 -0.088404536 0.052838743
000080 6b 54 4b 3d 9e c9 bf 3e 8b dd 96 be e0 8b 43 be
       0.049641054 0.3745851 -0.294659 -0.19096327
000090 d5 3a c2 3e 46 b9 0b 3d b1 99 69 be bb cd 9d 3e
       0.3793551 0.034112237 -0.22812535 0.30821022
0000a0 d7 40 72 be de 02 cc 3d 4c f1 98 3e 5a 07 a5 3e
       -0.23657547 0.099614844 0.29871595 0.3223217
0000b0 9a 09 28 be 62 64 88 be 4a 24 c4 3e aa d2 d8 3d
       -0.16409913 -0.26639086 0.38308936 0.10587056
0000c0 3f 3d 09 3f 80 32 12 bd 8a cc a0 3d a6 f6 4a 3e
       0.5360908 -0.03569269 0.07851513 0.19820651
0000d0 56 73 f9 3d 33 f7 2c be a4 71 51 3e 98 37 2e 3e
       0.12180202 -0.16891174 0.20453507 0.17013395
0000e0 6c f3 d7 be d5 d5 97 3e 2c 41 1b be 46 60 f5 bd
       -0.42177904 0.29655328 -0.1516158 -0.11981253
0000f0 e7 a8 8f 3e fa 2c 10 3e c2 d7 a6 bc db db b9 be
       0.2805855 0.14079657 -0.020366553 -0.3630055
000100 c3 34 d3 bc 43 f5 41 bd 77 bc b9 bc 6b 8b 92 be
       -0.025781995 -0.04735304 -0.022672875 -0.28621992
000110 18 5e 00 3e d0 c7 93 bd 91 2c 7d 3d d8 df fe 3d
       0.12535894 -0.072158456 0.06181008 0.124450386
000120 78 a7 75 3e 3b a3 fc bc 32 77 6e bd 8f 09 90 3d
       0.23989666 -0.030839553 -0.058219142 0.07033073
000130 0d b0 97 be 1f 72 6a be ab 88 d1 bd 23 df 6d 3e
       -0.29626504 -0.22895096 -0.102311455 0.23229651
000140 78 be 39 3e 8c 27 7c be a1 52 cc 3d d2 34 f5 3e
       0.18139064 -0.24624461 0.09976698 0.4789186
000150 da 70 d7 be 1d 0d a9 3c a5 ef 3c be 34 2d b9 bd
       -0.42078286 0.020636136 -0.18450792 -0.09041825
000160 a5 8c 9f 3e 66 83 14 be 9f d5 e5 be 0b c5 eb 3e
       0.3116199 -0.1450325 -0.44889542 0.4604877
000170 36 0e 07 bf 4d 69 2f 3e fa 08 06 3e 8d bd 5a be
       -0.5275606 0.17130013 0.13089362 -0.2136137
000180 4d 91 12 be 10 2b 1f bd b7 8f 1d 3d f0 72 4c be
       -0.1431324 -0.038859427 0.038467135 -0.1996572
000190 2c a6 9c be a1 a6 a5 3e eb 9d dd bd b2 5a 58 be
       -0.3059553 0.3235369 -0.10821136 -0.21128348
0001a0 1d 15 85 3e 11 a2 9b 3d d5 31 ef 3e 32 b1 12 bd
       0.2599267 0.07599271 0.46717706 -0.035813518
0001b0 25 c8 65 be d8 4a 12 3c ac 69 bd 3e ed 29 55 be
       -0.2243963 0.008928977 0.36994684 -0.20816775
0001c0 2a 39 7d 3e b0 d5 e5 3d 2b 3d 60 3d 8d c6 56 be
       0.24728838 0.11222398 0.054745834 -0.20974179
0001d0 01 42 c8 3e c5 4a 30 be d0 e1 8c be 73 6f 92 3e
       0.39112857 -0.17216022 -0.2751603 0.28600654
0001e0 62 32 c0 bd b4 9c a3 3e 8e 14 a6 be d1 98 95 bd
       -0.0938461 0.31955492 -0.32437557 -0.07304538
0001f0 f3 a0 a5 3e ed 7a 49 3e 08 18 ac 3e b3 cf eb bb
       0.32349357 0.19675799 0.33612084 -0.0071963905
000200 c1 6a 78 bd 05 75 ee 3d 59 c7 96 bd 24 54 88 3e
       -0.060648683 0.116434135 -0.07362241 0.26626694
000210 34 54 4b 3d f2 cb d6 3c 32 90 b1 3d 50 06 98 3d
       0.04964085 0.026220296 0.08670081 0.07423079
000220 a2 ad 71 be 8c 61 c5 3e b2 c7 3d be 08 58 53 3e
       -0.23601392 0.38550985 -0.18533209 0.2063905
000230 be 14 dc 3e ba c5 28 39 86 2e ab be 42 ba 3b be
       0.42984575 0.00016095387 -0.33433932 -0.1833277
000240 27 1c eb 3e 65 92 19 bd 19 12 13 3f d0 6f 81 3d
       0.45919916 -0.03749313 0.5744949 0.06320155
000250 69 03 a6 ba 4e 1d a3 be 80 c3 15 3d 14 ce 2c be
       -0.0012665811 -0.31858295 0.036563396 -0.16875488
000260 e1 d7 60 be e6 be 23 3e 7c 8b a1 3e a0 72 09 3d
       -0.21957351 0.1599079 0.3155173 0.03355658
000270 f5 3e d5 3d 9a 8e fb 3d b9 d1 8a 3d 1d 2d 52 3d
       0.10412399 0.122830585 0.06778283 0.051312555
000280 52 da 9d bc 24 df 01 3e 97 4a 8d 3d a5 f2 9d 3e
       -0.019269142 0.12682778 0.068989925 0.30849186
000290 a7 f9 9f be e5 a5 37 3e b7 0e e4 3e d3 41 a1 ba
       -0.31245157 0.17934377 0.44542477 -0.0012302942
0002a0 d0 10 40 3e 66 f2 46 be 4c 46 ac bc 0b b8 c5 bd
       0.18756413 -0.19428405 -0.021029614 -0.09654244
0002b0 0a ee 94 3e e4 74 c6 3e 0c 4f 1b be ef 00 69 3e
       0.2908786 0.38761055 -0.15166873 0.22754262
0002c0 75 c7 88 3e f0 a5 56 be 22 4b 3f be 64 36 d6 bc
       0.26714674 -0.20961738 -0.18681005 -0.026148982
0002d0 ec e0 1a be 44 ef a3 be 82 58 5c 3e 83 56 98 3e
       -0.15124863 -0.32018483 0.21518138 0.29753503
0002e0 a8 bc 20 bd b8 2f 83 be 2d 2e eb be fb 38 74 3d
       -0.039242417 -0.25622344 -0.45933667 0.059624653
0002f0 2d 4f 4c 3e dc e8 ea 3e ae f2 ff 3d 21 2b 85 be
       0.19952078 0.45880783 0.12497459 -0.26009467
000300 f2 76 68 be 37 c5 0f 3f 7c 44 c1 3e 5e d7 66 be
       -0.22701624 0.561603 0.37747562 -0.22543094
000310 aa 58 0b be ef 2b b6 bc aa be 1c 3e 30 0d 4a bd
       -0.13608041 -0.022237746 0.15307108 -0.049328983
000320 23 1c c0 ba fa a6 ec bd a8 8a 5e 3c 6f 44 dc 3c
       -0.0014656823 -0.11555286 0.013582863 0.0268881
000330 33 c3 1a bb 63 f8 94 bb 81 c3 52 bd 6e e5 59 be
       -0.0023614883 -0.0045462116 -0.05145598 -0.21278927
000340 ea c5 ba 3e 19 32 3c 3e ac a1 7d 3e df e9 6a 3d
       0.3647912 0.18378486 0.24768704 0.057351943
000350 91 8f 27 3d b6 86 d3 3d 80 3c aa 3d 46 98 a1 3d
       0.0409084 0.103284284 0.08312321 0.07890372
000360 73 d7 05 be 7e b2 8e 3d cf c0 e4 bc ad 2e 25 3e
       -0.13070469 0.069676384 -0.02792397 0.16131087
000370 b7 28 19 be a0 9e 2b bc 05 c8 0e 3e e0 ae 5f 3c
       -0.14956938 -0.010474831 0.13943489 0.013652533
000380 9c e2 92 3e 9f 30 ff 3d 97 17 bd bb 6d f2 37 be
       0.28688514 0.124604456 -0.0057706344 -0.17963572
000390 5a ce 1c 3e a0 8c 96 3c c7 76 65 3e e4 2c d0 bc
       0.15313092 0.018377602 0.22408591 -0.02541203
0003a0 8c 60 7f 3e 7f 44 29 3e 37 fb 97 be 35 a2 1a be
       0.24939173 0.16530035 -0.2968385 -0.1510094
0003b0 a0 3c 6d 3e b3 4a 90 3e 74 77 ac 3e 51 4e 61 3e
       0.23167658 0.2818199 0.33684886 0.22002532
0003c0 49 50 24 be 04 c8 8f 3e 67 13 66 3d 36 da b2 3d
       -0.16046251 0.28082287 0.056170847 0.08733027
0003d0 14 cc bf 3e be d5 bd bd ca 79 29 3e 12 51 9f be
       0.37460387 -0.09269284 0.16550365 -0.3111654
0003e0 3b b5 e8 3d 27 8c 0a be eb 8e c1 bd 22 96 f2 3c
       0.11362692 -0.13530026 -0.094510876 0.029612605
0003f0 95 5d a3 3e af 08 a4 bc 91 38 3d bd 0f d3 61 bc
       0.31907335 -0.020023672 -0.046196524 -0.01378323
