models/model_diabetes_2.pth (torch, 10735 bytes, 23 tensors)

weights f4 [2, 8]
00000000: 9a5d 04bf ee0b f23f ded0 133f f839 0740
00000010: 7390 cb40 bfd0 b03f 6476 3141 e240 4941
00000020: 8bfa ad40 6944 c040 9bf7 4e40 c735 d73f
00000030: dc4a 2740 ad93 4241 96c9 72c0 2214 f0c0
-0.51705325 1.8909891 0.5774058 2.1129131 6.361383 1.3813704 11.091404 12.578341
5.436834 6.008351 3.2338626 1.6813287 2.613944 12.161054 -3.7935538 -7.5024576

autoencoders.0.encoder.layers.0.weight f4 [4, 8]
00000000: eaee 573e eace 0f3f 2234 a73e 09c9 213e
00000010: 51e1 393f 3e15 9e3f f068 e63e 60f3 c93c
00000020: 5e30 9b3d 4ff6 b7be d846 f43d b972 273d
00000030: 13a7 92bd e2ef 16bf f624 70be c805 de3d
00000040: ad84 ab3c b455 9abd ffde 86bd 8b88 593c
00000050: 4661 99bf 6d9b 16bf 1349 6bbf 4f54 23be
00000060: 7a23 ea9c c7f4 a2b7 adf0 3300 c3ec 39a6
00000070: e1b4 5ab6 a95b 16a9 65b2 1bb3 20d1 7bac
0.21087232 0.561751 0.32656962 0.15799345 0.7260943 1.2350233 0.45001936 0.024652183
0.07577585 -0.35930106 0.11927575 0.040880892 -0.07160773 -0.5895978 -0.234516 0.108409464
0.020937288 -0.07535878 -0.06585502 0.013277183 -1.198281 -0.5883091 -0.9190838 -0.1595013
-1.5493992e-21 -1.9425888e-05 4.769949e-39 -6.450564e-16 -3.2589817e-06 -3.3386193e-14 -3.6251e-08 -3.5785333e-12

autoencoders.0.encoder.layers.0.bias f4 [4]
00000000: 0d4e cabd ba77 393f d5b6 8c3f cd18 56b8
-0.09878168 0.72448313 1.0993296 -5.1044673e-05

autoencoders.0.encoder.layers.2.weight f4 [2, 4]
00000000: c884 813f 87d1 23bf ed78 b2bf 59d0 0ea2
00000010: 9f7f d7be 51ef 293f a1cf 6e40 1352 a427
1.0118647 -0.6399159 -1.3943154 -1.9354887e-18 -0.42089555 0.6638079 3.7314227 4.560813e-15

autoencoders.0.encoder.layers.2.bias f4 [2]
00000000: bc74 bb3c 3331 893f
0.022882812 1.071814

autoencoders.0.encoder.layers.4.weight f4 [1, 2]
00000000: 4b9b 623f f726 90bf
0.8851821 -1.1261891

autoencoders.0.decoder.layers.0.weight f4 [2, 1]
00000000: aba4 843e ed23 a33f
0.25906882 1.2745339

autoencoders.0.decoder.layers.0.bias f4 [2]
00000000: 6c63 643f ba14 1f3e
0.89214206 0.1553525

autoencoders.0.decoder.layers.2.weight f4 [4, 2]
00000000: 9ae4 d29f 113b 958d 4dc1 7bbd 382d e5be
00000010: 752e 143f 6016 403e 28b5 443f 4a44 a3be
-8.931665e-20 -9.197054e-31 -0.061463643 -0.44761062 0.5788339 0.18758535 0.7683892 -0.31888038

autoencoders.0.decoder.layers.2.bias f4 [4]
00000000: f412 cda5 9348 ee3e 6772 b23e 8c95 173e
-3.5574674e-16 0.46539745 0.34852907 0.14803141

autoencoders.0.decoder.layers.4.weight f4 [8, 4]
00000000: ed24 b300 6f26 b1bb bcef bf3d f69e 22be
00000010: be1c 3a80 c20f 5cbe 26ca 383f e4b6 bebe
00000020: 9d62 6580 f1f3 07bf d8d7 8e3e 080b 89be
00000030: 8cea ad80 685b b3be bc95 61bd 7a9f 2e3c
00000040: 3417 2a99 c128 80be 37e1 043f e17e 433f
00000050: 8eea 6d80 77a4 ab3e 61d4 df3e 2c5c 83be
00000060: ea4c 692e 2eae 2d3e 98d6 a5be 9acf a13e
00000070: fe15 a61f 4fd6 b43e b586 493e 0af8 b5bd
1.64518e-38 -0.005406193 0.093718976 -0.15880951 -5.33677e-39 -0.21490386 0.72183454 -0.3724891
-9.310761e-39 -0.531066 0.2789905 -0.2676623 -1.597168e-38 -0.35030675 -0.05507444 0.010658139
-8.79348e-24 -0.25031093 0.5190615 0.76365477 -1.0094211e-38 0.33523914 0.4371672 -0.2565626
5.304638e-11 0.16960976 -0.32390285 0.316037 7.034012e-20 0.35319754 0.19680293 -0.088852

autoencoders.0.decoder.layers.4.bias f4 [8]
00000000: bc9f 6b3e 1200 933e efea 4f3e f816 4e3e
00000010: 0a02 26be cee4 bebd e371 a33e 594d bf3c
0.23010153 0.2871099 0.20304464 0.2012595 -0.16211715 -0.09320985 0.31922826 0.023352312

autoencoders.1.encoder.layers.0.weight f4 [4, 8]
00000000: 3117 083e 620a b5bd 8650 88bc c036 bbbb
00000010: 3607 dd3c 1d1b 7ebc f055 d6be 623f 02c0
00000020: 73d3 8bba 87a8 96bb 7107 77ba c336 15b9
00000030: e98e c83b 26a7 99b9 401c 98bb 77b2 eaba
00000040: 6567 c3bd ebef c9bd 8a14 5e39 96d6 4ebb
00000050: af5b 263b b806 b1be ffd0 acbf cab8 85bd
00000060: dce3 f6bc 702f 43bc e5da 5d3f 6b8b 223d
00000070: 4aba 9a3d 2e3e ef3a 5750 633c 3eca 693a
0.13290097 -0.08839871 -0.016639959 -0.005713314 0.026980978 -0.015509394 -0.4186244 -2.0351186
-0.0010667875 -0.0045977267 -0.0009423411 -0.00014230148 0.006120552 -0.0002930697 -0.0046420395 -0.001790597
-0.09541205 -0.09860214 0.00021179221 -0.0031561009 0.0025384238 -0.34575438 -1.350128 -0.06529386
-0.030137949 -0.011913165 0.8666213 0.03968374 0.07555063 0.0018252784 0.013874135 0.0008918381

autoencoders.1.encoder.layers.0.bias f4 [4]
00000000: d336 193f 9744 a6bb a872 333f 5359 bb3b
0.5984928 -0.0050740945 0.70096827 0.0057174354

autoencoders.1.encoder.layers.2.weight f4 [2, 4]
00000000: 4fde c400 20a6 5781 c8dc 522b 52b4 49bb
00000010: 4fe3 1240 20c2 2ebc 7344 0e40 48db 293e
1.8079507e-38 -3.9608452e-38 7.4913383e-13 -0.0030777645 2.2951238 -0.0106664 2.2229278 0.16587555

autoencoders.1.encoder.layers.2.bias f4 [2]
00000000: 0578 8bbc d8c7 3f3e
-0.017025003 0.18728578

autoencoders.1.encoder.layers.4.weight f4 [1, 2]
00000000: 6467 3a3b 0b69 bfbf
0.0028442973 -1.4953932

autoencoders.1.decoder.layers.0.weight f4 [2, 1]
00000000: 6b77 6101 4960 c3bf
4.1411651e-38 -1.5263759

autoencoders.1.decoder.layers.0.bias f4 [2]
00000000: fe88 9c81 971e f23d
-5.7501924e-38 0.11822241

autoencoders.1.decoder.layers.2.weight f4 [4, 2]
00000000: 1cd2 0881 cb66 5f80 4476 1681 bb98 333f
00000010: 9241 cf80 b19e ae00 561c a881 0e79 833f
-2.513e-38 -8.761247e-39 -2.76355e-38 0.70154923 -1.903347e-38 1.6036304e-38 -6.1754113e-38 1.0271318

autoencoders.1.decoder.layers.2.bias f4 [4]
00000000: aa37 c480 4305 b43e 1a4c b08a 3dfa 14bf
-1.8019726e-38 0.35160264 -1.697681e-32 -0.58194333

autoencoders.1.decoder.layers.4.weight f4 [8, 4]
00000000: 6c1b 9201 51ec 8a3e 843f 5101 aa2e 9ebe
00000010: 4b16 dc80 10b1 f33e 32c2 7500 b180 abbe
00000020: e67f a880 9f84 513f 408b 8d80 f063 1940
00000030: 362d b781 6fd8 a5be 7d92 4e80 7cd5 a63e
00000040: a08b 0d00 d2c6 cc3e a85f 6a00 2f00 b1bb
00000050: e979 8a81 9a02 913a ced5 8700 a067 49bd
00000060: 4690 f300 df06 653e 73c8 0e01 f943 f6bd
00000070: 78a7 3c01 0f94 113f e5cb 6a80 6ab1 d5be
5.367128e-38 0.2713342 3.8432808e-38 -0.30894977 -2.0211806e-38 0.47596025 1.0814417e-38 -0.3349662
-1.5474245e-38 0.8184299 -1.2998758e-38 2.3967247 -6.728846e-38 -0.32391688 -7.215719e-39 0.3258475
1.24395e-39 0.39995438 9.768878e-39 -0.005401633 -5.0868126e-38 0.0011063397 1.247449e-38 -0.04917109
2.2367781e-38 0.22365902 2.6225096e-38 -0.120246835 3.46503e-38 0.56866544 -9.807706e-39 -0.4173692

autoencoders.1.decoder.layers.4.bias f4 [8]
00000000: d831 cb3d c8ff ed3e 1a57 83bf 2c65 bc3e
00000010: b74d 563e e2e5 b43e f85a dc3e 852a b13d
0.09921616 0.46484208 -1.0260956 0.36795938 0.20928083 0.35331637 0.43038154 0.08650688
