models/model_diabetes_0.pth (torch, 10735 bytes, 23 tensors)

weights f4 [2, 8]
00000000: 3186 8240 1ead 9840 c0ee 853f c5df a43f
00000010: 4168 153f c910 5241 d242 6141 49ed 1941
00000020: f9e3 71bf 6b0f 0041 3e32 303e 7c11 073f
00000030: 57b6 0a40 84b6 6c41 3f42 7541 316a 2641
4.078881 4.7711325 1.0463486 1.2880789 0.58362204 13.129098 14.078814 9.620431
-0.94488484 8.003764 0.17206666 0.52761054 2.1673791 14.7945595 15.328673 10.400926

autoencoders.0.encoder.layers.0.weight f4 [4, 8]
00000000: 4a45 a201 100e 9c80 1655 9c01 9e8c b301
00000010: c072 cf80 c815 2100 9857 5680 607f cc80
00000020: 58ee 0b01 38e0 5a01 f88f e780 00e8 e300
00000030: 28d4 e980 d082 9700 30ce 5400 6820 4b01
00000040: 1025 0981 806a 7881 d190 6f00 7e84 9481
00000050: 95e2 3d80 bc3d 8b81 b151 5901 eaf5 b481
00000060: 901d 7100 c0c0 a680 bc25 1901 f8f4 aa01
00000070: 50b3 0d81 4473 8201 808b 1501 b8ef d180
5.9608826e-38 -1.4331382e-38 5.742744e-38 6.595599e-38 -1.9051112e-38 3.038385e-39 -7.929275e-39 -1.8780135e-38
2.570127e-38 4.0201145e-38 -2.1265646e-38 2.0929884e-38 -2.1473778e-38 1.3914087e-38 7.788148e-39 3.7308462e-38
-2.5189517e-38 -4.5626816e-38 1.024569e-38 -5.455673e-38 -5.683248e-39 -5.114912e-38 3.9915216e-38 -6.6474427e-38
1.0388016e-38 -1.5313838e-38 2.8128735e-38 6.279965e-38 -2.602626e-38 4.7919856e-38 2.7467064e-38 -1.9279614e-38

autoencoders.0.encoder.layers.0.bias f4 [4]
00000000: 704c 3380 20d7 7381 11dd 5f80 bc88 6681
-4.711031e-39 -4.4786396e-38 -8.803676e-39 -4.234243e-38

autoencoders.0.encoder.layers.2.weight f4 [2, 4]
00000000: 7082 b200 00a4 5200 4670 3901 b070 4781
00000010: 16a7 9d81 1ca4 8381 42af 4580 40da cd80
1.639351e-38 7.589343e-39 3.4059686e-38 -3.6631377e-38 -5.791245e-38 -4.8357285e-38 -6.39952e-39 -1.890457e-38

autoencoders.0.encoder.layers.2.bias f4 [2]
00000000: 7828 2980 a92f 1e80
-3.779773e-39 -2.772162e-39

autoencoders.0.encoder.layers.4.weight f4 [1, 2]
00000000: 36df 1f80 0296 af80
-2.926973e-39 -1.6125024e-38

autoencoders.0.decoder.layers.0.weight f4 [2, 1]
00000000: cb9f 1d3f c19c ef3e
0.6157195 0.4679928

autoencoders.0.decoder.layers.0.bias f4 [2]
00000000: 4ac9 d93e f5ac c23e
0.42536384 0.3802258

autoencoders.0.decoder.layers.2.weight f4 [4, 2]
00000000: 74a1 9d3d 02dc 6a3e 3f18 cb80 27ed ea80
00000010: f40c 1401 5a41 ba81 d8ad 09be cb39 8f3e
0.0769681 0.22935489 -1.8651304e-38 -2.157458e-38 2.71926e-38 -6.8419384e-38 -0.13445222 0.2797378

autoencoders.0.decoder.layers.2.bias f4 [4]
00000000: 596d 713e 2b2d 9780 7a15 4d00 9318 0c3f
0.23576869 -1.3883363e-38 7.079038e-39 0.54725

autoencoders.0.decoder.layers.4.weight f4 [8, 4]
00000000: bdd6 abbd 8f33 9081 7af1 6c01 f84d 793e
00000010: 03f5 2e3f 7832 8701 7777 7c80 54b6 f73e
00000020: bdda da3e 1edd 8681 535b fa00 b6e9 2e3e
00000030: 2106 d5be 0669 de00 da22 8801 ab92 e5be
00000040: bc9c b03e 827f 8001 a2dc 7381 8907 de3b
00000050: 3da6 74bc b75d 8300 d6d4 3a01 bc00 823e
00000060: 8fea 42be bd8d a181 e196 5e00 196b da3e
00000070: 2c4b b63e 70da 9001 a4ee 4580 206b e03e
-0.083905675 -5.297123e-38 4.3519605e-38 0.24346149 0.6834261 4.9663587e-38 -1.1430457e-38 0.48381293
0.4274501 -4.9541114e-38 2.2991635e-38 0.17081341 -0.41606238 2.0425155e-38 5.000852e-38 -0.4483846
0.3449458 4.720274e-38 -4.4790347e-38 0.0067758006 -0.014932212 1.2064069e-38 3.4315507e-38 0.25391185
-0.1903479 -5.9345444e-38 8.686662e-39 0.42659834 0.35604227 5.321069e-38 -6.422257e-39 0.4383173

autoencoders.0.decoder.layers.4.bias f4 [8]
00000000: 224e a93d 28bb 833b 450b 22be 3389 d83e
00000010: dcea a23e f2b0 aabc bcae ca3d c08e 15be
0.08266856 0.0040201135 -0.15824611 0.42292175 0.31819808 -0.020836327 0.09896609 -0.14605236

autoencoders.1.encoder.layers.0.weight f4 [4, 8]
00000000: 00ac 1301 a901 1281 00b2 0880 1034 b981
00000010: 7ed1 5281 b3cb 6800 d789 c280 5bc0 9180
00000020: 9214 8501 a0d2 5381 35b2 b380 05fe 0d81
00000030: 38be 0781 68f7 6f81 6001 5781 879c 6901
00000040: 0c5a e900 789d 5781 b30f 3600 9a8c 1781
00000050: d062 af00 7aea f300 7c41 6b81 b4c2 7981
00000060: 41a5 d400 06a5 8981 cd74 9900 adea a901
00000070: a1eb 1900 ce4f 1300 dd7f 7100 72b9 fc80
2.712304e-38 -2.6817156e-38 -7.98538e-40 -6.8032973e-38 -3.8721212e-38 9.623965e-39 -1.7865534e-38 -1.3385151e-38
4.8886e-38 -3.8905695e-38 -1.6502482e-38 -2.607986e-38 -2.493206e-38 -4.4074872e-38 -3.949025e-38 4.2907644e-38
2.1429973e-38 -3.9602242e-38 4.964749e-39 -2.7835197e-38 1.6106659e-38 2.240014e-38 -4.3209666e-38 -4.587377e-38
1.9528407e-38 -5.056265e-38 1.4092731e-38 6.241754e-38 2.380415e-39 1.773503e-39 1.042328e-38 -2.320907e-38

autoencoders.1.encoder.layers.0.bias f4 [4]
00000000: 809a 3081 0fb8 9381 a5a2 8b81 4ce2 7e80
-3.2436943e-38 -5.4263383e-38 -5.129392e-38 -1.1652453e-38

autoencoders.1.encoder.layers.2.weight f4 [2, 4]
00000000: 6493 e600 5da6 3901 a0f5 5801 0a61 9581
00000010: 0da6 7101 bdfc e900 c611 bd81 8690 6500
2.1175038e-38 3.4098493e-38 3.9849162e-38 -5.48732e-38 4.4383845e-38 2.1488336e-38 -6.945314e-38 9.32723e-39

autoencoders.1.encoder.layers.2.bias f4 [2]
00000000: 8274 0481 961f 6e80
-2.432816e-38 -1.0113235e-38

autoencoders.1.encoder.layers.4.weight f4 [1, 2]
00000000: 27cc bd01 7b93 5e80
6.972058e-38 -8.685443e-39

autoencoders.1.decoder.layers.0.weight f4 [2, 1]
00000000: 8105 a73e c3f0 95bc
0.32621387 -0.01830328

autoencoders.1.decoder.layers.0.bias f4 [2]
00000000: 1920 013f 7d58 cabc
0.504396 -0.024700398

autoencoders.1.decoder.layers.2.weight f4 [4, 2]
00000000: 8e08 ddba b008 f300 847d fb3d 963e ef3c
00000010: bed8 7280 502d d100 84f7 bc9e a028 0981
-0.0016863511 2.2319142e-38 0.122797996 0.029204648 -1.0546999e-38 1.9209874e-38 -2.0007644e-20 -2.5192073e-38

autoencoders.1.decoder.layers.2.bias f4 [4]
00000000: 5f99 f2b8 ce32 1b3f 8448 1881 9df3 b9a8
-0.00011568027 0.60624397 -2.7970018e-38 -2.0644776e-14

autoencoders.1.decoder.layers.4.weight f4 [8, 4]
00000000: 07ee 10bc e7f5 b03e c081 8280 c629 8e00
00000010: 4b6d c43b b517 703f 417c 7c01 7177 5e80
00000020: 310a e43c e805 553e 4906 2001 d5ec 2600
00000030: 7c89 3c3c b4d2 a8bd 6332 6201 2c8b 1f00
00000040: 8297 1f3c 1a05 fd3e b483 5801 fa80 4880
00000050: ae8b b03c 8426 963d 7d52 7881 3ff3 b180
00000060: ad63 e0bb 6f1e 663e 0ec5 c700 7a75 d59a
00000070: 7d5c 2a3c e1a4 943e 5240 6d80 1fae c815
-0.008845813 0.3456261 -1.198516e-38 1.3055626e-38 0.005994474 0.93786174 4.6374238e-38 -8.675384e-39
0.02783689 0.20803034 2.9391868e-38 3.574708e-39 0.011507388 -0.082433134 4.1545795e-38 2.896826e-39
0.009740712 0.49417955 3.9767427e-38 -6.658424e-39 0.02155098 0.07331565 -4.5609589e-38 -1.6342143e-38
-0.00684782 0.22472547 1.8345954e-38 -8.828453e-23 0.0103980275 0.29032043 -1.0033143e-38 8.105407e-26

autoencoders.1.decoder.layers.4.bias f4 [8]
00000000: c38e 703b e202 1e3e a771 dc3d b65c 4b3e
00000010: aba4 6e3e e094 903e 324a 043f 2b58 b03e
0.0036706186 0.15430787 0.10763865 0.19859585 0.23305003 0.28238583 0.51675713 0.34442267
