models/model_octminst_6.pth (torch, 563411 bytes, 27 tensors)

weights f4 [4, 784]
0	0x3f61b377	0.88164467
1	0x3f46faa8	0.7772622
2	0x3f666479	0.8999706
3	0x3f6c244b	0.9224288
4	0x3f5ff222	0.8747884
5	0x3f695de7	0.9115891
6	0x3f869709	1.0514842
7	0x3f77c4d7	0.9678473
8	0x3f3b7695	0.73227817
9	0x3f3f8d7b	0.7482526
10	0x3f519daa	0.818812
11	0x3f40c810	0.7530527
12	0x3f6256bf	0.88413614
13	0x3f49725d	0.7869013
14	0x3f3d22d4	0.7388127
15	0x3f366fc7	0.7126431
16	0x3f5ea6d4	0.8697331
17	0x3f46d2ad	0.77665216
18	0x3f6e19e3	0.9300825
19	0x3f625ad8	0.88419867
20	0x3f37b22d	0.7175625
21	0x3f333157	0.6999716
22	0x3f5a0d84	0.85176873
23	0x3f6320f8	0.8872218
24	0x3f4b4f5f	0.79417986
25	0x3f4eb503	0.8074495
26	0x3f69efc6	0.9138149
27	0x3f65c23d	0.8974951
28	0x3f607c03	0.87689227
29	0x3f666e98	0.900125
30	0x3f7b1392	0.98076737
31	0x3f3f96e6	0.7483963
32	0x3f439965	0.76405936
33	0x3f1b1531	0.6057921
34	0x3f0f9fa0	0.56102943
35	0x3efbf774	0.4921223
36	0x3f26d3e4	0.6516707
37	0x3f01bf60	0.5068264
38	0x3f32a7ee	0.6978749
39	0x3f263720	0.64927864
40	0x3f5f2c32	0.8717681
41	0x3f4100f5	0.75392085
42	0x3f47ae94	0.7800076
43	0x3f363916	0.71180856
44	0x3f0e9232	0.55691826
45	0x3f0a6915	0.5406659
46	0x3f45329d	0.77030355
47	0x3f1fc07f	0.624031
48	0x3f2e0b9e	0.67986476
49	0x3f2136f0	0.6297445
50	0x3f412461	0.75446135
51	0x3f24a33d	0.6431158
52	0x3f486870	0.7828436
53	0x3f47ff6c	0.7812412
54	0x3f67936b	0.90459317
55	0x3f64b9e7	0.89346164
56	0x3f0f26d7	0.5591864
57	0x3f16f445	0.58966476
58	0x3f3c6b68	0.7360139
59	0x3f35d019	0.71020657
60	0x3f3a418c	0.72756267
61	0x3f35a814	0.7095959
62	0x3f2e0a17	0.67984146
63	0x3f279b2d	0.65471154
64	0x3f3c778a	0.736199
65	0x3f289530	0.6585264
66	0x3f204572	0.62605965
67	0x3f1efe87	0.6210713
68	0x3f56ae68	0.8385987
69	0x3f4b6723	0.7945425
70	0x3f318428	0.6934228
71	0x3f20e5c8	0.6285062
72	0x3f19ca56	0.60074365
73	0x3efe1aa0	0.49629688
74	0x3f45fe3a	0.77341044
75	0x3f4aad3d	0.7917059
76	0x3f48f3ad	0.7849682
77	0x3f3957bc	0.723995
78	0x3f63a189	0.8891836
79	0x3f566b1a	0.83757174
80	0x3f4bf6ae	0.7967328
81	0x3f4162e0	0.75541496
82	0x3f41f7da	0.75768816
83	0x3f311504	0.6917269
84	0x3f5e28ce	0.86781013
85	0x3f553f76	0.8329996
86	0x3f7a36ec	0.97740054
87	0x3f468c71	0.77558047
88	0x3f324ef0	0.696517
89	0x3f1f871e	0.6231555
90	0x3f57e8d9	0.8433967
91	0x3f62fad5	0.8866399
92	0x3f5ee4d8	0.8706794
93	0x3f49a600	0.7876892
94	0x3f48e2a3	0.7847082
95	0x3f2f8f78	0.6857829
96	0x3f4b2370	0.7935095
97	0x3f3ccc20	0.7374897
98	0x3f782473	0.9693062
99	0x3f70f47f	0.9412307
100	0x3f4b7e91	0.7949
101	0x3f3ab4d7	0.7293219
102	0x3f478c88	0.7794881
103	0x3f1993e4	0.5999129
104	0x3f156e35	0.5837129
105	0x3eeb0ba6	0.45907325
106	0x3ed9d690	0.4254651
107	0x3e9c5f42	0.30541426
108	0x3ef2d47b	0.47427735
109	0x3f1286cd	0.5723694
110	0x3f5bc424	0.8584616
111	0x3f45736a	0.7712923
112	0x3f902468	1.126111
113	0x3f834526	1.0255477
114	0x3f66bbec	0.90130496
115	0x3f6c9bfd	0.9242552
116	0x3f81cdda	1.0140946
117	0x3f605632	0.87631524
118	0x3f534759	0.8253074
119	0x3f55d95a	0.8353478
120	0x3f2a44d8	0.665113
121	0x3f1a2a50	0.60220814
122	0x3f62087a	0.88294184
123	0x3f541f47	0.82860225
124	0x3f3dd981	0.7416001
125	0x3f276462	0.65387547
126	0x3f362e3e	0.7116431
127	0x3f419eee	0.7563313
128	0x3f6086a2	0.87705433
129	0x3f52f8a0	0.8241062
130	0x3f3fce62	0.7492429
131	0x3f394958	0.7237754
132	0x3f643f50	0.8915911
133	0x3f67e197	0.905786
134	0x3f72fed1	0.9492007
135	0x3f622311	0.8833476
136	0x3f482c13	0.7819225
137	0x3f5c572c	0.86070514
138	0x3f40c19b	0.7529542
139	0x3efc8de7	0.49327013
140	0x3f66ca49	0.9015241
141	0x3f519bdc	0.8187845
142	0x3f34d0cd	0.70631105
143	0x3f31bf34	0.6943238
144	0x3f47cc10	0.7804575
145	0x3f4ba983	0.7955553
146	0x3f4408b7	0.765758
147	0x3f4790d4	0.77955365
148	0x3f86338c	1.0484481
149	0x3f88e737	1.0695561
150	0x3f7d32c4	0.9890559
151	0x3f4250d4	0.75904584
152	0x3f32129b	0.6955964
153	0x3f33da8c	0.7025535
154	0x3f6fb02b	0.93628186
155	0x3f7f05bd	0.9961813
156	0x3f61a27f	0.88138574
157	0x3f3b06fd	0.7305754
158	0x3f294f69	0.66136795
159	0x3f2cff3b	0.6757695
160	0x3f2e136e	0.679984
161	0x3f1b0d2a	0.6056696
162	0x3f2bf331	0.67167956
163	0x3f2f8b01	0.6857148
164	0x3f329a2f	0.69766515
165	0x3f299440	0.66241837
166	0x3f34cc32	0.7062408
167	0x3f26dea4	0.6518347
168	0x3f97091c	1.1799655
169	0x3f988eef	1.191862
170	0x3f96800d	1.1757828
171	0x3f90dc35	1.1317202
172	0x3f799ad7	0.9750189
173	0x3f76255c	0.96150756
174	0x3f8436f2	1.0329268
175	0x3f7d4645	0.9893535
176	0x3f63ddfc	0.89010596
177	0x3f8de9cf	1.1086978
178	0x3f85f02c	1.046392
179	0x3f447102	0.76734936
180	0x3f3be0ff	0.7339019
181	0x3f3a8ef4	0.7287438
182	0x3f9d1467	1.2271851
183	0x3f919a4d	1.1375214
184	0x3f6e4bbe	0.93084323
185	0x3f6385e1	0.8887616
186	0x3f80efd5	1.0073191
187	0x3f6b8c4b	0.92010945
188	0x3f2579cb	0.64638966
189	0x3f235a11	0.63809305
190	0x3f7e76c8	0.99399996
191	0x3f7aba8f	0.97940916
192	0x3f45958d	0.7718132
193	0x3f564a4e	0.8370713
194	0x3f8112a3	1.0083812
195	0x3f621524	0.8831351
196	0x3fa198ec	1.2624793
197	0x3fa7fe35	1.3124453
198	0x3f9e7809	1.2380382
199	0x3f834136	1.0254276
200	0x3f167dd8	0.5878577
201	0x3f0d8b3b	0.55290574
202	0x3f5f1d9f	0.87154573
203	0x3f48fb3b	0.7850835
204	0x3f4525c5	0.77010757
205	0x3f616d44	0.8805735
206	0x3f560259	0.8359733
207	0x3f6f14a1	0.9339085
208	0x3f6e5ac3	0.9310724
209	0x3f85029f	1.0391425
210	0x3f3312c0	0.69950485
211	0x3ee66695	0.4500014
212	0x3f4a9c85	0.7914508
213	0x3f583542	0.84456265
214	0x3f826be1	1.0189172
215	0x3f79c0ab	0.97559613
216	0x3f8d6700	1.1047058
217	0x3f63ac44	0.8893473
218	0x3f835325	1.0259749
219	0x3f2e9428	0.6819482
220	0x3f45d61e	0.7727984
221	0x3f816093	1.0107597
222	0x3f92deb8	1.1474218
223	0x3f595083	0.84888476
224	0x3f7bf479	0.9841991
225	0x3f5f7bce	0.87298286
226	0x3f921173	1.1411575
227	0x3fb4bdab	1.4120382
228	0x3fa60cde	1.2972677
229	0x3f84d10d	1.0376297
230	0x3f8ec0f0	1.115263
231	0x3f95bda1	1.1698495
232	0x3fa91a7d	1.3211209
233	0x3f915a89	1.1355754
234	0x3f8dc4b9	1.107566
235	0x3f9fc564	1.2482114
236	0x3f521918	0.8206954
237	0x3f720892	0.9454433
238	0x3f82fbaf	1.0233058
239	0x3f8437cf	1.0329531
240	0x3f7fdf1a	0.999498
241	0x3f5c4195	0.8603757
242	0x3f8c200e	1.0947282
243	0x3fadbce4	1.357327
244	0x3f9a4350	1.2051792
245	0x3f71f477	0.9451365
246	0x3fa724d4	1.3058114
247	0x3fbcab65	1.4739805
248	0x3fa7107d	1.3051907
249	0x3fa5cf30	1.2953854
250	0x3f94d718	1.1628141
251	0x3f7e1ee0	0.9926586
252	0x3fd545a1	1.6661874
253	0x3fac85f3	1.3478378
254	0x3f5d64ba	0.8648182
255	0x3f81666e	1.0109384

encoder.model.0.weight f4 [8, 1, 3, 3]
0	0xbdf9382c	-0.12168917
1	0x3b6bd55b	0.0035985324
2	0x3edfaa00	0.43684387
3	0xbe3ffc6b	-0.18748634
4	0xbea91a16	-0.33027714
5	0x3d2435b0	0.040090263
6	0x3d16a36e	0.036776952
7	0x3e3095c3	0.1724463
8	0x3e1fb04b	0.15594594
9	0xbf20de39	-0.62839085
10	0xbe98f029	-0.29870728
11	0xbeade66e	-0.33964866
12	0x3ebf47c7	0.3735945
13	0x3f2f4ad1	0.68473536
14	0x3dc3efc9	0.0956722
15	0xbe3b65dd	-0.18300577
16	0x3e8185b2	0.25297314
17	0xbe1dbeac	-0.15404767
18	0xbca146a8	-0.019687012
19	0xbcc050cb	-0.023476025
20	0xbcd69adb	-0.026196888
21	0xbcff6b0b	-0.031178972
22	0xbd18c9ba	-0.037301756
23	0xbd21efb1	-0.03953523
24	0xbd038224	-0.032106534
25	0xbd17bf13	-0.037047457
26	0xbd1a9e81	-0.037748817
27	0x3e00ac43	0.12565713
28	0xbecddc57	-0.40207168
29	0x3e6ea4d5	0.23305066
30	0xbdf392d4	-0.118932396
31	0xbf07ca83	-0.53043383
32	0x3f1dfd05	0.617142
33	0xbebc6667	-0.36796877
34	0x3d459214	0.048235014
35	0x3ec1627a	0.37770444
36	0xbef15a71	-0.47139314
37	0xbf241276	-0.6409067
38	0x3e9f902f	0.3116469
39	0xbdc3836c	-0.09546551
40	0x3ebf16e0	0.3732214
41	0x3efbe59c	0.49198616
42	0x3e83bc5c	0.25729644
43	0x3d62ae23	0.05534185
44	0xbe00eab5	-0.12589534
45	0xbe611bb1	-0.2198322
46	0xbe96bb01	-0.29439548
47	0x3f17b3c4	0.59258676
48	0xbe45808a	-0.19287315
49	0xbe0b11bd	-0.13580985
50	0x3f56091a	0.8360764
51	0xbe6bfcfc	-0.23045725
52	0x3e0ced11	0.13762309
53	0x3f24d9dd	0.64394933
54	0xbe9d199b	-0.30683598
55	0xbdead0e0	-0.11465621
56	0xbd913375	-0.07089893
57	0xbe6ecf0c	-0.2332117
58	0xbeb70050	-0.35742426
59	0xbe9e9a1b	-0.30976948
60	0x3ea5d821	0.32391456
61	0x3f1497b1	0.5804396
62	0x3ee2f8bd	0.44330397
63	0x3e7ff2e3	0.24994998
64	0xbe0d82fd	-0.138195
65	0x3e0b0629	0.13576569
66	0xbd7f0948	-0.06226471
67	0xbf3ca662	-0.7369138
68	0xbf139b58	-0.5765891
69	0x3ebbd9fe	0.36689752
70	0x3c251f75	0.010078301
71	0xbe083edc	-0.13305229

encoder.model.0.bias f4 [8]
0	0x3ccf9cb0	0.02534327
1	0x3b781eb2	0.0037860093
2	0xbc46038d	-0.0120858075
3	0xbab8e5f9	-0.0014106623
4	0x3d84d1c3	0.064853214
5	0xbe36d4cb	-0.17854612
6	0xbd36c54d	-0.044621754
7	0x3e83d765	0.2575027

encoder.model.2.weight f4 [16, 8, 3, 3]
0	0xa4e6d2dd	-1.00103816e-16
1	0xaa8560f4	-2.369282e-13
2	0xa8b826dc	-2.0444956e-14
3	0xa3375b54	-9.939789e-18
4	0xa92edb4b	-3.8825968e-14
5	0xa726a9e3	-2.3129224e-15
6	0xa6c1f61b	-1.3458772e-15
7	0xab9c021a	-1.108505e-12
8	0xaa008b24	-1.1416958e-13
9	0x00055c78	4.92349e-40
10	0x00056193	4.9418e-40
11	0x00056417	4.95083e-40
12	0xa8484532	-1.1117235e-14
13	0xab6a806c	-8.331172e-13
14	0xab5c91ac	-7.836186e-13
15	0x0005603c	4.937e-40
16	0x802efb26	-4.314528e-39
17	0x0005582b	4.90806e-40
18	0x80057471	-5.00949e-40
19	0x00058ae3	5.09e-40
20	0x800594d8	-5.12573e-40
21	0x80060df7	-5.56023e-40
22	0x0005acfe	5.21235e-40
23	0x80057bd7	-5.03603e-40
24	0x000632c3	5.69223e-40
25	0x80055d0c	-4.92556e-40
26	0x0005df0a	5.39189e-40
27	0x00055796	4.90597e-40
28	0x00055bee	4.92156e-40
29	0x00056230	4.944e-40
30	0x00055a63	4.91602e-40
31	0x00055e43	4.92992e-40
32	0x00055ea0	4.93123e-40
33	0x00055baa	4.9206e-40
34	0x0005575e	4.90519e-40
35	0x00055ba9	4.92059e-40
36	0xa9aadebc	-7.588155e-14
37	0xadb6b67e	-2.0772047e-11
38	0xac6a1b27	-3.3268473e-12
39	0xb08c8905	-1.0225284e-09
40	0xb30d9a8f	-3.296969e-08
41	0xb25efbb0	-1.2979328e-08
42	0xac0810f9	-1.9336184e-12
43	0xaf676014	-2.1043461e-10
44	0xae845437	-6.0176246e-11
45	0xabba0f7a	-1.322039e-12
46	0xb04d0999	-7.4592205e-10
47	0xae1e6019	-3.6010393e-11
48	0xafdc63ba	-4.0088627e-10
49	0xb2e790f3	-2.6957855e-08
50	0xb1c1d0b0	-5.6407643e-09
51	0xae46a952	-4.5170374e-11
52	0xb205c397	-7.786091e-09
53	0xb016c68f	-5.485185e-10
54	0x00055c92	4.92385e-40
55	0x000558e4	4.91065e-40
56	0x00055892	4.9095e-40
57	0x8caa2c8a	-2.6219453e-31
58	0x9104eb38	-1.0485446e-28
59	0x92ea0f6c	-1.4771278e-27
60	0x970ff0f1	-4.6509903e-25
61	0x9c8ff94d	-9.527389e-22
62	0x9c235130	-5.403711e-22
63	0xadbcb0d0	-2.1451646e-11
64	0xaf81afe7	-2.358995e-10
65	0xb017d8ef	-5.524176e-10
66	0xae4fc978	-4.724529e-11
67	0xafac369d	-3.1325423e-10
68	0xb0833780	-9.547279e-10
69	0xaffb623b	-4.572643e-10
70	0xb16d4ddd	-3.45323e-09
71	0xb1f4555f	-7.11104e-09
72	0x3e35db5d	0.17759462
73	0xbe66273a	-0.22475901
74	0xbc822814	-0.015888251
75	0x3e956958	0.29181933
76	0x3d8fdfde	0.07025121
77	0xbd2b8136	-0.041871272
78	0x3ebe1edc	0.3713292
79	0x3e756b03	0.23966603
80	0xbddb96b9	-0.107221074
81	0xbec253cf	-0.37954566
82	0xbec7c32a	-0.39016086
83	0x3ee8cd65	0.45469204
84	0xbf134343	-0.5752451
85	0xbe771813	-0.24130277
86	0x3dc67b97	0.09691542
87	0xbd95eb37	-0.07320254
88	0xbe6ba842	-0.23013404
89	0xbdd0a55e	-0.10187791
90	0x3c415800	0.011800766
91	0x3c43ae52	0.011943417
92	0x3c3a610a	0.011375675
93	0xbc6fb3af	-0.014630242
94	0xbcc2476b	-0.023715695
95	0xbcd26b93	-0.025686061
96	0xbd01150e	-0.03151422
97	0xbd2b235d	-0.041781772
98	0xbd3e5938	-0.046471804
99	0xbf186da1	-0.5954228
100	0x3e13a599	0.14418639
101	0x3f462135	0.7739442
102	0x3f07abb8	0.52996397
103	0x3f0118fa	0.50428736
104	0x3f0401d0	0.51565266
105	0x3f320b35	0.6954835
106	0x3e041555	0.12898763
107	0x3f4c8473	0.798896
108	0xbe0499d1	-0.12949301
109	0xbf037c5c	-0.5136163
110	0x3eb14d9f	0.34629533
111	0xbef3aeeb	-0.4759439
112	0x3e346d43	0.17619805
113	0x3e34f3d1	0.17671134
114	0x3ebe8e23	0.37217817
115	0x3d63f7fc	0.05565642
116	0xbe25d08e	-0.16192839
117	0x3e3c5dc4	0.18395144
118	0xbe79ad6a	-0.24382558
119	0xbb720493	-0.0036928996
120	0xbe7b534b	-0.24543492
121	0x3eda8685	0.42680755
122	0xbeb8dacc	-0.3610443
123	0x3eb784d5	0.3584353
124	0xbe2a4ad4	-0.16630107
125	0xbf2dbe13	-0.67868155
126	0xbf65e945	-0.89809066
127	0xbe577869	-0.21042027
128	0x3f23af9e	0.63939846
129	0xbc9ffef1	-0.019530745
130	0xbe5eb3c1	-0.21748258
131	0xbe70e86d	-0.23526163
132	0x3e8c7812	0.27435356
133	0x3da6cf04	0.08144954
134	0xbe9b954d	-0.30387345
135	0xbea43b33	-0.32076415
136	0x3e25367c	0.16134065
137	0x3b0da11c	0.0021610921
138	0x3edbfc86	0.42966098
139	0xbf12f8fd	-0.57411176
140	0xbe433bc8	-0.19065773
141	0xbdfdbd38	-0.12389606
142	0xbf048979	-0.51772267
143	0xbe46c7a7	-0.19412099
144	0xbbaacdab	-0.005212506
145	0xbbdbda77	-0.0067093926
146	0xbbba6db4	-0.005689347
147	0xbb1f12b9	-0.0024272634
148	0xbb8c2478	-0.0042768084
149	0xbb4295be	-0.0029691304
150	0xbc0767d1	-0.008264498
151	0xbc1ce82d	-0.009576839
152	0xbc0c9260	-0.00857982
153	0xb79fbb9d	-1.9041641e-05
154	0xb91d2456	-0.00014986223
155	0xb7d4f155	-2.5384748e-05
156	0xbb11cc0d	-0.0022246868
157	0xba8c50dc	-0.001070525
158	0x3b44b69a	0.0030016066
159	0xb9f4468f	-0.00046591877
160	0xba8c7ff5	-0.0010719287
161	0xba1b404c	-0.0005922362
162	0x80056cab	-4.9816e-40
163	0x0005767d	5.01683e-40
164	0x000560e8	4.93941e-40
165	0x0005bc09	5.26632e-40
166	0x80056436	-4.95126e-40
167	0x000687ba	5.99702e-40
168	0x000558f2	4.91085e-40
169	0x00055a23	4.91512e-40
170	0x8005851b	-5.06927e-40
171	0xb1402f12	-2.7966434e-09
172	0xb87ac53b	-5.978833e-05
173	0xb3055cdc	-3.105093e-08
174	0xb2e4fa35	-2.6656474e-08
175	0xb913e703	-0.00014105071
176	0xb39c1a49	-7.269097e-08
177	0xb2dcbef9	-2.5698215e-08
178	0xb9390e27	-0.00017648247
179	0xb46b1aa2	-2.189577e-07
180	0xbb5025d3	-0.0031760826
181	0xbb554f23	-0.003254839
182	0xbb6855e8	-0.0035451595
183	0xbc305490	-0.010762349
184	0xbc33cd7b	-0.010974283
185	0xbbfdff6d	-0.0077513964
186	0xbbf1a02d	-0.007373831
187	0xbbe211f0	-0.006899111
188	0xbbe9d2f7	-0.0071357447
189	0xbb4d0e8b	-0.0031289186
190	0xbbd76bfc	-0.006574152
191	0xbb6a53f4	-0.0035755606
192	0xbc0692ee	-0.008213742
193	0xbc3e191c	-0.011602666
194	0xbbcc2820	-0.006230369
195	0xbc568679	-0.013093584
196	0xbc76b7ce	-0.015058471
197	0xbc3b835e	-0.011444895
198	0xba9131dd	-0.0011077482
199	0xbae6925b	-0.0017591225
200	0xba922091	-0.0011148622
201	0xbadeb7bb	-0.0016992012
202	0xbb026713	-0.0019897863
203	0xbb170044	-0.002304093
204	0xbbc5276a	-0.0060166614
205	0xbbf4aa58	-0.0074665956
206	0xbbe46b13	-0.006970772
207	0xbb91fac8	-0.0044549443
208	0xbb4cedac	-0.0031269593
209	0xbb8dc132	-0.004326009
210	0xbb91b463	-0.0044465526
211	0xbba884a9	-0.0051427674
212	0xbbada74e	-0.0052994853
213	0xbbc7ae5c	-0.0060937833
214	0xbb980067	-0.00463872
215	0xbbb62b63	-0.0055593713
216	0x3cec1485	0.028818378
217	0xbddacb32	-0.10683288
218	0x3d0df3b0	0.034656227
219	0xbe0da9c1	-0.13834287
220	0xbdca5842	-0.09880115
221	0xbc73b849	-0.01487548
222	0x3e58caa2	0.21171048
223	0x3e1e98f6	0.15488037
224	0x3e485c22	0.19566396
225	0x3f110635	0.56650096
226	0xbe547dd7	-0.20751129
227	0xbedd4d93	-0.43223247
228	0x3da38412	0.07984175
229	0xbc9a2c33	-0.018819904
230	0xbee30d6b	-0.44346175
231	0x3eabd6b6	0.3356225
232	0x3e12d68a	0.14339653
233	0x3dffcec9	0.12490613
234	0xbd674bec	-0.05646889
235	0xbd4c37b4	-0.04985781
236	0xbd4725fd	-0.048620213
237	0xbd746754	-0.059668854
238	0xbd7dafcf	-0.061935242
239	0xbd63e942	-0.055642374
240	0xbd5ddb4b	-0.054164212
241	0xbd78980f	-0.06069189
242	0xbd7c413d	-0.061585654
243	0xbe827d16	-0.25486058
244	0x3f8da122	1.1064799
245	0x3f68c525	0.9092582
246	0x3f0d0897	0.5509123
247	0x3fb4f50d	1.4137284
248	0x3fa23a42	1.2674029
249	0xbd07ff7c	-0.033202633
250	0x3ed39322	0.4132319
251	0x3fb56494	1.4171319
252	0x3e09bcff	0.13451003
253	0xbe2c96b7	-0.16854368
254	0xba8b8487	-0.0010644355
255	0x3ec1736f	0.3778338

encoder.model.2.bias f4 [16]
0	0xbba6029e	-0.00506623
1	0x3e79c0c1	0.24389936
2	0xbc49ed71	-0.012324677
3	0x3e2acd4c	0.16679877
4	0x3dc7618e	0.09735404
5	0x3e7f58e9	0.2493626
6	0xbce31764	-0.027721114
7	0x3e74ca39	0.23905267
8	0x3e9f18f1	0.31073716
9	0x3d371f8b	0.044707816
10	0x3dc7cb76	0.09755604
11	0xbc88208c	-0.016617082
12	0xbd93c39f	-0.07215046
13	0x3dad21fc	0.08453748
14	0x3d3128ba	0.04325173
15	0x3cb0747b	0.021539917

encoder.fc.weight f4 [32, 784]
0	0x80055cdb	-4.92488e-40
1	0x80056109	-4.93987e-40
2	0x800557bd	-4.90652e-40
3	0x80055c21	-4.92227e-40
4	0x800562b1	-4.94581e-40
5	0x80055ebf	-4.93166e-40
6	0x80055e6f	-4.93054e-40
7	0x00056354	4.9481e-40
8	0x00055d3c	4.92624e-40
9	0x8006a183	-6.08952e-40
10	0x80061190	-5.57313e-40
11	0x00055771	4.90546e-40
12	0x80055c2d	-4.92244e-40
13	0x00056046	4.93714e-40
14	0x00055ab0	4.9171e-40
15	0x80055815	-4.90775e-40
16	0x80055f40	-4.93347e-40
17	0x000561bf	4.94242e-40
18	0x00055c91	4.92384e-40
19	0x00055dfb	4.92891e-40
20	0x00055d06	4.92548e-40
21	0x80055dd8	-4.92842e-40
22	0x800559f9	-4.91454e-40
23	0x00055c44	4.92276e-40
24	0x00055daa	4.92778e-40
25	0x80056125	-4.94026e-40
26	0x0005618e	4.94174e-40
27	0x000557dc	4.90695e-40
28	0x00055741	4.90478e-40
29	0x8006d4f0	-6.274e-40
30	0x000558e6	4.91068e-40
31	0x0005607e	4.93792e-40
32	0x80055d35	-4.92614e-40
33	0x00055df5	4.92883e-40
34	0x80055f02	-4.9326e-40
35	0x00055c3f	4.92269e-40
36	0x000557e5	4.90708e-40
37	0x00055c15	4.9221e-40
38	0x0005638e	4.94891e-40
39	0x00055a1c	4.91503e-40
40	0x00056426	4.95104e-40
41	0x0005614f	4.94085e-40
42	0x00055be4	4.92142e-40
43	0x0005599e	4.91326e-40
44	0x00055fe1	4.93572e-40
45	0x00056303	4.94696e-40
46	0x000560b2	4.93865e-40
47	0x000563d3	4.94988e-40
48	0x0005599b	4.91322e-40
49	0x3ea37cfe	0.319313
50	0x3eb212ce	0.34779972
51	0x3ef96865	0.4871246
52	0xbcf6961b	-0.030100873
53	0xbd98912e	-0.07449566
54	0xbeef77a2	-0.4677096
55	0xbd4c4784	-0.04987289
56	0x3e9b7055	0.3035914
57	0x3eca46a1	0.3950701
58	0x3e8f8f94	0.2803923
59	0x3deffa6d	0.11717687
60	0x3eb5dadc	0.3551854
61	0x3e1cccf7	0.15312563
62	0x3e525674	0.20540792
63	0xbd9c76af	-0.076398246
64	0x3e4bec50	0.19914365
65	0xbed49ca3	-0.41525754
66	0xbf0d0270	-0.55081844
67	0xbe306c77	-0.17228876
68	0xbe24d2a8	-0.16095984
69	0x3daf5012	0.08560194
70	0xbd3a71b1	-0.04551858
71	0xbca8843f	-0.020570872
72	0x3ea80f0b	0.32823977
73	0xbe8cb80b	-0.27484164
74	0xbe745d9b	-0.23863833
75	0xbedfb7e3	-0.43694982
76	0x3cb2bb14	0.021817721
77	0xbea85817	-0.32879707
78	0xbbc33d55	-0.005958239
79	0xbe498601	-0.19680025
80	0xbece325c	-0.40272796
81	0xbd9de3ef	-0.077094905
82	0x3db3bc88	0.08776194
83	0x3d7e3af5	0.062067945
84	0x3daa27c9	0.0830837
85	0x3d6341fb	0.055482846
86	0xbe1dc179	-0.15405835
87	0xbf143529	-0.57893616
88	0x3eebdd26	0.4606716
89	0x3d8743ef	0.06604754
90	0xbeb8df86	-0.36108035
91	0xbd7809ff	-0.060556408
92	0x3d75f18e	0.060044818
93	0xbe009898	-0.1255821
94	0x3e84109b	0.2579392
95	0xbe74cad8	-0.23905504
96	0xbcd8b9fd	-0.026455874
97	0x3e4d5acc	0.20054168
98	0x36b2f52c	5.333355e-06
99	0x37592f84	1.2945271e-05
100	0x378af720	1.6565959e-05
101	0x37a2e273	1.9417354e-05
102	0x37c59c9c	2.3557157e-05
103	0x37f32f0e	2.8989769e-05
104	0x3819ccca	3.6668767e-05
105	0x35a1461d	1.201584e-06
106	0x36184370	2.2689019e-06
107	0x36f60c87	7.3328297e-06
108	0x37261ee4	9.901563e-06
109	0x371ef96a	9.475605e-06
110	0x36cc5ea4	6.0906914e-06
111	0x36b4e676	5.391247e-06
112	0x36b40cb2	5.365896e-06
113	0x37106134	8.605701e-06
114	0x374a952f	1.2074873e-05
115	0x370dd932	8.454825e-06
116	0x37721a14	1.4430396e-05
117	0x37b95176	2.2091652e-05
118	0x380b40d7	3.320057e-05
119	0x369c8313	4.6644213e-06
120	0x362dfb71	2.5925367e-06
121	0x3640178b	2.8623933e-06
122	0x36807df1	3.829359e-06
123	0x3723891e	9.747482e-06
124	0x37611841	1.3416692e-05
125	0x38460ab6	4.7216854e-05
126	0xb50fe9ef	-5.361207e-07
127	0xb63ff186	-2.8601803e-06
128	0xb5a63733	-1.2384029e-06
129	0xb60dd98b	-2.1137264e-06
130	0xb6ce3ed8	-6.1465944e-06
131	0xb59e7618	-1.1806287e-06
132	0xb4fd4f64	-4.7182687e-07
133	0xb285ab05	-1.5561008e-08
134	0x34319c7c	1.6541338e-07
135	0x353a2534	6.934454e-07
136	0x358828c2	1.0144652e-06
137	0x35fbcfe0	1.8761457e-06
138	0x3623543e	2.4337928e-06
139	0x35aaafa7	1.2717109e-06
140	0x369936db	4.5661413e-06
141	0x37e121ae	2.6837773e-05
142	0x37ab14e4	2.0394516e-05
143	0x37c35291	2.328426e-05
144	0x37961eef	1.7895798e-05
145	0x37560cd0	1.2758377e-05
146	0x378fdcc0	1.7149723e-05
147	0x3e5c1e44	0.2149592
148	0x3ed41f18	0.41429973
149	0x3e96f9cf	0.29487464
150	0x3dd522af	0.10407006
151	0x3dcc633c	0.09979865
152	0xbe2e4a73	-0.17020588
153	0x3d674c66	0.056469344
154	0xbebb4f7e	-0.36584085
155	0x3e1d7e44	0.15380198
156	0xbe23ff6d	-0.16015406
157	0xbea38f4b	-0.3194526
158	0x3e9d2b49	0.30697086
159	0x3e202d2a	0.15642229
160	0x3ea1040f	0.3144841
161	0xbeb2459e	-0.3481874
162	0xbf02a8d0	-0.5103884
163	0x3de2df1d	0.11077712
164	0x3e9cde55	0.30638376
165	0xbc243445	-0.010022228
166	0x3eb7c4a4	0.35892212
167	0x3d42e1f8	0.04757878
168	0x3e2f2d7d	0.17107196
169	0xbf072c70	-0.5280218
170	0x3dfd10f1	0.12356747
171	0x3eead6e3	0.4586707
172	0xbca6cd22	-0.020361487
173	0x3e497ea4	0.19677216
174	0xbf054aae	-0.5206708
175	0xbec14b3d	-0.37752715
176	0xbd4dff7a	-0.05029247
177	0xbeeaab9c	-0.45834053
178	0xbe4a9c47	-0.19786178
179	0xbef2f03c	-0.4744891
180	0xbe4e4d5e	-0.201467
181	0xbcb7d901	-0.022442343
182	0xbde81114	-0.113313824
183	0xbe9acea5	-0.30235782
184	0xbd629a19	-0.05532274
185	0xbeaeab1e	-0.34114927
186	0x3d2c9a9c	0.042139634
187	0xbe47a82c	-0.19497746
188	0x3ef704ba	0.48245794
189	0x3e9ee821	0.31036475
190	0x3eee7548	0.46573853
191	0x3cd90081	0.026489498
192	0x3e9bcf22	0.30431467
193	0xbdbb1520	-0.09134889
194	0xbd180bfc	-0.037120804
195	0xbc908bd1	-0.017644795
196	0x3e2ef0b1	0.17084004
197	0xbcd03194	-0.025414266
198	0xbeab2507	-0.33426687
199	0xbd213563	-0.039357554
200	0x3ee2513e	0.44202608
201	0x3e61c15f	0.22046421
202	0x3e81caa2	0.2534991
203	0x3e61f9a6	0.2206789
204	0x3e153bfc	0.14573663
205	0xbe61ec3b	-0.22062771
206	0x3e54cc1a	0.20780984
207	0x3dfce65f	0.12348627
208	0x3e466aa8	0.19376624
209	0xbe99ea8b	-0.30061755
210	0x3e3577f5	0.17721541
211	0xbe0e05ec	-0.13869447
212	0x3ec86b0c	0.3914417
213	0x3ed16c46	0.4090292
214	0x3ee6857f	0.45023724
215	0xbe8aa7e2	-0.2708121
216	0xbe1f133b	-0.1553468
217	0xbddeb8a8	-0.10875064
218	0xbefea3c0	-0.49734306
219	0xbe1e0460	-0.15431356
220	0xbd85cfad	-0.06533752
221	0x3d68ff25	0.05688395
222	0xbedb5f59	-0.42846182
223	0xbeb64368	-0.35598302
224	0xbeb2815e	-0.34864324
225	0xbd8991e6	-0.06717281
226	0xbeaffd49	-0.3437293
227	0x3c6a71de	0.014309375
228	0x3dd2ea20	0.10298562
229	0x3e52d945	0.20590694
230	0xbd654f2e	-0.055983715
231	0xbdaa52dd	-0.08316586
232	0xbd4ed8a4	-0.050499573
233	0xbed6e650	-0.4197259
234	0xbc844717	-0.01614718
235	0x3dd363de	0.103217825
236	0xbc943a06	-0.018094074
237	0x3ed8418d	0.4223751
238	0x3b653db1	0.0034979398
239	0x3b82bf82	0.0039901147
240	0x3dda6f21	0.106657274
241	0x3ea950d5	0.33069482
242	0xbe26a207	-0.16272746
243	0xbd2dcfd5	-0.042434532
244	0x3d6053e8	0.05476752
245	0x3eb5e781	0.35528186
246	0x3c7da5f3	0.01548146
247	0x3c88630c	0.016648792
248	0xbe4c581a	-0.19955483
249	0x3d5ee82e	0.054420643
250	0x3d1100b0	0.035401046
251	0x3ed0a9e1	0.40754607
252	0xbd454111	-0.048157755
253	0xbe3278a0	-0.17428827
254	0xbe2e253e	-0.17006394
255	0xbda03cf6	-0.078241274

encoder.fc.bias f4 [32]
0	0xbd55dc58	-0.05221209
1	0x3e2220d1	0.15832831
2	0xbe3cac8a	-0.18425193
3	0xbc848f01	-0.01618147
4	0x3e5e1025	0.21685846
5	0xbe07633d	-0.1322145
6	0x3dfbb6be	0.12290715
7	0x3ebedb2f	0.372766
8	0xbda7bd00	-0.08190346
9	0xbda766ce	-0.08173905
10	0xbd7d33a5	-0.06181683
11	0x3cc27e6a	0.02374192
12	0xbe2da01a	-0.16955605
13	0x3e033d34	0.12816316
14	0xbd2334f3	-0.03984542
15	0x3e6036cd	0.21895905
16	0x3e166bb5	0.14689524
17	0xbdd3ca03	-0.10341265
18	0xbd65b09a	-0.056076623
19	0xbb681927	-0.0035415383
20	0xbe217af3	-0.15769558
21	0xbdcdf416	-0.10056321
22	0xbd4cdfe4	-0.050018206
23	0xbd7c3bc7	-0.061580446
24	0xbdcea30e	-0.10089694
25	0x3d909e49	0.070614405
26	0xbd163718	-0.036673635
27	0xbdd1e8c1	-0.102494724
28	0x3d2d8ad3	0.04236872
29	0x3e231185	0.15924652
30	0x3ae480b1	0.0017433373
31	0xbe231bd1	-0.1592858

decoders.0.model.0.weight f4 [16, 8, 3, 3]
0	0x3e9e3c1a	0.3090523
1	0xbe27c95b	-0.16385405
2	0x3c10d6aa	0.008840242
3	0x3d41558d	0.04720073
4	0x3ec8d64a	0.3922599
5	0x3db8a19c	0.090151995
6	0x3ddef870	0.108872294
7	0x3da7ff05	0.08202938
8	0x3e97b63b	0.29631218
9	0xbee119d1	-0.4396501
10	0xbca6c54f	-0.020357756
11	0xbe8d34ad	-0.2757925
12	0xbd3af838	-0.045646876
13	0xbe847c06	-0.25875872
14	0x3d8faafa	0.07015033
15	0xbe45f654	-0.19332248
16	0x3ebfd134	0.37464297
17	0xbe842d3e	-0.25815767
18	0xbe3de04e	-0.18542597
19	0xbd97db61	-0.0741489
20	0x3e56cbef	0.20976232
21	0x3e100cc6	0.14067373
22	0x3b54c1e6	0.0032464205
23	0xbee7bd2d	-0.45261517
24	0x3e819c95	0.25314775
25	0xbe865af8	-0.2624128
26	0x3e34ffe2	0.17675737
27	0x3c075f89	0.008262523
28	0xbe6fb9ac	-0.23410672
29	0x3e53af8a	0.20672432
30	0x3dbf234a	0.09332903
31	0xbeebbf42	-0.46044356
32	0xbed9bbfc	-0.42526233
33	0xbeaac6e3	-0.33354864
34	0xbdb0b1b1	-0.08627642
35	0xbe0f89b4	-0.14017373
36	0xbed50b9e	-0.41610426
37	0xbd3a8b8a	-0.04554323
38	0x3dc87d01	0.097894676
39	0xbe75fc1d	-0.24021955
40	0xbe6126ce	-0.21987459
41	0xbe52637b	-0.20545761
42	0xbe637cc8	-0.22215569
43	0xbedecf40	-0.43517494
44	0x3d0a254a	0.033726968
45	0x3eb266f9	0.34844187
46	0x3e756ec4	0.23968035
47	0x3e3de17c	0.18543047
48	0x3d2d1290	0.04225403
49	0x3e9867ae	0.297666
50	0x3e1f2259	0.15540446
51	0xbb8c6b7a	-0.004285273
52	0xbe20a392	-0.15687397
53	0xbe037977	-0.12839304
54	0xbe218984	-0.15775114
55	0x3e884be5	0.26620403
56	0x3dd9a1c0	0.106265545
57	0xbefd72fe	-0.49501795
58	0x3ec67033	0.38757476
59	0x3d98b2ad	0.07455955
60	0xbeecdb70	-0.46261168
61	0x3dec0d8a	0.1152602
62	0x3e1c06dd	0.15236993
63	0xbd56292f	-0.05228537
64	0xbde52405	-0.11188511
65	0x3e938da4	0.28819
66	0xbeacbeb3	-0.33739242
67	0xbe4b1c41	-0.19834997
68	0x3df8c1ca	0.12146337
69	0xbe58794d	-0.21140023
70	0x3e31200e	0.17297384
71	0x3de5e179	0.11224646
72	0x3df18bd0	0.11794245
73	0x3d9039e1	0.070422895
74	0xbead7fad	-0.3388647
75	0x3eaca65e	0.33720678
76	0x3d5c6a1a	0.053812124
77	0x3ddefcd6	0.108880684
78	0x3d8b4745	0.06800703
79	0x3de8b68c	0.11362943
80	0x3d7ea6ef	0.06217092
81	0x3e5dca97	0.21659313
82	0x3c8fde61	0.017562093
83	0x3da7e16d	0.081972934
84	0xbe4f31df	-0.20233868
85	0x3e7f6c26	0.24943599
86	0x3e84bc6e	0.2592501
87	0xbd88a63b	-0.06672331
88	0xbde67276	-0.112523004
89	0x3e8a5a72	0.2702213
90	0xbed0232f	-0.40651843
91	0xbe993548	-0.29923463
92	0x3d0924f3	0.033482503
93	0xbd202030	-0.039093196
94	0xbe950963	-0.29108724
95	0x3ecb09d1	0.39655927
96	0xbea88571	-0.32914308
97	0xbebd90e9	-0.3702462
98	0x3d557e00	0.052122116
99	0xbe6418ec	-0.22275132
100	0xbe3d383d	-0.18478484
101	0x3d1035a5	0.03520741
102	0xbb0262fc	-0.0019895425
103	0x3e770628	0.24123442
104	0x3e3f9bdf	0.18711804
105	0xbddc0d0b	-0.10744675
106	0x3e1a3147	0.1505786
107	0xbdebe6ee	-0.11518656
108	0x3df2d912	0.11857809
109	0x3cda1af4	0.02662418
110	0x3e2d9a71	0.16953446
111	0xbeb36109	-0.3503497
112	0xbe3fc30f	-0.18726753
113	0x3e904dce	0.2818436
114	0xbe529043	-0.20562844
115	0x3dc77df8	0.097408235
116	0x3aa5b338	0.0012641912
117	0xbe12ec19	-0.14347877
118	0xbe4e8b34	-0.2017029
119	0xbe99b03a	-0.30017263
120	0xbe24f38f	-0.16108535
121	0xbe972cce	-0.2952637
122	0x3e4ea7ca	0.20181194
123	0x3da1da21	0.07902933
124	0x3eec5b02	0.46163183
125	0xbe863160	-0.26209545
126	0x3d9759ce	0.07390176
127	0x3e3b114c	0.18268317
128	0xbde09de1	-0.10967613
129	0x3e59ad2c	0.21257466
130	0x3d94fe84	0.072751075
131	0x3d969498	0.07352561
132	0x3c1ea163	0.009682032
133	0x3e76e2a6	0.24109897
134	0xbe57efca	-0.21087566
135	0xbc1df6f2	-0.009641396
136	0xbe0552f2	-0.13019922
137	0x3e8b5116	0.272103
138	0xbe9e78e3	-0.30951604
139	0xbe3a6f6f	-0.18206571
140	0x3d8baf0f	0.06820499
141	0x3dd7e480	0.1054163
142	0xbeee2400	-0.4651184
143	0x3e05177e	0.12997243
144	0x3c3235d2	0.01087709
145	0x3cd3e199	0.02586441
146	0x3ed01d5f	0.40647408
147	0x3e1dc945	0.1540881
148	0x3e8d4d17	0.27597877
149	0x3e8238c0	0.25433922
150	0xbdb8086a	-0.0898598
151	0x3c5c7f01	0.0134580145
152	0x3eba391d	0.363717
153	0x3e1ce675	0.15322287
154	0x3ed9dc78	0.42551017
155	0xbd535b67	-0.05160084
156	0xbd45b7d9	-0.048271034
157	0xbde9ea45	-0.114216365
158	0xbefa1d21	-0.4885035
159	0x3eba6f87	0.36413214
160	0xbe73af1a	-0.23797265
161	0x3d4db0d6	0.050217472
162	0xbdfbdfc5	-0.1229854
163	0xbe7da3d6	-0.2476953
164	0x3e01bcc6	0.12669668
165	0xbc1bb53a	-0.009503657
166	0xbd98726a	-0.07443698
167	0xbeac7993	-0.33686504
168	0xbe3549b1	-0.17703892
169	0x3f056b93	0.5211727
170	0x3e5f5c09	0.21812452
171	0xbe0a69cd	-0.13516922
172	0x3e055587	0.13020907
173	0x3eade966	0.3396713
174	0xbe4cdbe6	-0.2000576
175	0xbec6006c	-0.38672197
176	0xbe877f62	-0.26464373
177	0xbe16546e	-0.14680645
178	0x3e352683	0.17690472
179	0x3d5401a5	0.05175938
180	0xbe3482b0	-0.17627978
181	0x3b899485	0.004198613
182	0xbdc3fc72	-0.095696345
183	0xbea27530	-0.31730032
184	0xbecd7c38	-0.40133834
185	0x3ee1236f	0.43972346
186	0x3e7ca643	0.24672799
187	0x3e1f0595	0.15529473
188	0x3ef60af5	0.48055235
189	0x3dbbfca3	0.09179046
190	0x3e65f320	0.22456026
191	0xbecd9cd8	-0.40158725
192	0xbea2f134	-0.31824648
193	0x3e2f1148	0.17096436
194	0x3e48d641	0.19612981
195	0xbe9a2272	-0.30104405
196	0xbea0c871	-0.31402925
197	0xbeeef78c	-0.46673238
198	0x3c16bd98	0.009200476
199	0xbc82fbd9	-0.015989231
200	0xbe8c3b5d	-0.2738904
201	0xbe2f92f1	-0.17145897
202	0xbe8bd6e5	-0.2731239
203	0xbc43cb94	-0.011950392
204	0x3d8c21a5	0.06842355
205	0x3e87e67e	0.2654304
206	0x3eb725ea	0.35771114
207	0x3e9b591b	0.3034142
208	0x3d0927a9	0.03348509
209	0xbdb1db26	-0.08684377
210	0xbe1e4b7f	-0.15458487
211	0x3e24cc87	0.16093646
212	0x3d889562	0.066691175
213	0x3e3181cc	0.1733467
214	0x3e977a8e	0.2958569
215	0xbf114b92	-0.56755936
216	0x3e994919	0.29938582
217	0xbe740fb6	-0.23834118
218	0x3d62aa3c	0.05533813
219	0xbea04537	-0.31302807
220	0xbe15b69a	-0.14620438
221	0xbf0d6cf6	-0.55244386
222	0xbea6285d	-0.3245267
223	0xbe7e11e6	-0.24811515
224	0xbe42fb04	-0.19041067
225	0x3e183898	0.14865339
226	0x3e5cdfdf	0.21569775
227	0x3e8115b6	0.25211877
228	0x3e8f4352	0.2798105
229	0x3dad42a3	0.084599756
230	0x3e86c1e4	0.26319802
231	0x3ea89fd2	0.32934433
232	0xbf11d81d	-0.5697039
233	0xbed0e2f1	-0.40798143
234	0x3ea166f4	0.3152386
235	0x3e49ac64	0.19694668
236	0x3e7849c7	0.24246894
237	0x3eb289e2	0.3487082
238	0x3dd1b76f	0.10240065
239	0xbec90b46	-0.39266413
240	0xbc09d81a	-0.008413339
241	0x3ea3d6aa	0.31999713
242	0x3e161c76	0.14659294
243	0x3e7d9a02	0.2476578
244	0xbd3011ad	-0.042985607
245	0x3b6ff731	0.0036615843
246	0x3c957d90	0.01824835
247	0xbd83a6e1	-0.06428314
248	0xbd641f98	-0.055694193
249	0xbdbf7ea5	-0.093503274
250	0x3e1599fa	0.14609519
251	0x3d31757b	0.04332493
252	0x3d8f4658	0.06995839
253	0xbd569069	-0.052383814
254	0xbe8b6f9b	-0.27233586
255	0xbe11d460	-0.14241171

decoders.0.model.0.bias f4 [8]
0	0x3dd8ad55	0.105799355
1	0xbe03ac9b	-0.12858813
2	0x3da035dc	0.07822773
3	0xbef6ac87	-0.48178503
4	0x3ca4404f	0.020050196
5	0x3e03a306	0.12855157
6	0xbb7d03eb	-0.0038607072
7	0xbec88385	-0.3916284

decoders.0.model.2.weight f4 [8, 1, 3, 3]
0	0x3e04f526	0.12984142
1	0xbe3ba7fe	-0.18325803
2	0xbea54222	-0.32277018
3	0x3d1783ad	0.03699081
4	0xbeeab165	-0.45838466
5	0xbf0cfa28	-0.5506921
6	0x3b97be3d	0.0046308325
7	0xbea6fe66	-0.32615966
8	0xbe86e540	-0.2634678
9	0x3e866af0	0.26253462
10	0x3e895607	0.26823446
11	0x3e79d676	0.24398217
12	0xbd815677	-0.0631532
13	0xbf0a02df	-0.5391063
14	0xbee9e7de	-0.45684713
15	0xbe3e1f73	-0.18566684
16	0xbeb37a85	-0.35054412
17	0xbe9084d3	-0.28226337
18	0xbe498a97	-0.19681774
19	0xbe0d5019	-0.13800086
20	0xbd398610	-0.045293868
21	0xbe8e7b19	-0.2782829
22	0xbf083eda	-0.53220904
23	0xbedb7788	-0.42864633
24	0xbddffd57	-0.109369926
25	0xbdef6fea	-0.11691268
26	0xbe1aad5e	-0.15105197
27	0x3dcdfe9b	0.10058328
28	0x3f0862b2	0.532756
29	0x3ee2bd74	0.44285166
30	0x3d28d9e2	0.041223414
31	0x3eae580b	0.34051546
32	0x3ee86b28	0.45394254
33	0x3d8199ac	0.06328139
34	0xbecf53af	-0.40493533
35	0xbec98873	-0.39361915
36	0xbd81200f	-0.06304943
37	0xbe8df6be	-0.27727312
38	0xbe2ddf2b	-0.16979663
39	0xba257042	-0.0006310978
40	0xbf3e449e	-0.7432345
41	0xbf238dbd	-0.6388815
42	0xbdadcd22	-0.084863916
43	0xbea19b6b	-0.31563887
44	0xbe3fa2ae	-0.18714401
45	0xbd22b874	-0.03972669
46	0x3bb89be5	0.0056338185
47	0x3d768547	0.060185697
48	0xbdd531fe	-0.10409926
49	0xbf1df376	-0.61699617
50	0xbeee3dd8	-0.46531558
51	0xbe8a5c50	-0.27023554
52	0xbf2523f1	-0.6450797
53	0xbf02f210	-0.5115061
54	0xbe99efcf	-0.30065772
55	0xbe838506	-0.25687426
56	0xbe87356b	-0.26407942
57	0xbe980cd4	-0.29697287
58	0xbe4e1be6	-0.2012783
59	0x3d179878	0.03701064
60	0x3d4a519a	0.049394228
61	0xbed8da4d	-0.4235405
62	0xbeb1ab04	-0.34700787
63	0x3c8bb122	0.017052237
64	0xbe98ac11	-0.29818776
65	0xbe06e98e	-0.13175032
66	0xbe14750a	-0.14497772
67	0xbe85ea9f	-0.26155564
68	0xbe28cc2c	-0.16484135
69	0x3d14bf3d	0.03631519
70	0xbe8a070d	-0.26958504
71	0xbe352ca2	-0.17692807

decoders.0.fc.weight f4 [784, 32]
0	0x3ec0698d	0.3758053
1	0x3e9fa421	0.31179908
2	0x3e1a9e48	0.15099442
3	0x3da8aa34	0.08235589
4	0xbd7daa25	-0.06192984
5	0xbe60bf33	-0.21947937
6	0x3d4d1bc1	0.050075296
7	0x3b03ffa7	0.0020141394
8	0x3de88fc0	0.11355543
9	0x3e5b0dd4	0.21391994
10	0x3ea24134	0.3169037
11	0x3de6c046	0.11267142
12	0x3dd65573	0.10465517
13	0xbec84995	-0.3911864
14	0xbe1ca157	-0.15295921
15	0xbe5550aa	-0.20831552
16	0xbe92c386	-0.28664798
17	0x3e5cc6f8	0.21560276
18	0xbdf4bd5c	-0.1195018
19	0x3d913359	0.07089872
20	0x3d6a18ba	0.057152487
21	0xbd288d34	-0.041150287
22	0xbd525fa4	-0.05136074
23	0xbd169ed2	-0.036772557
24	0x3ea73adc	0.32662094
25	0x3e614c0f	0.2200167
26	0x3e54034f	0.20704387
27	0x3ceda7d8	0.029010698
28	0xbc00f5bd	-0.007871089
29	0x3c9a2a1f	0.018818913
30	0x3d7d0282	0.06176997
31	0xbdd138ff	-0.10215949
32	0xbe846f1f	-0.2586603
33	0x3e1fbec9	0.15600123
34	0xbb67c20c	-0.0035363464
35	0x3c2b3837	0.010450414
36	0x3d89a9ad	0.06721816
37	0x3de6767c	0.11253068
38	0x3cc6a95e	0.024250682
39	0x3dbf72ce	0.09348069
40	0x3d441472	0.04787106
41	0xbe4a510f	-0.19757484
42	0xbc337dd3	-0.010955292
43	0xbe35b342	-0.17744163
44	0x3ed79e07	0.42112753
45	0x3e176ba6	0.14787158
46	0x3e7e016f	0.24805234
47	0x3e389057	0.18023811
48	0x3da967c1	0.082717426
49	0xbbcb884e	-0.006211317
50	0xbba5c266	-0.0050585745
51	0xbe9afc4b	-0.3027061
52	0xbdd640cb	-0.10461577
53	0x3c5bb9ab	0.013410966
54	0x3d58ec49	0.052959714
55	0xbe903621	-0.28166297
56	0xbe23e0a0	-0.16003656
57	0x3e2ce376	0.16883644
58	0xbcf2f743	-0.02965892
59	0xbea358e0	-0.31903744
60	0xbc6831c0	-0.014172018
61	0x3e126bad	0.14298888
62	0xbe252947	-0.16129027
63	0x3eaeb336	0.34121102
64	0xbb341724	-0.0027479613
65	0xbd9d5c45	-0.07683615
66	0x3dcf347f	0.10117435
67	0xbe4d6957	-0.20059715
68	0x3dc50c71	0.09621514
69	0x3ea192b5	0.3155724
70	0xbe7f6408	-0.24940503
71	0xbedf3f8a	-0.43603164
72	0x3d9d0841	0.0766759
73	0xbc143807	-0.009046561
74	0x3c26a6ce	0.010171605
75	0x3da362f4	0.07977858
76	0x3e4bbf88	0.19897282
77	0x3e51faf6	0.2050589
78	0x3d3c6e1b	0.046003442
79	0xbe651d0c	-0.22374362
80	0x3cbcd36d	0.023050034
81	0x3dfd1bc1	0.12358809
82	0xbda5b3b7	-0.080909185
83	0x3da900d4	0.08252111
84	0xbb2e7a0c	-0.0026623039
85	0x3d1a5e90	0.037687838
86	0x3e45d4c6	0.19319448
87	0x3d8fcc88	0.07021433
88	0xbda353fd	-0.07975004
89	0xbc031d51	-0.008002595
90	0xbe53f768	-0.20699847
91	0xbc2ab8f7	-0.010420076
92	0xbe8fc3fb	-0.2807921
93	0xbd884e6c	-0.06655583
94	0x3bf5e2ef	0.0075038592
95	0xbdd3ee0d	-0.10348139
96	0xbd76eb41	-0.06028295
97	0x3dae739f	0.08518147
98	0xbca43e03	-0.0200491
99	0xbe18c687	-0.14919482
100	0xbd6e8ba1	-0.05823863
101	0xbe91829b	-0.28419957
102	0xbde5a0b5	-0.11212293
103	0x3e02ed43	0.1278582
104	0xbdd5f7e6	-0.104476735
105	0x3cdb6f66	0.026786517
106	0x3e2ba0a6	0.16760501
107	0x3e08f522	0.13374761
108	0x3ca803dc	0.020509653
109	0x3d8087d2	0.06275906
110	0x3e4eef31	0.20208432
111	0x3ca85bc9	0.02055158
112	0x3d53692f	0.051613983
113	0xbea743da	-0.32668954
114	0xbebad7c6	-0.36492747
115	0x3e430ced	0.190479
116	0xbaeb05c5	-0.0017930797
117	0x3cf725fb	0.030169478
118	0x3e2afcac	0.16697949
119	0x3ee9e3e1	0.4568167
120	0x3e0131c1	0.12616636
121	0x3d840db9	0.0644793
122	0x3d969ce9	0.07354147
123	0x3db4e115	0.088319935
124	0xbdf16523	-0.117868684
125	0xbe430d95	-0.1904815
126	0x3b47f01d	0.003050811
127	0x3c0dc2b5	0.008652379
128	0xbe3080ba	-0.17236605
129	0x3e9763ce	0.29568332
130	0xbe5319a4	-0.2061525
131	0xbe014307	-0.12623225
132	0x3dab845c	0.08374855
133	0x3e19382e	0.14962837
134	0x3b7f360e	0.0038942131
135	0x3e3fd00f	0.18731712
136	0x3accae18	0.0015615849
137	0xbdba266b	-0.09089359
138	0xbe210346	-0.15723905
139	0x3d4fe70b	0.05075745
140	0x3dabea45	0.08394293
141	0x3dfa7f75	0.12231342
142	0x3d69c8f3	0.057076406
143	0xbd3c3ab8	-0.045954436
144	0xbe0b53d6	-0.136062
145	0xbe38fc58	-0.18065012
146	0x3e7b0cd9	0.2451662
147	0xbdbfcd4e	-0.09365331
148	0xbcdf3cdf	-0.027250705
149	0x3da7452f	0.081674926
150	0xbe0e26ba	-0.1388196
151	0x3dbdcb26	0.09267263
152	0xbe0e32d5	-0.13886578
153	0x3cd13e67	0.025542451
154	0x3da7e967	0.08198815
155	0xbe858aae	-0.26082367
156	0x3e59a88f	0.21255706
157	0x3e04cf08	0.12969601
158	0xbea1a8e0	-0.31574154
159	0xbd299869	-0.041405115
160	0x3e820ddc	0.254012
161	0xbf0ca468	-0.54938364
162	0x3e4c15fa	0.19930258
163	0xbda4ad88	-0.08040911
164	0xbec31e63	-0.3810912
165	0x3dfd93e9	0.12381727
166	0xbe8eaacf	-0.27864692
167	0xbe909249	-0.28236607
168	0x3c180170	0.0092776865
169	0x3d9416ed	0.07230935
170	0xbd2d7999	-0.042352293
171	0xbe44e071	-0.19226243
172	0xbda89ca1	-0.082329996
173	0xbec27d31	-0.37986138
174	0x3eae5dfb	0.34056076
175	0xbe447a8d	-0.19187374
176	0xbe48c3e5	-0.19605978
177	0xbc9dab12	-0.019246612
178	0xbd67007b	-0.056396943
179	0x3d93ef5c	0.072233886
180	0x3e2f7ba5	0.1713701
181	0xbe26fc27	-0.16307126
182	0xbc11705c	-0.008876886
183	0x3e3c987b	0.18417542
184	0x3eabc576	0.33549088
185	0xbe23bb3d	-0.15989394
186	0xbdaa6920	-0.08320832
187	0x3e7a08d9	0.24417438
188	0x3dc9a20d	0.09845362
189	0xbe104d31	-0.14091946
190	0x3e9b6675	0.30351606
191	0xbc96d65c	-0.018412761
192	0xbdb0c21a	-0.08630772
193	0x3d3a5ff8	0.04550168
194	0xbcb57f91	-0.022155555
195	0x3e088e8c	0.13335627
196	0xbe27dcf5	-0.16392882
197	0xbe1623f2	-0.1466215
198	0xbea6184c	-0.32440412
199	0xbde6655d	-0.11249802
200	0xbd5624b6	-0.052281104
201	0x3d849500	0.06473732
202	0x3bdc0be9	0.006715287
203	0x3d5df89d	0.054192174
204	0x3cdfacc8	0.027304068
205	0xbe3a7c61	-0.1821151
206	0xbece9a2a	-0.40351993
207	0xbd1bc706	-0.0380316
208	0x3c192d8e	0.00934924
209	0x3b70e629	0.003675828
210	0x3b82febf	0.0039976533
211	0x3e9a84b0	0.30179358
212	0x3e8da2e4	0.27663338
213	0x3d553c6c	0.052059576
214	0x3e059dd6	0.13048491
215	0x3e30c354	0.17262012
216	0x3edbb9fc	0.42915332
217	0x3e089ceb	0.1334111
218	0xbda2bdb7	-0.079463415
219	0x3dddac39	0.108238645
220	0x3e079e52	0.13243988
221	0x3e1c3c24	0.15257317
222	0xbdfdb16f	-0.123873584
223	0xbd66cf32	-0.05634994
224	0x3debadcc	0.115077585
225	0x3e55ff1e	0.208981
226	0xbe1a132e	-0.15046379
227	0x3e7a3f23	0.24438147
228	0xbddaa171	-0.10675324
229	0xbd8e3cc8	-0.06945187
230	0x3ec20b64	0.37899315
231	0x3dc84095	0.09777943
232	0x3cceb50f	0.02523282
233	0x3e31cba4	0.17362839
234	0x3eaf1682	0.3419686
235	0x3e5aeb22	0.21378759
236	0xbd2fee00	-0.042951584
237	0xbd140fbf	-0.03614783
238	0x3cbf859b	0.023379138
239	0x3df7cf29	0.121000595
240	0xbe02d8b9	-0.12777986
241	0x3e2e5d35	0.17027743
242	0x3e8709d3	0.26374683
243	0xbe9fd86f	-0.31219813
244	0xbe9c8949	-0.3057349
245	0xbd23579e	-0.03987848
246	0xbe585f8a	-0.21130195
247	0xbe0de420	-0.13856554
248	0xbd605b7f	-0.054774757
249	0x3d956739	0.07295079
250	0xbd44cedc	-0.04804884
251	0x3e25404c	0.16137809
252	0x3e3134b5	0.17305262
253	0x3d17ea55	0.03708871
254	0x3cd879dd	0.026425296
255	0xbda0e7fe	-0.07856749

decoders.0.fc.bias f4 [784]
0	0xbdfa027e	-0.122075066
1	0x3c43f300	0.011959791
2	0xbdae9da0	-0.08526158
3	0xbd31e075	-0.04342695
4	0x3e90ff70	0.28319883
5	0x3db76844	0.08955434
6	0xbdb0c1dc	-0.08630726
7	0xbe4f11b3	-0.20221595
8	0x3e79007b	0.2431659
9	0x3dc7926a	0.09744723
10	0x3cc19887	0.023632301
11	0xbd232f44	-0.039839998
12	0xbdce91d8	-0.10086411
13	0x3e5bc24b	0.21460836
14	0xbd9b56ce	-0.07584916
15	0x3e7a9a26	0.24472865
16	0x3d661d78	0.056180447
17	0x3d4ce110	0.050019324
18	0xbe65c8f7	-0.22439943
19	0xbe4ae64c	-0.19814414
20	0x3ddba760	0.107252836
21	0xbe565132	-0.20929411
22	0x3dcdefc1	0.10055495
23	0x3de1e1e0	0.1102941
24	0xbde95011	-0.113922246
25	0xbe520224	-0.20508629
26	0xbd94ff9e	-0.072753176
27	0x3e134512	0.14381817
28	0x3dc6c763	0.09705999
29	0x3d08f300	0.033434868
30	0xbe0b2cd3	-0.13591318
31	0x3e0a2fd2	0.13494805
32	0x3d3a5762	0.04549349
33	0x3d8226e6	0.063550755
34	0x3e9c2a18	0.30500865
35	0x3da71f24	0.081602365
36	0xbe19d4df	-0.1502261
37	0xbcc008e3	-0.023441738
38	0x3d9d640a	0.076850966
39	0x3e3dbc1b	0.18528788
40	0xbe657343	-0.2240725
41	0x3e9fea42	0.31233412
42	0x3d82fb2a	0.06395562
43	0x3d4e8195	0.050416548
44	0x3e144351	0.14478804
45	0xbeab2ff4	-0.33435023
46	0x3f034b8a	0.5128714
47	0x3d9cbdd5	0.07653395
48	0x3e5c45cf	0.21511005
49	0x3dafae5b	0.085781775
50	0xbddf9cf5	-0.10918609
51	0xbde89eeb	-0.11358436
52	0x3d9003d1	0.07031978
53	0xbd8bc6a6	-0.068249986
54	0x3dc08a58	0.09401387
55	0x3cf12e4b	0.02944102
56	0x3e900427	0.28128168
57	0xbd8de058	-0.06927556
58	0x3b0c92c9	0.0021449795
59	0x3db3a77a	0.08772178
60	0xbda9db06	-0.082937285
61	0xbdbc1af2	-0.09184827
62	0xbe17f476	-0.14839348
63	0x3e854e32	0.2603622
64	0xbd9812fd	-0.07425497
65	0xbc8dd2ae	-0.017312374
66	0xbe7562f8	-0.23963535
67	0x3de1358c	0.109965414
68	0x3e521716	0.20516619
69	0xbdfa3a7d	-0.12218187
70	0xbddfe137	-0.10931628
71	0x3d2c7777	0.042106118
72	0x3c9bfaf3	0.01904056
73	0xbdb7de03	-0.08977892
74	0x3edfa0f6	0.4367749
75	0xbd198b63	-0.037486445
76	0x3dded1a1	0.10879827
77	0x3ec30d9f	0.3809633
78	0x3d422a02	0.047403343
79	0x3cbcf79b	0.023067286
80	0x3e138aec	0.14408463
81	0x3e55f788	0.20895207
82	0xbdf35726	-0.118818566
83	0xbe214f37	-0.15752874
84	0x3e455e52	0.19274262
85	0x3c5ea701	0.0135896215
86	0xbeeab885	-0.45843902
87	0x3e13b304	0.14423758
88	0x3d8f7cc9	0.07006223
89	0x3e54cb12	0.2078059
90	0x3ee3f5f0	0.44523573
91	0x3d0c41c1	0.034242395
92	0x3e501dde	0.20323893
93	0x3d0bc505	0.03412344
94	0x3dcc1805	0.09965519
95	0xbe255867	-0.16147004
96	0x3e1cb7f6	0.1530455
97	0xbe0a70df	-0.1351962
98	0x3c20ecb8	0.009822063
99	0x3ce0ca25	0.02744014
100	0x3e460c1c	0.19340557
101	0x3e871d77	0.26389667
102	0x3d9b4d9b	0.075831614
103	0x3c3c5a8c	0.011496197
104	0xbe9e018f	-0.30860564
105	0x3d990ca4	0.07473114
106	0xbe9fa625	-0.31181446
107	0xbe7ad9a7	-0.2449709
108	0xbe4a93ff	-0.19783019
109	0x3e531495	0.2061332
110	0x3cb0ba45	0.021573195
111	0x3e5de60c	0.21669787
112	0xbdc9272c	-0.098219246
113	0xbe925854	-0.28583014
114	0xbd96133d	-0.07327888
115	0x3dafd190	0.08584893
116	0x3d10bf08	0.03533843
117	0xbd5e95d6	-0.054342113
118	0xbea3cbf6	-0.31991547
119	0x3e54ab9d	0.2076859
120	0x3c19ef63	0.009395453
121	0xbe126b03	-0.14298634
122	0xbd1543a6	-0.036441468
123	0x3e1b8f46	0.15191373
124	0xbc2cb148	-0.010540314
125	0xbdeb2bf3	-0.11482992
126	0x3e17d2cc	0.14826506
127	0x3d4805db	0.04883371
128	0xbe414b1c	-0.18876308
129	0xbdade8d4	-0.08491674
130	0x3e1ae5d0	0.15126729
131	0x3dffd86f	0.12492453
132	0x3e23ef0f	0.16009162
133	0x3ec5b6af	0.3861594
134	0xbe88ec68	-0.26742864
135	0xbec42f72	-0.38317448
136	0xbcc4f629	-0.02404316
137	0x3e87270e	0.26396984
138	0xbe0ff4ec	-0.14058274
139	0xbcc57a81	-0.024106266
140	0x3eb58283	0.35451135
141	0xbeb6765c	-0.35637176
142	0xbe2264e8	-0.15858805
143	0xbdadb0e1	-0.084810026
144	0x3e45078c	0.1924116
145	0xbb899a34	-0.0041992906
146	0x3e38f609	0.18062605
147	0xbe9eb42c	-0.30996835
148	0x3e0c4b9d	0.13700719
149	0xbe9793e8	-0.2960503
150	0xbe0f0326	-0.13966045
151	0xbd460d1e	-0.048352353
152	0x3e40dce2	0.1883426
153	0x3d581687	0.05275586
154	0xbde67873	-0.112534426
155	0x3e92639f	0.2859163
156	0x3d65e29b	0.05612431
157	0x3db91143	0.090364955
158	0x3dde471e	0.10853408
159	0x3a885f29	0.0010404336
160	0xbe7f5553	-0.24934892
161	0xbddc4f66	-0.107573316
162	0x3ed3341d	0.41250697
163	0x3e43a39b	0.1910538
164	0xbe90f17a	-0.28309232
165	0xbe984743	-0.29741868
166	0xbe6f0d53	-0.23344927
167	0x3ecfe66c	0.40605485
168	0xbebbc924	-0.36676896
169	0xbeb4eecc	-0.35338438
170	0xbd5b04cd	-0.053471375
171	0xbeaefd14	-0.34177458
172	0xbe45d6b8	-0.1932019
173	0x3b2aa692	0.0026039225
174	0x3d44f55b	0.04808555
175	0xbd840c90	-0.064477086
176	0xbc8592be	-0.016305324
177	0x3d87421a	0.06604405
178	0xbe2014cd	-0.15632935
179	0xbde4dfe7	-0.111755185
180	0x3e0ba65e	0.13637683
181	0x3daa8b08	0.08327299
182	0xbe6457c3	-0.22299103
183	0x3e43df6b	0.19128196
184	0x3ebca10d	0.36841622
185	0x3d7a7c02	0.06115342
186	0xbecd9c0c	-0.40158117
187	0xbb40ec41	-0.0029437693
188	0xbeb141e4	-0.34620583
189	0xbe4b2942	-0.19839957
190	0x3d832907	0.0640431
191	0xbe00cbe2	-0.12577775
192	0xbd222e57	-0.039594974
193	0x3ed1e098	0.40991664
194	0x3d8c9001	0.06863404
195	0x3e7b60c9	0.2454864
196	0x3da4aa87	0.08040338
197	0x3dbc514a	0.09195192
198	0x3d57d60e	0.052694373
199	0xbe0cf6ea	-0.13766065
200	0xbe392670	-0.18081069
201	0xbdbd104f	-0.09231626
202	0xbd17a787	-0.037025
203	0x3e8fe34a	0.28103095
204	0xbcb4b261	-0.022057714
205	0xbe7869d2	-0.24259117
206	0x3d7554b1	0.05989522
207	0x3e503bc7	0.20335303
208	0x3e17e6ad	0.1483409
209	0x3be27c67	0.0069118026
210	0x3e39a182	0.18128017
211	0x3d623a3a	0.05523131
212	0xbd9cf6b0	-0.076642394
213	0x3e3ed759	0.18636836
214	0x3c0e9590	0.008702651
215	0x3ea1dbe5	0.3161308
216	0xbe3dec51	-0.18547179
217	0xbc61ac2b	-0.013773958
218	0x3e9335fa	0.28752118
219	0xbe975a20	-0.29560947
220	0x3eb9b783	0.3627282
221	0x3e040fab	0.12896602
222	0xbe55618e	-0.20837995
223	0xbd9df268	-0.07712251
224	0x3b8a09f2	0.0042126114
225	0x3e740a61	0.23832084
226	0x3c304487	0.010758526
227	0xbe7f81c3	-0.24951844
228	0x3e7c38d8	0.24631059
229	0xbdd622bb	-0.10455843
230	0xbd786e8c	-0.0606523
231	0x3dc90b1b	0.09816571
232	0xbe081e9a	-0.13292924
233	0xbe0007fd	-0.12503047
234	0x3e973235	0.29530492
235	0x3e8dac67	0.27670595
236	0xbe7d9579	-0.2476405
237	0xbdfad611	-0.12247861
238	0xbac686a7	-0.0015146331
239	0xbe11f0bd	-0.1425199
240	0x3e8f52c8	0.27992845
241	0xbd5e66fd	-0.054297436
242	0xbe527cfa	-0.20555487
243	0xbda8066e	-0.08204351
244	0xbea8a05a	-0.3293484
245	0xbdcce64e	-0.10004865
246	0xbe0c1b32	-0.13682249
247	0xbd250a94	-0.04029329
248	0xbe43f091	-0.19134738
249	0xbe1a3466	-0.15059051
250	0xbe2826ac	-0.16421002
251	0x3d179686	0.037008785
252	0x3e12a256	0.14319739
253	0x3eae4cc2	0.34042937
254	0x3d897611	0.067119725
255	0x3e5c1a97	0.21494518
