models/model_octminst_0.pth (torch, 563411 bytes, 27 tensors)

weights f4 [4, 784]
000000 85 38 45 3f 0b 76 20 3f c7 fd 2a 3f eb 55 19 3f
       0.77039367 0.6268012 0.66793483 0.59896725
000010 8d 9b 51 3f 5a 31 35 3f d5 87 46 3f d6 09 2c 3f
       0.81877977 0.7077843 0.77551013 0.6720251
000020 49 56 36 3f 21 5e 3a 3f 14 0a 85 3f f7 12 5d 3f
       0.7122541 0.7279988 1.0393701 0.86357063
000030 89 0a 45 3f ac 3a 22 3f 6d ac 43 3f c3 4d 19 3f
       0.769692 0.63370776 0.76434976 0.5988428
000040 6c 06 30 3f a3 d1 33 3f 84 e1 61 3f ee f0 52 3f
       0.687598 0.70241755 0.88234735 0.8239888
000050 01 b2 44 3f 5e 5b 2a 3f 7d 20 28 3f 78 7b 13 3f
       0.7683411 0.66545665 0.65674573 0.57610273
000060 f7 4f 25 3f af 4e 25 3f 41 fe 3c 3f 08 83 29 3f
       0.6457514 0.64573187 0.7382546 0.6621556
000070 ff 2a 2f 3f 0e 73 56 3f 13 5f 3c 3f 92 6a 14 3f
       0.6842498 0.8376931 0.7358257 0.57975113
000080 40 e8 44 3f 6a 51 45 3f b5 b6 37 3f e4 e4 1a 3f
       0.76916885 0.77077353 0.71763164 0.6050551
000090 4d ec 45 3f 34 fd 40 3f cb fe 49 3f fb d4 23 3f
       0.7731369 0.7538636 0.7890441 0.6399686
0000a0 b1 99 68 3f 89 34 69 3f e1 01 68 3f 9b 6f 6b 3f
       0.90859514 0.9109579 0.90627867 0.9196717
0000b0 07 eb 3a 3f 26 96 33 3f 77 94 45 3f 4e f7 37 3f
       0.73014873 0.70150983 0.77179664 0.7186173
0000c0 62 69 23 3f c4 ca 12 3f c3 1f 03 3f 61 55 0b 3f
       0.63832676 0.57340646 0.5122034 0.5442715
0000d0 3b 19 5f 3f 40 74 80 3f f4 9d 82 3f 71 8c 88 3f
       0.87147874 1.0035477 1.0204453 1.0667859
0000e0 b7 f0 15 3f 72 bd 26 3f e8 e3 15 3f 37 89 23 3f
       0.58570427 0.6513282 0.5855088 0.6388125
0000f0 41 57 86 3f 7d a2 7a 3f 75 9e 4d 3f 5a be 27 3f
       1.0495378 0.9790419 0.8031991 0.6552483
000100 e2 94 54 3f 81 f5 45 3f 54 4f 16 3f 0c 68 1b 3f
       0.8303968 0.77327734 0.58714795 0.6070564
000110 02 c3 80 3f b6 39 63 3f 20 ca 49 3f 97 18 27 3f
       1.0059512 0.88759935 0.78824043 0.65271896
000120 f9 cf 4d 3f 83 2c 3e 3f c0 88 40 3f 51 ee 21 3f
       0.80395466 0.7428667 0.75208664 0.63254267
000130 93 c8 53 3f 02 e9 34 3f 0e 05 38 3f 09 79 1b 3f
       0.82727927 0.7066804 0.7188271 0.6073156
000140 ad 53 3e 3f 45 66 29 3f 70 38 13 3f bf d2 af 3e
       0.7434643 0.66171676 0.5750799 0.34340474
000150 18 c4 33 3f 1e 62 49 3f e2 36 3c 3f 5f 23 2c 3f
       0.7022109 0.7866534 0.73521245 0.6724147
000160 b7 57 43 3f da 44 33 3f 02 f8 06 3f b8 9e 19 3f
       0.7630572 0.70026934 0.5272218 0.6000781
000170 90 9e 42 3f 95 d0 30 3f 43 9c 1c 3f 4d 5f 21 3f
       0.760232 0.6906827 0.61175936 0.6303604
000180 fc 90 44 3f 00 2b 42 3f fe 5c 3d 3f 57 62 33 3f
       0.7678373 0.7584686 0.7397002 0.7007193
000190 27 cf 54 3f 47 a9 3e 3f 96 e5 2b 3f fe 23 0e 3f
       0.8312859 0.74477047 0.67147195 0.5552367
0001a0 1b 8d df 3e 18 b3 d5 3e 7e 3b b1 3e 0b 4f b6 3e
       0.43662342 0.417382 0.346157 0.3560718
0001b0 1a bd 28 3f 23 b6 43 3f 1f 35 54 3f f4 0f 4a 3f
       0.65913546 0.76449794 0.82893556 0.7893059
0001c0 0f fe 34 3f 53 2b 5e 3f 38 09 66 3f 4c fa 4c 3f
       0.7070016 0.8678486 0.89857817 0.8006942
0001d0 34 0d 40 3f 17 a4 28 3f 65 1c 3d 3f 7f 4a 25 3f
       0.75020146 0.6587538 0.7387145 0.64566797
0001e0 f7 51 3a 3f e5 d9 5d 3f d6 71 89 3f 79 69 67 3f
       0.7278132 0.86660606 1.0737865 0.90395314
0001f0 7a eb 2f 3f 9d bf 25 3f 43 4e 90 3f 35 57 83 3f
       0.68718684 0.64745504 1.1273884 1.0260988
000200 6a 90 3b 3f eb b7 38 3f 9f 5e 39 3f 42 b0 47 3f
       0.73267233 0.72155637 0.72410005 0.78003323
000210 9c 9b 67 3f 5b 8d 6c 3f f5 b8 8f 3f 12 a5 81 3f
       0.90471816 0.9240319 1.122832 1.01285
000220 38 e0 35 3f 12 e9 2c 3f 90 b9 2a 3f 82 70 09 3f
       0.71045256 0.6754314 0.66689396 0.536873
000230 f5 7d 19 3f c9 12 6f 3f c7 89 39 3f 49 bb 2f 3f
       0.5995782 0.9338804 0.72475857 0.6864515
000240 f9 de 1f 3f e0 c4 12 3f 77 a7 07 3f 16 87 10 3f
       0.62449604 0.5733166 0.52989906 0.56456125
000250 74 fb 41 3f a2 e0 52 3f 01 f4 8b 3f ad 33 6b 3f
       0.7577431 0.8237401 1.0933839 0.91875726
000260 d2 c0 3f 3f 4a b1 7b 3f 08 23 a4 3f 80 31 47 3f
       0.74903595 0.98317397 1.2823191 0.77809906
000270 90 f0 3f 3f 99 43 14 3f d8 92 11 3f 04 d4 03 3f
       0.74976444 0.57915646 0.5686469 0.51495385
000280 72 55 ff 3e 56 55 05 3f be 21 0d 3f a4 2e 09 3f
       0.49869877 0.5208334 0.5512961 0.5358679
000290 28 b2 d2 3e 3d 75 22 3f 21 ea 17 3f 2b 2d 20 3f
       0.41151547 0.6346014 0.5934163 0.6256892
0002a0 b6 c0 7c 3f cb d7 89 3f 2d 1c 73 3f 33 cb 6a 3f
       0.98731554 1.076898 0.9496487 0.9171631
0002b0 ea 98 79 3f 2a 27 7b 3f 71 8e 6d 3f 99 00 47 3f
       0.97498953 0.98106635 0.92795473 0.77735287
0002c0 1a 44 f1 3e ef c9 10 3f 0e 24 19 3f c5 82 04 3f
       0.4712227 0.56558126 0.5982064 0.5176204
0002d0 8c d4 36 3f 09 43 84 3f ed bf be 3f 21 41 92 3f
       0.7141807 1.0332958 1.4902321 1.1426126
0002e0 2a 8f 6f 3f e5 0e 3e 3f ed 27 47 3f ad 73 40 3f
       0.93577826 0.7424148 0.77795297 0.7517651
0002f0 ac 31 13 3f 9c 2b 28 3f 98 1e 74 3f 08 8a 90 3f
       0.5749767 0.6569154 0.9535918 1.1292124
000300 e3 6b 7c 3f 1d a0 6d 3f a7 af 2f 3f bb 54 10 3f
       0.9860212 0.9282244 0.686274 0.5637929
000310 9f e3 a4 3f fe 67 aa 3f 0e d6 8f 3f e4 d9 66 3f
       1.2881964 1.3312986 1.1237199 0.90176225
000320 cf a0 54 3f e3 b2 5f 3f df 3e 5c 3f 6d a9 5e 3f
       0.83057874 0.87382334 0.86033434 0.86977273
000330 db 52 51 3f 02 84 8f 3f 3f bf 7f 3f b2 b9 60 3f
       0.8176705 1.121216 0.99901193 0.8778335
000340 8e c8 3c 3f 80 e4 30 3f 7c e6 80 3f 1f 93 49 3f
       0.7374352 0.69098663 1.0070338 0.78740114
000350 40 43 70 3f 27 f3 92 3f 7a 35 8a 3f 23 e0 88 3f
       0.93852615 1.1480454 1.079757 1.0693401
000360 a6 ea 5b 3f e7 40 37 3f 35 e6 73 3f 85 91 52 3f
       0.8590492 0.7158341 0.95273143 0.82253295
000370 53 b5 35 3f 88 c9 54 3f 75 90 39 3f 7c 1b 17 3f
       0.70979804 0.8312001 0.7248605 0.5902631
000380 9d 30 5a 3f 36 78 60 3f cf 9f 90 3f a7 72 98 3f
       0.8523043 0.8768343 1.129877 1.1909989
000390 5f 26 6f 3f 99 4f 44 3f f0 98 83 3f ea bb 72 3f
       0.93417925 0.76683956 1.0281048 0.94817984
0003a0 f3 91 8c 3f 31 0d 77 3f 13 42 9f 3f 96 30 96 3f
       1.098204 0.96504503 1.2442039 1.1733577
0003b0 3c 16 87 3f 2b ec 9f 3f 81 e1 87 3f c5 8e 64 3f
       1.055366 1.2493948 1.0615693 0.8928035
0003c0 e1 89 0e 3f bd e4 15 3f 9c b6 6b 3f 37 02 82 3f
       0.55679137 0.5855215 0.92075515 1.0156926
0003d0 92 d6 40 3f e4 11 43 3f 7d 1f 9c 3f 28 ea bd 3f
       0.7532741 0.76199174 1.219711 1.4837084
0003e0 a9 bd ae 3f b4 ff 9f 3f a7 47 a1 3f cb 0a 6e 3f
       1.365163 1.2499909 1.2599992 0.9298522
0003f0 33 39 bd 3f 5f 69 a8 3f 64 77 62 3f 85 41 65 3f
       1.4783081 1.3157157 0.88463426 0.895531

encoder.model.0.weight f4 [8, 1, 3, 3]
000000 57 5b a8 3d 0a ca 03 3f e2 32 0a bf f3 e0 d7 be
       0.08220547 0.5148016 -0.5398389 -0.4216381
000010 69 2f 98 3d 21 ed 49 bd 98 3f 1c be ed 31 0b 3f
       0.07430918 -0.04929841 -0.15258634 0.54373056
000020 e3 cc 31 3d 22 6e 90 3e 85 3e 98 bd e9 21 b2 3c
       0.043408286 0.28209025 -0.074338 0.021744685
000030 76 53 b4 be 2b 00 af be 25 aa ce bd 7b 39 97 3d
       -0.35219926 -0.34179816 -0.10091046 0.073840104
000040 8e 9d 0e 3e 0b 1e bc 3e d8 8d 11 bf 05 48 2f bf
       0.1392729 0.3674167 -0.5685706 -0.6846927
000050 27 e8 2c 3f 15 18 a5 be dd 82 a9 be ef cd 9d 3f
       0.67541736 -0.32244936 -0.33107653 1.2328471
000060 94 b7 d5 be b4 b4 31 be a2 e9 6b 3f 90 d5 0b be
       -0.41741621 -0.17354089 0.9215337 -0.13655686
000070 68 49 40 bf 82 34 46 be a0 72 18 3e d9 60 d1 be
       -0.7511201 -0.19355968 0.14887476 -0.408942
000080 20 94 36 bf 16 79 6b 3e 2c 09 5a bf 8e ed 4b bf
       -0.7131977 0.2299541 -0.85170245 -0.79659355
000090 3a cf fb bd cc e8 cf 3e 81 8a 5c 3e 63 b7 d4 3e
       -0.12295385 0.40607297 0.2153721 0.41546163
0000a0 cf ef a3 3e 5c 38 19 3c c2 5e 7e be 6b 1f f7 be
       0.32018897 0.009351816 -0.24840835 -0.48266158
0000b0 3b 38 fb be f7 dd d9 bd 28 9e da 3e 4a a0 e0 3e
       -0.49066338 -0.106380396 0.4269879 0.4387229
0000c0 c5 22 1e be 73 dd 8b 3e 4b 92 d6 3e 16 9b bb 3e
       -0.15442951 0.2731739 0.41908488 0.3664176
0000d0 8a b7 a6 3e 45 fa 10 3e de 6e e8 3e 83 57 f4 3d
       0.32561904 0.1415797 0.45397085 0.11930754
0000e0 7a 00 90 3e c2 9c ec be f5 41 e7 be 6e fb c9 be
       0.28125364 -0.46213347 -0.4516751 -0.39449638
0000f0 96 70 2b 3e 33 07 4a 3e ab 9d a3 bd 20 68 6b 3e
       0.16742167 0.19729309 -0.07989057 0.2298894
000100 c2 54 94 3e 17 05 ed 3d bf fe 49 3e e1 2a 9b 3e
       0.28970915 0.115732364 0.19726084 0.30306152
000110 57 6f d5 3e 05 b2 f1 3c e1 1b f3 be 63 13 dc be
       0.41686508 0.029503832 -0.47482207 -0.4298354

encoder.model.0.bias f4 [8]
000000 8d 1d c9 3b ad 7f 19 3e 59 b5 c4 3d 26 5b 0c 3f
       0.006137556 0.1499011 0.09604902 0.5482658
000010 c8 f5 72 3d ed 15 a2 be fd 93 41 3d a8 c4 7d be
       0.059316427 -0.31657353 0.047260273 -0.2478205

encoder.model.2.weight f4 [16, 8, 3, 3]
000000 c2 94 2b bc 52 c5 a2 bc 4c f4 6d bc 4c 4b 78 bc
       -0.010472478 -0.01986948 -0.014523577 -0.015154671
000010 44 c6 bd bc 8f e5 83 bc 7b 4d 97 bc ed b0 f8 bc
       -0.02316583 -0.016100673 -0.018469563 -0.030357802
000020 29 60 d0 bc a0 cb 04 bd 34 03 0c bd 4f 9d 0c bd
       -0.025436478 -0.032420754 -0.034182742 -0.03432971
000030 0b 7d 0a bd 33 81 0b bd 58 18 0b bd ea 85 10 bd
       -0.033810657 -0.03405876 -0.033958763 -0.03528396
000040 e3 04 18 bd 82 bb 18 bd 43 e1 ea bc ea 35 09 bd
       -0.037114035 -0.037288196 -0.028671866 -0.033498682
000050 07 2c f2 bc 42 1d f6 bc 1c e1 06 bd be f8 00 bd
       -0.02956201 -0.030043248 -0.032929525 -0.03148722
000060 98 6a 1d bd 26 ed 29 bd 45 65 22 bd 8a 52 b0 bc
       -0.038431734 -0.041485928 -0.03964736 -0.021523733
000070 5b b2 ad bc 1d 45 b8 bc 1e c1 c9 bc 84 37 d3 bc
       -0.02120321 -0.022493893 -0.024628218 -0.025783308
000080 bd fb d6 bc 32 32 da bc 13 a4 d6 bc e0 dc dc bc
       -0.026243085 -0.026635263 -0.026201284 -0.02696079
000090 10 19 c6 bc f7 6e dc bc 45 1c d8 bc 81 41 0b bd
       -0.024181873 -0.02690838 -0.026380667 -0.033998016
0000a0 f3 88 11 bd 83 3f f7 bc eb 73 92 bc 82 4c 9f bc
       -0.035530996 -0.030181652 -0.01787754 -0.019445661
0000b0 bb 60 9d bc 67 b5 20 bc 31 9f 41 bc 7d 82 3f bc
       -0.019211164 -0.009808875 -0.011817739 -0.011688826
0000c0 c9 51 82 bc 81 44 9e bc 11 ff a2 bc 23 5b 9f bc
       -0.015908139 -0.019319775 -0.019897016 -0.019452637
0000d0 13 a1 b5 bc 78 e9 cd bc d7 cb 73 bc 97 9d 81 bc
       -0.022171533 -0.02513574 -0.014880142 -0.015822215
0000e0 ca 89 99 bc ce 93 c3 bc ef a3 b8 bc bd 8e c7 bc
       -0.01874246 -0.02387419 -0.022539107 -0.024360055
0000f0 c5 87 87 bc 8f 79 94 bc 29 1a a3 bc de b7 a6 3b
       -0.016544232 -0.01812437 -0.019909935 0.0050878366
000100 14 7b a1 3b 42 0f 77 3b 94 aa 20 bc 13 2f 14 bc
       0.004928002 0.0037698303 -0.009806294 -0.0090444265
000110 26 34 33 bc 74 ea 5a 3b 3f df a2 3b e9 23 6d 3b
       -0.010937726 0.0033403905 0.0049704607 0.0036184734
000120 6e a9 e1 bd 7d d2 2b 3e 90 a0 ef bc 90 ca af bd
       -0.11018644 0.16779514 -0.029251367 -0.085835576
000130 1a 23 c2 3e 2e bc d1 3c 89 f3 68 be 45 82 1e 3e
       0.37917405 0.025602426 -0.22749151 0.15479381
000140 58 06 00 bf a2 fb 28 3e 0b ad 1a 3e af 35 02 3f
       -0.5000968 0.1650224 0.15105073 0.50863165
000150 0f 90 a1 bd 00 1b 87 3e 44 de 90 3e 13 ef f4 3d
       -0.07888805 0.26387787 0.28294575 0.11959662
000160 fa 71 48 bc c9 e4 ab 3d 36 61 55 3e 9b 88 ef bd
       -0.012234205 0.08393247 0.20837864 -0.11695977
000170 14 4b 25 3e a6 97 8a bd 1b 28 97 be ee b8 98 3e
       0.16141921 -0.06767206 -0.29522786 0.2982859
000180 76 d4 72 be 3b 00 25 be 8d 76 5d 3e fc 3a ae be
       -0.2371386 -0.16113369 0.21627255 -0.34029377
000190 14 61 81 bd 86 f0 53 3d f1 23 52 3e a9 19 3b 3e
       -0.06317344 0.051743053 0.20521523 0.18271507
0001a0 47 2e 81 be f1 b7 82 3c 50 b4 10 3e 99 6b 8d be
       -0.2523062 0.01595685 0.14131284 -0.27621153
0001b0 e2 1c 21 bd 75 80 a1 3c ea a4 06 3e 47 77 9a bd
       -0.039334185 0.019714573 0.13148847 -0.075422816
0001c0 7f c2 15 bf 28 41 4a be 39 39 c3 bd bd 59 93 bc
       -0.584999 -0.19751418 -0.09532399 -0.017987126
0001d0 c5 da 18 be da 46 95 3e 43 e9 97 3e 6a c1 43 3e
       -0.14927204 0.29155618 0.29670152 0.1911675
0001e0 0b 0c 4d 3e 8f 74 3a 3d 68 7b 7a 3d 50 14 cc be
       0.20024125 0.045521315 0.061152846 -0.39859247
0001f0 f4 44 2c be 7e d8 4c bd b7 f8 3f be 20 bf 7b be
       -0.16823179 -0.05001115 -0.18747221 -0.24584627
000200 ce cd 2a be bb 57 c2 be 24 b0 3f bf 4c 25 31 bf
       -0.16680071 -0.37957558 -0.74878144 -0.69197536
000210 14 31 3b 3d b8 68 2a bf 6c 07 66 bf 9c 75 5e be
       0.0457011 -0.6656604 -0.89855075 -0.21724552
000220 9c 9c eb be 62 8a 05 be ea fd 09 be 3f cd 27 bf
       -0.4601792 -0.1304107 -0.13475767 -0.65547556
000230 cf d4 ce be 41 33 62 bd 3b a4 1f be ce b2 91 be
       -0.40396735 -0.05522466 -0.15589993 -0.2845673
000240 2e c2 58 be e7 37 20 3e 4f 2f 5d bd 4d 79 12 be
       -0.21167824 0.15646325 -0.054000195 -0.14304085
000250 c9 38 53 bd 39 b2 40 3e 32 f0 74 bd 67 8d 73 be
       -0.051567826 0.18817987 -0.05979938 -0.2378441
000260 3f 04 d3 3e 7b 4d de bc 60 23 21 3e 41 0c 49 be
       0.41214177 -0.027136555 0.1573615 -0.1963358
000270 5c d0 a6 3e 8a 3e a8 3d ea be bc be 0f 64 29 3e
       0.3258084 0.082150534 -0.36864406 0.16542076
000280 5a 3e 61 be dc 0b 57 bd 41 96 22 be ab 24 87 bc
       -0.21996441 -0.052501544 -0.1587763 -0.016496977
000290 5e 3b f4 3b 7e 48 49 bd 5f 70 19 3f 11 2a 4f bf
       0.007453366 -0.0491414 0.5993709 -0.80923563
0002a0 e8 bd c2 3e 86 17 ca 3e 89 88 50 bf c6 b4 8d 3e
       0.38035512 0.39471072 -0.81458336 0.27676982
0002b0 c5 83 48 3e fa ad c1 be b1 62 cb 3e 91 59 88 bd
       0.19581516 -0.37828046 0.39723733 -0.066577084
0002c0 ac d2 ba be 65 60 ae 3e 7b 89 b7 be 8e ff e2 bd
       -0.36488855 0.34057918 -0.35847077 -0.110838994
0002d0 43 2d cc 3c e9 d1 a3 be 6f 72 18 3e c6 36 27 bc
       0.024923926 -0.31996086 0.14887403 -0.01020593
0002e0 32 d9 3c bd 27 d6 a0 3d 7c de 61 be b7 dd 3c 3e
       -0.04610557 0.07853346 -0.22057527 0.18443953
0002f0 be 5d 04 3e 98 14 7d 3d 5d f0 e5 bd 8d be 96 bb
       0.12926385 0.061787218 -0.11227486 -0.004600352
000300 38 0c 65 be df b5 b4 3e f8 15 29 be 92 b1 d7 bd
       -0.22367942 0.35295007 -0.16512287 -0.10531916
000310 dc d1 02 3f ef 7e b6 be f7 e0 38 3e 81 7f c8 be
       0.5110147 -0.35643718 0.18054567 -0.39159778
000320 d9 2f 5a 3e 97 76 72 3e 98 45 db be 62 00 a0 3d
       0.21307315 0.23678051 -0.42826533 0.07812573
000330 28 83 16 3e 7e d6 9d bd dd 87 b2 bc e6 cd 44 3e
       0.1469847 -0.07706927 -0.0217933 0.19219169
000340 ce 9c 3c be af 99 35 3e 4b 3b 1d 3e 67 a8 91 3d
       -0.18419191 0.17734407 0.1535465 0.07112198
000350 94 e6 7f be 1c b3 0f 3d b7 f8 ce 3e b7 9f ea be
       -0.24990302 0.03508292 0.4042413 -0.45824978
000360 31 8d bf 3e bb b0 10 be 9c 5f 9f 3e 60 85 f4 3d
       0.37412408 -0.14129917 0.31127632 0.11939502
000370 01 30 51 bc a7 6e 34 be eb 0f 40 be bb 80 a5 be
       -0.012767793 -0.17620336 -0.18756072 -0.32324776
000380 a8 dd f9 bd b8 21 82 3d de f7 05 3e b2 70 e9 3d
       -0.12200481 0.063540876 0.13082835 0.11398448
000390 b7 f2 a0 3e 66 54 91 3e 46 c6 b9 bd 82 e5 51 3e
       0.31435177 0.28384703 -0.09071021 0.20497707
0003a0 d3 69 66 3d d8 07 89 3b cc a0 a0 3d fd 62 c4 bc
       0.056253266 0.0041818433 0.078431696 -0.023972983
0003b0 b3 e2 1f 3d a3 8d 98 3d 02 01 8f 3e 90 73 2e bd
       0.039034557 0.0744889 0.27930456 -0.042590678
0003c0 47 3a bc 3c 05 0c 73 be 19 7b 24 be 89 e1 6a be
       0.022977008 -0.23735054 -0.16062583 -0.22937597
0003d0 68 10 3d 3e 72 4b df 3d 79 31 01 bf 6f 2f 21 bf
       0.1846329 0.10903062 -0.50466114 -0.62963
0003e0 02 e6 76 bf 9d e8 ba 3e 4c a3 47 be 5a 1f 55 3e
       -0.96444714 0.36505595 -0.19495887 0.20812741
0003f0 b6 20 ab be d6 4d 4c bf da cd 06 bf 60 81 d1 3c
       -0.33423394 -0.7980627 -0.52657855 0.025574386

encoder.model.2.bias f4 [16]
000000 cb c0 21 bd 9a 2a ff 3d 8b ef bc 3d 9d c6 ac 3d
       -0.039490502 0.124592975 0.09225377 0.0843632
000010 be 63 0f 3e 48 b1 81 bd 64 e1 d4 3d 15 89 d6 bc
       0.14002892 -0.06332642 0.10394552 -0.026188413
000020 e4 75 ac bc fa df 31 3e 28 c7 62 3e 53 2e ea 3c
       -0.021052308 0.17370597 0.22146285 0.028586542
000030 b7 45 92 3d df 2d ff 96 74 2c 5c bd 12 86 bd b9
       0.07142203 -4.122642e-25 -0.05375333 -0.0003614878

encoder.fc.weight f4 [32, 784]
000000 0d 97 2c 3b bb 26 82 3b e6 5e af 3b e1 67 cc 3b
       0.002633515 0.003971902 0.005351889 0.0062379693
000010 a2 71 c7 3b ba f8 d2 3b db 9d e7 3b 54 cd 0e 3b
       0.006086544 0.006438342 0.0070683784 0.0021789866
000020 52 9f 85 3b 0d 04 cf 3b 21 a6 12 3c 1f 11 0c 3c
       0.0040778304 0.0063176216 0.008950741 0.008549004
000030 d8 59 11 3c 98 4b 1a 3c 77 37 66 3b 4f fb c3 3b
       0.008871518 0.009417437 0.0035128274 0.005980886
000040 33 2c ca 3b 3b 19 aa 3b 87 1b 88 3b 0a d0 c3 3b
       0.0061698197 0.005190996 0.004153672 0.005975728
000050 d7 74 b7 3b e0 af 59 3c 4b 6c 6f 3c 24 9c 5b 3c
       0.005598645 0.013286561 0.014613221 0.013403926
000060 09 fb 42 3c 69 c4 49 3c 0f 86 6c 3c 07 bb 80 3c
       0.011900672 0.012314894 0.014436259 0.015714182
000070 41 42 0d 3c 99 42 1e 3c e2 60 30 3c d6 1b 1e 3c
       0.008621753 0.009659433 0.010765286 0.009650191
000080 e7 f2 50 3c c4 04 4e 3c 7f a0 4f 3c bc e1 a5 3b
       0.012753225 0.012574378 0.012672543 0.00506231
000090 e2 e1 aa 3b 68 15 c8 3b 6c 1a f5 3b 07 eb 00 3c
       0.0052149156 0.0061060674 0.0074799564 0.007868535
0000a0 93 d2 00 3c 18 e4 ff 3b 2b 0e e9 3b 9e aa 28 3c
       0.007862705 0.0078091733 0.0071122847 0.010294585
0000b0 aa 61 42 3c 28 60 4e 3c db f2 52 3c 9c fc 78 3c
       0.011864105 0.012596168 0.012875284 0.0151969455
0000c0 c7 a1 7b 3c 24 38 84 3e 65 26 a2 3e 17 fd 8b 3d
       0.015358395 0.25824082 0.31669918 0.068353824
0000d0 dc 26 83 3e 1c 33 e6 bd 41 c0 6f be 3f 46 f0 bd
       0.25615585 -0.11240217 -0.23413183 -0.117321484
0000e0 b5 6e f9 bd 50 b0 d9 bd f5 7d 28 3e 76 e3 9f 3e
       -0.12179319 -0.10629332 0.16454299 0.31228226
0000f0 04 eb 9d be 5f 7d 92 3d ec 72 c3 be 82 15 96 3e
       -0.30843365 0.07152819 -0.38173616 0.29313284
000100 a4 0d 0c be 94 65 0c bf c7 d8 80 3e 8b 91 90 3e
       -0.13677078 -0.54842496 0.25165388 0.2823604
000110 a8 1a 88 3e 90 a8 29 3f 83 d7 2e be 91 ac 9f be
       0.26582837 0.6627283 -0.17074399 -0.31186345
000120 9d 38 8b be 53 9d b5 bd 1d 6b 1b 3f 6e c6 50 be
       -0.2719163 -0.08867898 0.60710317 -0.20388195
000130 bd 32 35 ba 02 4f 93 3e c0 25 91 bd e8 2d bb be
       -0.00069121626 0.28771216 -0.07087278 -0.3655846
000140 e1 dc 0e bf 17 ba 2d bf 5f 70 0b be 36 c8 44 be
       -0.55805784 -0.67862076 -0.13617085 -0.19217
000150 28 92 b6 3d a9 e5 ce 3e b9 9b 3e 3e e4 be 11 3e
       0.08914596 0.40409592 0.18614091 0.14232975
000160 ad 44 db 3e 3c 8e b8 3e 59 d6 28 3e 7d 38 44 bd
       0.42825833 0.36046016 0.16488017 -0.047905434
000170 73 2e 14 be 12 21 80 3d d3 0d fd bd 96 83 d1 3d
       -0.14470844 0.06256308 -0.123561524 0.10230176
000180 cc 73 84 be 4c 2b a2 3e f0 b7 33 3d 8f 08 21 bd
       -0.25869596 0.31673658 0.04387659 -0.039314803
000190 8a 96 92 3e ce f2 ec 3d ce 13 03 be 3d 0b c5 be
       0.28630477 0.11569749 -0.12800524 -0.38485137
0001a0 10 f7 58 bf 9f fb 1a 3d 42 ef c1 3d 7c 6b af be
       -0.8475199 0.03783762 0.09469463 -0.34261692
0001b0 7c 19 aa 3e 7a 94 55 3d b9 4a 4c be 60 47 39 be
       0.33222568 0.05214355 -0.1995038 -0.18093634
0001c0 d1 73 08 3d 57 e1 97 be 0f 32 a2 3b 05 f3 e4 bd
       0.033313576 -0.29664108 0.004949815 -0.11179165
0001d0 eb 8b af be f8 ac 3d be 1e 5a a2 be b0 f6 4a 3e
       -0.34286436 -0.18523014 -0.3170938 0.19820666
0001e0 d8 d0 33 be 71 82 40 bc 64 fb 9a be c0 05 05 3f
       -0.17560136 -0.01174985 -0.3026992 0.519619
0001f0 e2 fc 7c 3e cf e8 c2 be 16 ce 09 3e 87 08 7a be
       0.24705842 -0.38068244 0.13457522 -0.24417315
000200 7f a5 c8 be fb c7 43 be cf 26 69 3e 04 38 c2 bd
       -0.39188763 -0.19119255 0.2276871 -0.094833404
000210 a3 fc d0 3d 83 76 6b 3e 66 00 9d bd 39 f5 3a 3e
       0.10204437 0.22994427 -0.076660916 0.18257608
000220 6e 4f 85 bd be 58 42 bf 01 e9 2c 3c ed 7d db be
       -0.06509291 -0.7591666 0.010553599 -0.4286951
000230 91 72 0c bd 89 d0 2a 3e c3 06 59 3d 09 1f ce 3e
       -0.034288947 0.16681112 0.052984964 0.40258053
000240 10 10 70 3e 83 9e 18 3e 79 81 ed bd ad 21 37 3e
       0.23443627 0.14904217 -0.115969606 0.1788394
000250 d8 32 9a bd 50 b6 89 3e a0 8a f5 3d 81 58 00 bf
       -0.07529229 0.26896906 0.11989331 -0.50135046
000260 12 46 83 be 55 a2 6f be 31 d4 ce bd 2f 32 76 be
       -0.25639397 -0.23401769 -0.10099066 -0.24042581
000270 c4 3d d9 3d 4b 41 01 3e 8d b2 f2 bc 8f a9 f0 bc
       0.10607484 0.12622564 -0.029626155 -0.029377727
000280 72 a0 80 3d 98 3f 4c be 9c 45 30 3e 0f 31 9d 3e
       0.062806025 -0.19946134 0.17214054 0.3070149
000290 d2 c0 e1 3e 9d dc b4 3e 25 87 3f be d1 e6 e5 3e
       0.44092423 0.35324565 -0.18703897 0.4490266
0002a0 79 9b b0 be 66 8f ea be 1f b2 de be db b8 9a be
       -0.34493616 -0.4581253 -0.4349527 -0.3021916
0002b0 68 b3 eb bb c8 4b 24 3e 65 6d 84 3e 9c fa a2 3d
       -0.0071930178 0.16044533 0.2586471 0.07957956
0002c0 29 db 84 3c 55 cf 5d be 3a 59 04 bd b6 4b 69 3a
       0.016217785 -0.21661122 -0.032311656 0.00088995264
0002d0 01 3b cd be 74 86 dd be 77 a2 30 3e 70 1a 4c be
       -0.4008408 -0.43266642 0.17249475 -0.1993196
0002e0 f9 56 e3 3e fa cc c9 3e 74 32 0f be af f8 54 bd
       0.44402292 0.39414197 -0.1398409 -0.051994976
0002f0 ee 7a 99 3c 08 52 82 be 07 65 97 be 31 45 b3 bd
       0.018735375 -0.2545321 -0.29569265 -0.087534316
000300 b8 96 84 be a5 51 78 be 9a 21 8a bd 67 9c 98 3e
       -0.2589624 -0.24249895 -0.0674469 0.29806826
000310 7c 3e e0 bd d8 e5 90 be 6c 6a ee 3d 35 bb 06 3e
       -0.10949418 -0.28300357 0.11641392 0.13157351
000320 80 c4 83 3d 3f 23 0f 3d 09 35 fd be 0b 99 79 be
       0.06433964 0.034945723 -0.49454525 -0.24374788
000330 22 9f d6 bd ed 81 c6 3e 58 a3 10 3e 17 6e a0 3d
       -0.10479571 0.38771 0.1412481 0.07833498
000340 e9 d7 49 be a2 ec f1 be 32 f9 77 bd 98 ec 95 3d
       -0.1971127 -0.4725085 -0.060540386 0.07320517
000350 1e 51 55 3e 7f 1e 01 3e b6 2e b7 3e ab 60 f3 bd
       0.20831725 0.1260929 0.35777825 -0.11883672
000360 5b 34 cb 3d 6d 0c c1 3c 8a 6c b9 3c b7 75 15 3e
       0.099220954 0.023565495 0.022634763 0.14595686
000370 d0 e2 80 3e 98 44 44 3e af f1 af 3d 57 9d d1 3d
       0.25173044 0.19166791 0.08591019 0.10235088
000380 fd 06 9f bd 95 d0 e6 bd 4f 48 81 bf 53 1f 8a bf
       -0.07765005 -0.112702526 -1.0100192 -1.0790809
000390 6d 24 a9 be 59 b3 c4 bd f0 cb a7 be 74 23 d9 3e
       -0.33035603 -0.0960452 -0.3277278 0.4240986
0003a0 43 34 d4 3b 0d 28 4f 3e d3 d4 05 3e 0f b6 11 be
       0.0064759566 0.20230122 0.13069467 -0.14229606
0003b0 c6 82 a3 bd 24 4a 3c be c4 ce 54 3d 82 52 07 3e
       -0.079839274 -0.18387657 0.051955 0.13215068
0003c0 ef 19 3c 3d ad 75 8a 3e 12 e1 d2 bd 8a 59 23 be
       0.04592317 0.27042904 -0.10296835 -0.15952125
0003d0 2a f1 23 bf c2 f5 fd bd fd cc 33 be d6 6e 83 be
       -0.6403986 -0.1240039 -0.17558666 -0.256705
0003e0 16 60 76 be a9 56 46 be bd 92 90 bd ae 77 dd bd
       -0.24060091 -0.19368996 -0.07059238 -0.10813843
0003f0 d3 98 1f 3d 1a 73 9e bc 57 49 94 3c 2e af ad bd
       0.038964104 -0.019341994 0.018101377 -0.084806785

encoder.fc.bias f4 [32]
000000 cf 89 2f 3c ae 64 71 bd 59 6f 0d be 32 db 4b be
       0.0107140085 -0.058933906 -0.13812007 -0.19907835
000010 ff c7 94 3d 86 94 12 bd 58 e9 4c bd a6 3a 00 3e
       0.07264709 -0.035786174 -0.05002722 0.12522373
000020 e7 10 99 3c 75 37 1a 3e da ca 15 3c c3 2d 98 3d
       0.018684817 0.15060218 0.009142602 0.07430603
000030 ec 5a 6b 3d 58 70 71 3e 32 f2 3c bd cd d0 df bb
       0.057459757 0.23578012 -0.046129413 -0.006830311
000040 76 6c 45 bd 10 d3 33 bd b5 ee 66 3e d5 f6 0a 3c
       -0.04819914 -0.043902457 0.22551997 0.008481701
000050 82 a1 e1 3d 17 21 b0 bd 7c 19 da bd 22 e1 63 3b
       0.11017133 -0.086000614 -0.10649392 0.003477164
000060 de 1a 3c be a9 40 69 3d 7b 2f 15 3e 77 a0 4b be
       -0.18369624 0.05694643 0.14568894 -0.19885431
000070 b3 3e c7 3d 9a eb bc 3d 9a 21 14 3e 0e 87 cf 3d
       0.09728756 0.09224625 0.14465943 0.101331815

decoders.0.model.0.weight f4 [16, 8, 3, 3]
000000 5d a2 02 be b6 97 cf be 56 f6 93 3e 44 42 cd 3e
       -0.12757249 -0.40545434 0.28898877 0.4008962
000010 52 de 17 3e 93 49 a8 be 2c f9 83 3e 2b 20 44 be
       0.14830902 -0.32868633 0.2577604 -0.19152896
000020 73 51 71 be 5a 05 37 3f 21 b1 c8 3e 24 f1 1c 3e
       -0.23566227 0.7149254 0.3919764 0.15326363
000030 fc 31 f9 3e 06 24 53 be 2e a3 41 3c c2 df 50 3e
       0.48670948 -0.2061921 0.01181869 0.20397857
000040 71 73 08 3f 37 06 f7 3e 91 33 92 be ef fe 35 be
       0.5330115 0.4824693 -0.28554967 -0.1777303
000050 83 30 a9 3d 13 77 2d be da 1f 0c be 12 ab 33 be
       0.08261206 -0.16939954 -0.13684025 -0.17545727
000060 6b e5 51 3e c0 e1 a1 3e ed dc da be d3 e9 76 3e
       0.20497672 0.31617546 -0.42746678 0.24112634
000070 70 07 7f 3d c0 fc ff 3e 3e 18 e9 bd 3f b4 d8 3e
       0.062262952 0.4999752 -0.11381577 0.42325017
000080 99 f7 03 bd 89 f5 86 3e ad b5 29 bd 25 dd 5d 3e
       -0.03221855 0.26359203 -0.041433025 0.21666391
000090 0a 38 37 be f8 f8 cb 3e 86 b7 e8 bd 3b b7 90 3d
       -0.17892471 0.39838386 -0.11363129 0.070661984
0000a0 a8 be 3a be a0 47 16 3f 2a 4e 93 3e b8 1d d0 bd
       -0.18236792 0.5870304 0.28770572 -0.101619184
0000b0 01 01 01 be 49 86 2e 3e 05 d9 11 3d 7a 2d 45 3e
       -0.12598039 0.17043413 0.035607357 0.19255629
0000c0 13 03 46 3e 42 31 f4 bc c0 57 2b 3f 1b 0e df 3e
       0.1933711 -0.029808644 0.6693077 0.4356545
0000d0 d9 2f ae be d5 e9 8e 3e 43 ba 92 3e b3 57 05 80
       -0.3402088 0.27912775 0.2865773 -4.90638e-40
0000e0 e7 36 1b 3d 09 d0 0b 3e 14 d4 68 be 93 d4 1c be
       0.037894156 0.13653578 -0.22737151 -0.15315466
0000f0 98 8b 53 3e 40 59 05 80 69 92 dd 3d 75 bb b5 3e
       0.2065872 -4.91194e-40 0.10818941 0.3549458
000100 01 db bb 3e 4b 4c e9 3e c1 6e 2c 3f aa d6 0e 3d
       0.36690524 0.4556602 0.673565 0.03487269
000110 5b 27 33 3e 42 60 d2 3e 8e 07 07 bc 10 7b e4 bb
       0.17495482 0.41089064 -0.008241547 -0.006972678
000120 18 9b c3 be b4 fc 10 bd ab f6 d5 be 95 17 a2 3e
       -0.38204265 -0.035397246 -0.41789755 0.31658617
000130 4f 7e 05 bf 4f 59 92 3d da e1 2f 3d b1 54 ba be
       -0.52145857 0.071459405 0.04294 -0.3639274
000140 ef af 00 3e 8a 32 75 3e ae 82 e2 be 6f 23 ef 3e
       0.12567113 0.2394506 -0.44240326 0.4670672
000150 f0 bb 33 3f 1f eb 09 3f 94 98 14 3e 06 25 2d 3d
       0.70208645 0.5387439 0.14511329 0.042271636
000160 91 1a 29 be db b3 8e be 96 7f ad bd ee e8 29 3e
       -0.1651404 -0.27871594 -0.08471601 0.16592762
000170 ed ae 09 bc 67 32 e2 be 3a 76 93 be 11 da b7 bd
       -0.008403522 -0.4417908 -0.28801137 -0.0897714
000180 cf aa df be ad 5c 80 be 83 7e 19 3d 25 e9 2a 3e
       -0.43685004 -0.25070706 0.037474167 0.166905
000190 b6 5a 88 bd 11 a7 65 3c 50 d3 9b 3d 41 18 3e 3e
       -0.06657927 0.0140168825 0.07608664 0.1856394
0001a0 79 9f 21 3e 86 e2 ff bc dc 7a 07 be bf a8 9e bc
       0.1578349 -0.031235944 -0.13230461 -0.019367574
0001b0 3e ad b1 3d 27 80 4e 3d 18 f8 82 be 96 5c 9b 3b
       0.086756214 0.050415184 -0.25579906 0.0047412617
0001c0 dd c9 69 3e 58 c7 2b bd 72 7a a5 be a0 fe 0a be
       0.22830911 -0.041938156 -0.3231998 -0.13573694
0001d0 ec ba 13 3d 2e 6c 91 3e 44 0b 0f 3f 7f 99 40 3f
       0.036066934 0.28402847 0.55876565 0.75234216
0001e0 4c 88 df 3e 2c 8a 04 3f 8e 86 2a be ab 85 4e bc
       0.43658674 0.51773334 -0.16652891 -0.012605111
0001f0 e6 54 b2 3e 59 e9 e5 bc f2 cf 85 3e 66 5d 05 00
       0.34830397 -0.02806537 0.26135212 4.92683e-40
000200 b8 f7 b8 3e 14 44 13 3e 69 a6 db 3e 18 b2 f3 bd
       0.36126494 0.14381438 0.42900398 -0.11899203
000210 a1 3f 57 be 0d 60 05 00 18 29 09 3e 36 56 00 3d
       -0.21020366 4.93634e-40 0.13394582 0.031332217
000220 9c a2 32 3e 23 cc 92 3d 72 f9 81 be 46 3f 9d 3e
       0.17444843 0.07167842 -0.25385624 0.30712336
000230 f2 77 8c be a1 d3 18 3d 61 bf 39 3d 12 70 96 3c
       -0.2743526 0.0373112 0.04534853 0.018363986
000240 76 96 24 be 2b 8e c1 bd b5 d9 12 3e e1 6b cd be
       -0.16073021 -0.094509445 0.14340861 -0.40121368
000250 f8 ca c7 3e f4 11 87 3e b9 4c d3 bc 7f d4 87 bd
       0.3902204 0.26380885 -0.02579342 -0.06632327
000260 16 f2 85 3e 0a b1 41 3e 5e 2c 0b 3d 46 43 4b be
       0.2616126 0.18915191 0.03397786 -0.19849882
000270 b7 16 eb bc 1b 0a da bd 9b f8 08 bd 6e 07 05 be
       -0.028697355 -0.10646459 -0.033440214 -0.12991115
000280 13 00 f3 bc 60 01 75 be e1 97 de bd e7 a1 56 3e
       -0.029663121 -0.23926306 -0.10868812 0.20960198
000290 a1 cb eb bc 87 01 a0 3e a6 1f 8a 3e 59 3e 56 3e
       -0.028783621 0.31251165 0.2697727 0.20922221
0002a0 3d 21 7b bb a9 d0 84 3d 51 f0 0a 3c b9 63 38 3e
       -0.0038319372 0.06485111 0.008480147 0.18006791
0002b0 6a cc a9 bd 37 a6 d6 3e 87 9c 72 be a9 05 e4 be
       -0.08290942 0.41923687 -0.23692523 -0.44535568
0002c0 06 63 04 3e 89 5c 5b 3d 1b 35 b6 3d cd 2b 05 bc
       0.129284 0.053555045 0.08896848 -0.008128119
0002d0 4d 36 48 3d 75 e8 ef 3d c7 ab 78 be 62 83 8b 3c
       0.04887991 0.117142595 -0.24284278 0.017030422
0002e0 81 86 8f bc 11 d4 48 be 8a 09 a8 3e 1c 55 cb bd
       -0.017520191 -0.19612147 0.32819778 -0.09928343
0002f0 8f 97 38 3d ab 34 8e bd cd 3c 0b bd b6 5b 76 bc
       0.045066413 -0.06943639 -0.03399353 -0.015036514
000300 ab 1a ca 3d f9 3d 89 3c 51 a6 84 3e 48 9a 6a bd
       0.09868368 0.016753184 0.2590814 -0.05727604
000310 a2 8f 0d be 39 94 0c be c2 1a 10 be bb 63 05 00
       -0.13824323 -0.13728417 -0.14072707 4.94954e-40
000320 59 20 d2 be ea 80 00 3e 1c 27 8f 3e 40 cd 0c bc
       -0.41040304 0.12549177 0.27959526 -0.008593857
000330 7f 03 f6 3d cc 61 05 00 d1 3f c5 3d 90 d5 4f 3d
       0.120123856 4.9426e-40 0.09631313 0.05074078
000340 58 95 09 3e 53 a0 c3 3e 70 a7 b5 be 94 ff 33 be
       0.13435876 0.38208255 -0.35479307 -0.17577964
000350 85 a8 98 3d 58 8c 3f bc 26 6c 9e be d3 e6 9e bd
       0.074540175 -0.011691175 -0.30941886 -0.0775887
000360 2f b5 ef 3d a3 0f ad 3d 0b 3c 4b be d8 36 f0 3d
       0.1170448 0.08450248 -0.19847123 0.117292106
000370 ed f1 2c 3d 87 ab ea bd a2 fa 15 bd a7 ba b3 3c
       0.042222906 -0.114584975 -0.036615975 0.021939589
000380 6d 30 4d 3d 70 9a 51 be 1d 87 be bd 1f 93 9e bc
       0.05009501 -0.2046907 -0.093031146 -0.019357262
000390 52 96 40 be 3e 65 d2 3e 4a 68 df 3e e8 78 8d bc
       -0.18807343 0.41092867 0.43634254 -0.017269567
0003a0 b0 ff a2 3e c6 a4 7a 3d 77 08 a0 3d 0c a0 05 3d
       0.318357 0.061192296 0.078141145 0.032623336
0003b0 99 8f 3f 3c 86 17 1a be b9 51 3a 3e f9 bd 28 3e
       0.011691951 -0.15048036 0.18195237 0.16478719
0003c0 45 20 b1 3d d5 fc 08 3e 06 80 f7 3d 37 f3 0f be
       0.08648733 0.13377698 0.120849654 -0.14057623
0003d0 e7 4c ad 3b f7 65 a9 be a6 f1 cb bd 89 a8 1d 3f
       0.0052887085 -0.33085606 -0.099582 0.6158529
0003e0 4b fe 72 3e 05 23 a5 be ec bf f8 3d b7 3d 81 bd
       0.23729818 -0.3225328 0.12145981 -0.06310599
0003f0 a2 58 41 bd 6c 7a 4d 3e 61 b0 36 bd 59 0d fa 3d
       -0.047203667 0.20066231 -0.0446018 0.12209577

decoders.0.model.0.bias f4 [8]
000000 90 54 16 3e 92 a2 d0 bd dd de 42 3e 70 ee c3 be
       0.14680696 -0.10187258 0.19030328 -0.3826785
000010 b7 5b c2 bc 33 31 6d 3b a7 bd 0c bf 33 4a c4 be
       -0.023725374 0.0036192655 -0.54976887 -0.3833786

decoders.0.model.2.weight f4 [8, 1, 3, 3]
000000 cb 14 b3 3c fb 47 f7 bc 7e 06 d4 bd bd de 06 be
       0.0218605 -0.03018569 -0.10352801 -0.13170905
000010 0e 9f 0a bf f2 2b d5 be 6b bb a4 be 91 3a 03 bf
       -0.5414895 -0.4163509 -0.3217424 -0.5126124
000020 b5 bf ca be 97 0c 5a bd 46 44 8d be d9 7f 92 be
       -0.39599386 -0.053234663 -0.2759115 -0.28613165
000030 0d b3 68 be 65 1e 56 bf 88 0d 2a bf 10 75 e5 bd
       -0.22724552 -0.8364013 -0.664269 -0.112039685
000040 fa 79 08 bf bd fb 96 be c9 64 da 3d 86 d4 86 bd
       -0.5331112 -0.29488936 0.106637545 -0.065835044
000050 b8 34 74 3d 25 7a 46 bd da 8c d7 be aa 3a 9f be
       0.05962059 -0.04845633 -0.4209965 -0.31099445
000060 13 97 8d be f8 62 da be 18 e2 91 be 83 a3 92 be
       -0.27654323 -0.42653632 -0.28492808 -0.28640375
000070 62 29 a3 bd 16 c4 13 3e 65 e0 ca be 24 22 a0 3d
       -0.079668775 0.1443027 -0.39624324 0.07819012
000080 0e fb f7 3d 9f 20 64 3e 79 85 f6 3e 8a 48 02 3f
       0.12108432 0.22278069 0.48148707 0.50891936
000090 48 66 29 3e d6 a3 8a bd 61 32 e4 bd 5a ca dd bd
       0.16542923 -0.067695305 -0.111424215 -0.10829611
0000a0 82 76 15 bf 70 26 dc be 2c ac 7f be cf ff 12 bf
       -0.58383954 -0.42998075 -0.24968022 -0.5742158
0000b0 d7 11 dc be 5b d7 1d be f3 4f fd bd bb 6e 80 be
       -0.4298236 -0.15414183 -0.12368765 -0.2508448
0000c0 11 c7 7f be 86 7e ec be 28 be e7 be 59 69 82 3c
       -0.24978282 -0.4619028 -0.45262265 0.015919374
0000d0 ca 45 67 be c2 b7 3b be f5 e8 00 3f 32 8c fb 3e
       -0.22585216 -0.18331817 0.50355464 0.49130398
0000e0 10 70 e9 3e e3 da 8c 3d ab dc 88 3e bc 70 83 3e
       0.4559331 0.06877687 0.26730856 0.25671947
0000f0 5e be 92 be c5 ad e9 bd 28 cf 14 bc 61 77 87 be
       -0.28660864 -0.11410097 -0.009082593 -0.26458266
000100 2f f9 33 be e0 e9 65 3c fc 37 a5 3e 06 fc ed 3e
       -0.17575525 0.014032811 0.32269275 0.4648134
000110 ab fe f8 3e 41 e1 5c 3e 0e 30 c1 3e 62 d7 6e 3e
       0.48631796 0.21570303 0.37731975 0.2332435

decoders.0.fc.weight f4 [784, 32]
000000 d0 c9 51 3e b6 d6 26 3e e1 26 48 3e d5 2a 20 3d
       0.20487142 0.16292843 0.19546081 0.039103348
000010 fc 02 b9 bd 78 d4 84 3e 41 b6 1e 3c 14 11 7f bd
       -0.09033772 0.2594335 0.009687007 -0.062272146
000020 07 64 4c 3e e8 70 03 be ff 31 eb be f3 90 2c be
       0.19960032 -0.12836039 -0.45936581 -0.16852169
000030 84 d1 9a 3d 5f 7a 47 3e b0 54 c7 3e 2b f3 3d bd
       0.07559493 0.19480275 0.389318 -0.04637448
000040 90 f2 c4 3c 85 3a 89 3e 9a ec 98 bd 8c 86 1a be
       0.024041444 0.2680246 -0.07467003 -0.15090388
000050 e9 ef 5f bc 1c 8a e2 3c ad 66 c4 3c 20 45 e6 bd
       -0.013668039 0.027653746 0.02397474 -0.11243653
000060 ad 2a 0f be e8 78 8b bd 35 cd 28 be c4 6f 1e bc
       -0.13981123 -0.068101704 -0.1648453 -0.009670202
000070 8f d2 e0 be fe 9e 6e be 5b 8b a6 3d cd 86 8c bd
       -0.43910643 -0.23302838 0.08132049 -0.06861649
000080 18 d3 56 bd 07 ab 6f 3e ad bc 1f 3b 33 ab d2 bd
       -0.05244741 0.23405086 0.0024373934 -0.1028656
000090 36 dd 93 3c 93 69 64 bb 34 7f ff 3b 0c 9f b9 3d
       0.018049818 -0.0034852966 0.007797146 0.09063539
0000a0 52 d8 60 3d 69 45 0a bc 7b 8d 71 3d 36 31 11 bd
       0.0548938 -0.0084394 0.058972817 -0.03544732
0000b0 60 18 f4 3e d6 1c de 3e 04 41 bd 3d b0 09 74 3e
       0.47674847 0.43381375 0.09240916 0.2383182
0000c0 37 dd ab be 01 db fd 3d d4 15 41 be 37 5c 1c 3e
       -0.3356721 0.12395287 -0.18855983 0.15269552
0000d0 04 e5 bf bd 0b 6c 32 3e 0d 48 3e be a6 9a c7 be
       -0.09369853 0.17424028 -0.18582173 -0.38985175
0000e0 07 54 1c be 35 18 19 bd bd a8 95 3e ca 5d a6 be
       -0.15266429 -0.0373766 0.292303 -0.3249343
0000f0 93 96 32 bc 1f dc 63 bc 8b af a4 3d 83 b3 49 bd
       -0.0109001575 -0.013907461 0.08041295 -0.04924346
000100 c9 77 c8 bb c8 81 0c be 41 f9 89 bd ef 61 1e be
       -0.006117795 -0.13721383 -0.067369945 -0.15467046
000110 50 ba 18 3e b3 c0 87 3e 11 14 1e be 05 3c c0 bd
       0.14914823 0.26514205 -0.15437342 -0.09386448
000120 8c 1f 95 3d 25 e9 84 be 86 da 70 bc db b6 5a 3e
       0.07281408 -0.25959125 -0.014700538 0.21358816
000130 19 a4 d8 bd 13 e3 79 3e 1f 10 c8 3b 9b e9 37 3e
       -0.10578174 0.24403028 0.0061054374 0.17960207
000140 36 a2 27 be bb a5 26 3e 2f 51 93 3c 2c b4 aa 3d
       -0.16370472 0.16274159 0.017983047 0.08335146
000150 ac 05 b6 be a1 b3 a7 3e ea a8 33 3e ec 11 00 3e
       -0.35551202 0.32754233 0.17544904 0.12506837
000160 f6 70 2e be a2 9f ce 3d 70 c8 dc 3d 38 c4 8d bd
       -0.17035279 0.10089041 0.10780418 -0.069221914
000170 24 72 1f 3e 69 80 2a be f4 ee 3d be 53 be bf be
       0.15570885 -0.16650547 -0.18548185 -0.37449893
000180 b6 cd 76 3e f6 92 05 3e a7 28 ec bd ec f7 0d 3e
       0.2410191 0.13044342 -0.11531191 0.13864106
000190 9f 2a 34 3e dc 57 02 be f1 d4 6e be ef c5 d1 3d
       0.17594384 -0.12728828 -0.23323418 0.10242831
0001a0 68 8d 22 3e cf f5 89 be 8a 3b a1 be 4f 7b df bd
       0.15874255 -0.2694535 -0.31490737 -0.10912191
0001b0 86 0c 19 be d3 5d 18 3e af cb fe bd 07 72 02 3d
       -0.14946184 0.14879541 -0.12441193 0.031847026
0001c0 e8 8b 67 be ba 60 9e 3e 3f 40 be bd 88 8a fb 3c
       -0.22611964 0.30933172 -0.09289598 0.030705705
0001d0 2b 62 bb bd ef 71 a3 3e 9c 52 a3 3d ac 55 ad be
       -0.091495834 0.31922862 0.07974741 -0.33854425
0001e0 47 45 44 bd 4c 97 1f 3e 80 33 93 bc 1c ab 5e 3e
       -0.04791763 0.15585059 -0.017968893 0.2174496
0001f0 20 79 61 be 60 cc c7 be bc b4 65 3d 01 82 90 bc
       -0.22018862 -0.39023113 0.056080565 -0.017640116
000200 63 2c 26 3c f9 b4 e3 3e 6b 52 eb bd 18 57 0c be
       0.010142419 0.4447401 -0.11490329 -0.13705099
000210 c0 da 19 be 3d 90 81 bd de bc a6 bd 12 db 28 bd
       -0.15024853 -0.063263394 -0.08141492 -0.041224547
000220 c7 69 6a bb 79 ec 82 3c 01 ad 95 be a3 18 c5 bc
       -0.0035768615 0.0159819 -0.29233554 -0.0240596
000230 8a e3 8f be 54 57 4f 3e 4d a9 37 bd 41 2b c0 3e
       -0.28103286 0.20248157 -0.044839192 0.37533
000240 9b 62 d7 bd fb 37 1e 3c 3b eb 14 bd d3 04 40 be
       -0.105168544 0.0096569015 -0.036357146 -0.1875184
000250 66 34 87 be ff b1 ea 3d c8 2f 1a 3e 4f 6a cc 3e
       -0.26407164 0.11459731 0.1505729 0.39924857
000260 d8 51 20 bd ed a2 bb 3c 39 a4 12 3e cb 79 5b 3e
       -0.039140552 0.022904838 0.14320458 0.21433179
000270 44 1a 24 3e 9c d0 cd be c0 38 a3 3e 0c 09 4d be
       0.16025645 -0.4019822 0.31879234 -0.20022982
000280 eb 32 92 bd 8e 5b 9a bd 50 1b 34 3e 9e 5b 1f 3e
       -0.07138618 -0.07536994 0.17588544 0.15562293
000290 33 3b 8b 3d 0d 3e b9 3d d6 e5 b6 3d 6c 08 22 3c
       0.06798401 0.09045038 0.089305565 0.009889703
0002a0 bf 8f a3 3d 2f 3c 9d be 30 c3 de 3d 42 3e 06 be
       0.07986402 -0.3070998 0.10877073 -0.13109687
0002b0 c3 58 e9 be 42 1c 5f be f2 22 a3 3e 68 ac f2 bb
       -0.45575532 -0.21788123 0.318626 -0.0074058063
0002c0 ea 21 ad bd eb f2 ff 3d ea 4d 2e 3e 1b 9b 8f bc
       -0.08453734 0.12497505 0.1702191 -0.017530015
0002d0 4f 6c 1b 3e 39 3c bc bd 33 d6 83 3e 48 83 6a 3d
       0.15178035 -0.09191174 0.2574936 0.057254106
0002e0 8d 9d b0 be 05 bc 55 3d 11 e8 c4 3e a6 7a ae 3d
       -0.34495202 0.052181263 0.38458303 0.08519487
0002f0 cd f7 06 be 35 56 ab be 22 9e 52 3d 86 4d 28 be
       -0.13180466 -0.33464208 0.05142034 -0.16435823
000300 f2 2a 46 3d 26 b5 8d bc b7 a5 3a be bb ea 22 3e
       0.0483808 -0.017298292 -0.18227278 0.15909855
000310 06 be b3 3d 6a e2 37 3d 32 13 57 be ec 1b 75 bd
       0.087764785 0.04489366 -0.21003416 -0.05984108
000320 bf 6a cf bd 7b 13 81 3e 9c c5 85 bd 41 ed 97 3e
       -0.10127782 0.25210175 -0.065318316 0.29673198
000330 32 e2 6c bd 06 99 e6 3d 0f ac 6c 3e fb a3 88 3d
       -0.057832904 0.11259656 0.2311251 0.06671902
000340 aa 26 92 3e d9 90 9c 3e 77 82 94 bd 7a 71 ba bd
       0.28545123 0.3057926 -0.07251447 -0.09103675
000350 40 1d 65 3d 18 51 39 be 84 06 2f be 5d 7c be bd
       0.055936098 -0.18097341 -0.1709233 -0.09301064
000360 b6 8b a0 bd 53 4e 8c 3e 6f b8 fa 3d 2b 65 5e 3e
       -0.07839148 0.27403507 0.12242209 0.2171828
000370 22 28 35 be 82 35 36 3d 44 94 38 3e f4 fb 92 bd
       -0.1769109 0.044484623 0.18025309 -0.071769625
000380 47 1f 2c bd 36 a4 02 3b f5 4c 21 be fc e4 3c 3e
       -0.042022016 0.0019934303 -0.15752013 0.18446726
000390 97 23 a0 3c 57 c3 fb bc 0d aa 5d 3d 78 c0 0a 3e
       0.01954822 -0.030732794 0.05411725 0.13549984
0003a0 bf c5 d4 3b c5 15 ae bb 0a e7 3e 3d 71 b9 de 3d
       0.0064932997 -0.0053126537 0.046607055 0.10875214
0003b0 39 f3 72 bd a2 18 0d bc b3 7f 0d 3d ba 08 63 be
       -0.059313986 -0.00861183 0.03454561 -0.22171298
0003c0 d7 c7 7c 3d 4d b1 dc 3d a1 f9 40 3d bf 0e 14 bd
       0.06171402 0.10776005 0.047113065 -0.036146875
0003d0 04 03 88 be e1 51 bf 3c 68 09 e5 3d 77 8c eb 3d
       -0.265648 0.023354473 0.11183435 0.11501401
0003e0 62 96 04 3c c7 f8 59 3d bd 1a 72 bd 7d 9b 01 be
       0.008092495 0.05321577 -0.05910753 -0.1265697
0003f0 ff 96 34 3e b2 65 83 bd 19 3c 7e b9 70 e6 c1 3d
       0.17635725 -0.06415881 -0.00024245716 0.094677806

decoders.0.fc.bias f4 [784]
000000 fd 78 b2 be 8e b0 3c 3b 52 27 21 3d ab 9a 9d be
       -0.34857932 0.0028791758 0.03934414 -0.30782065
000010 cb ca f1 bd c0 83 89 3d 7a 99 98 be 59 e8 9d bd
       -0.11806258 0.067145824 -0.29804593 -0.077103324
000020 83 30 a0 be e4 fe d9 bd bb 65 c0 be 23 c1 c3 be
       -0.31287012 -0.1064432 -0.37577614 -0.3823329
000030 e3 96 59 be 6d 39 69 3e 58 0f 20 be 6b 67 bf be
       -0.21248965 0.22775812 -0.15630853 -0.3738359
000040 1e c7 87 be 39 9b e5 bc d3 5f c1 be bf 31 13 be
       -0.26519102 -0.028028117 -0.3776842 -0.14374445
000050 65 45 ab 3d 6c dc 24 be 2d 8b db bd d8 f4 67 be
       0.08362845 -0.1609971 -0.10719905 -0.22651994
000060 4a 79 47 3e 8c c3 43 be 56 d9 39 be fd f0 97 3d
       0.19479862 -0.19117564 -0.18149313 0.07419012
000070 c7 42 83 be 13 8a 40 be c9 09 6c 3e a4 40 08 be
       -0.25636885 -0.18802671 0.23050608 -0.13305908
000080 43 a2 df bd 03 e3 25 3f 38 6f 98 be 4d dc 76 be
       -0.10919621 0.6479952 -0.29772353 -0.24107476
000090 93 46 a3 3e b0 a6 4c bd 58 2f 5b be 94 32 15 3d
       0.3188978 -0.049963653 -0.21404779 0.03642519
0000a0 34 7d 85 3e f1 0f fc 3d 4e 71 e4 be 6f 6e 06 be
       0.26072085 0.12307728 -0.44617695 -0.13128065
0000b0 93 c3 04 bd 1a 3f 9b 3e d6 b9 8a 3d 00 d5 82 3e
       -0.032413077 0.3032158 0.06773727 0.2555313
0000c0 7f 7a e2 bd e6 0f dd 3d b9 ce af be ba df bd be
       -0.110585205 0.10794048 -0.34337404 -0.37084752
0000d0 cf ae 3d 3d 8a 68 81 be bf 5d 81 be 99 5d 64 3b
       0.04630929 -0.2527507 -0.25266835 0.0034845828
0000e0 29 05 6f be 57 f2 81 be f2 82 a4 bd 99 c5 0c 3e
       -0.23341812 -0.25380203 -0.08032788 0.13747253
0000f0 0a df 04 be 60 88 b7 3d 3e c3 02 be 19 43 24 3e
       -0.12975708 0.08961558 -0.12769791 0.1604122
000100 2f ea 96 3e cd 4d 42 be 02 68 62 3c 12 d9 17 be
       0.29475543 -0.18974991 0.013818743 -0.148289
000110 fc e8 85 be 87 10 0a 3d da bb a5 bc 78 6f ca be
       -0.26154315 0.033707168 -0.020231176 -0.3953817
000120 e0 9e 44 be f4 b3 87 be 1f 20 9f be 71 56 79 bd
       -0.19201231 -0.2650448 -0.31079194 -0.060873453
000130 5c dc 09 3d 24 97 62 be 54 10 67 bd a6 d9 7f 3e
       0.033657417 -0.22127968 -0.056412056 0.2498537
000140 30 a2 77 3d 8b 31 c1 bd d5 e7 0e be 1a 2e 23 3e
       0.06045741 -0.09433278 -0.13955624 0.15935555
000150 bc 06 91 bd 77 c1 f7 3d 98 65 c2 3e ff 68 46 bc
       -0.070813626 0.12097447 0.37968135 -0.012109994
000160 90 ef 03 bf 72 f7 ad be d4 61 18 3e 22 53 1a 3e
       -0.5153742 -0.33977848 0.14881068 0.15070775
000170 26 8e 50 be 25 99 52 bd 48 7e f3 be ea 37 e2 bd
       -0.20366725 -0.05141558 -0.47557282 -0.11045821
000180 9d 55 0c 3f aa c8 00 3d de 38 c7 3c ab 9d 97 3d
       0.54818135 0.03144137 0.024319109 0.0740312
000190 26 fc 84 3c c4 61 50 3d ed db 2d 3d 03 a5 12 3e
       0.016233515 0.050874487 0.042446066 0.1432076
0001a0 0a c4 ba 3d 10 0e 55 3e 42 d1 34 3e 1a 0b 40 be
       0.09119423 0.20806146 0.1765795 -0.18754235
0001b0 f2 c1 0f 3e 6c 8b a6 3d f8 29 f7 3d fa fa 10 bd
       0.14038828 0.08132061 0.12068552 -0.0353956
0001c0 83 e9 8b bd da be b3 3d 13 d4 6a 3d ba cc f9 bd
       -0.06831648 0.087766364 0.057331156 -0.121972516
0001d0 55 96 a9 3d 7b 98 d0 bd 63 de 37 3e 2e c8 0d 3e
       0.08280627 -0.10185333 0.17955928 0.13845894
0001e0 31 65 c1 3c 5e 3b 21 be 3a 0c 49 3d 2f d8 27 3e
       0.023607822 -0.15745303 0.049083926 0.16391061
0001f0 47 aa d8 bc 85 54 48 3e ca 2e 68 3e e7 01 9a 3e
       -0.026448382 0.19563492 0.22674099 0.30079576
000200 a4 22 33 3c 22 9d 5e bd e9 18 0d 3e 54 ec 85 3e
       0.010933552 -0.054349072 0.13779034 0.26156867
000210 e9 bf ea 3e 4a f9 3f 3e 8e 7d ec bd 53 af 2d 3d
       0.4584954 0.1874744 -0.11547385 0.04240353
000220 f2 85 59 3e 50 87 72 3e 47 a6 05 3d 4f 1a 6e 3e
       0.21242502 0.2368443 0.032629278 0.23252223
000230 86 58 cd 3d 46 af f2 3c 7c 2a 1d 3e ac 97 d9 bc
       0.1002665 0.029624593 0.15348238 -0.02656158
000240 f7 6c e0 3d 37 b3 25 be 91 70 3e 3e 93 96 77 bd
       0.109582834 -0.16181646 0.18597628 -0.060446333
000250 1b 3a af 3d a5 8e c2 bd c7 c3 5c bd cf 22 ac bd
       0.085560046 -0.094998635 -0.053897645 -0.08405077
000260 db ce 86 3d 68 be 40 be 57 b7 13 3e aa d0 5e 3d
       0.06582423 -0.18822634 0.14425407 0.054398216
000270 db df 93 3e df c7 41 be f5 b5 a5 bd b7 41 3e 3e
       0.28881726 -0.18923901 -0.08091346 0.18579756
000280 37 56 72 bd e4 3f ae bd 09 b6 01 be e0 67 02 be
       -0.059164252 -0.0850828 -0.12667097 -0.12734938
000290 ab 01 50 be e0 d7 2c 3e f5 42 af 3d 5c 83 5d bd
       -0.20313136 0.16879225 0.08557693 -0.054080352
0002a0 59 b8 2c 3e b2 7b ed 3d 23 36 19 be 54 2d 20 3e
       0.16867198 0.11595859 -0.14962058 0.15642291
0002b0 06 55 e1 3c 57 cf 4a 3e 37 80 94 bd b2 80 90 3e
       0.027506363 0.19805656 -0.072510175 0.28223187
0002c0 6b ff a3 3e d1 13 80 3e c9 e5 4a 3e 47 13 26 3e
       0.32030806 0.2501512 0.19814219 0.16218291
0002d0 f2 32 f3 3e fd 43 36 3e 95 b1 0a 3e da a3 6c 3e
       0.47499806 0.17799373 0.13544305 0.2310938
0002e0 e1 f1 85 3e 6a dd 25 3e ca c5 29 3c a2 e3 eb 3e
       0.261611 0.16197744 0.010362098 0.46072108
0002f0 7a f5 d6 3e d3 67 a4 bb 7f 40 ac 3d 26 49 32 3e
       0.4198416 -0.0050172596 0.08410739 0.17410716
000300 46 09 11 bd 95 b0 96 3d 81 1e 3e 3e 69 d2 df 3c
       -0.035409234 0.07357899 0.18566324 0.027322011
000310 01 74 a8 be da fd fc 39 c4 a3 db 3d 70 92 63 bc
       -0.32901004 0.0004825432 0.10724595 -0.013889894
000320 17 06 e5 3b 65 3a 57 3e db 26 05 be 0a 07 04 3e
       0.0069892514 0.2101837 -0.13003103 0.1289331
000330 87 64 d2 3d e0 ec 9b 3e 7e 82 a5 bd 3c fc 1a be
       0.1027308 0.3045416 -0.0808153 -0.15135282
000340 5f ff 19 3d 79 73 82 3d 0b de 5e bd 13 3f 51 3d
       0.037597056 0.06369681 -0.054410975 0.051085543
000350 92 8d bf 3c 71 0b f7 bd 2c db 85 be 99 7e 8f 3e
       0.023382936 -0.12062729 -0.26143777 0.28026274
000360 2f 03 32 3e 33 29 7e be 38 90 8e bd 70 13 87 be
       0.17384027 -0.24820404 -0.06961101 -0.26382017
000370 2e 8d dc 3d 04 6c db be 10 be 5a 3e c2 cf 3f bd
       0.107691154 -0.42855847 0.21361566 -0.046828993
000380 00 e3 73 be 64 64 89 bd 8b b5 7d 3e e6 5e 0b be
       -0.23817062 -0.06708601 0.24776284 -0.1361042
000390 88 59 b3 be 2f d6 c3 3e 88 79 5c be 1a 33 33 bd
       -0.35029244 0.38249347 -0.21530735 -0.043749906
0003a0 64 0a 80 3d 97 f6 06 3e 67 b9 6c 3e 9a 81 6a 3e
       0.06251982 0.13180004 0.231176 0.22901002
0003b0 4c 05 09 3f c9 3b 7f 3e 68 32 a1 be e9 c0 d9 bd
       0.5352371 0.2492515 -0.3148377 -0.10632498
0003c0 6e 12 ac 3d ae 68 17 3e b6 1b 00 3f 91 e6 55 be
       0.08401953 0.14786026 0.50042284 -0.20888735
0003d0 1f 9f a9 3e a0 94 ed 3d 18 e9 4e be 79 99 c1 be
       0.33129212 0.116006136 -0.20206106 -0.37812403
0003e0 75 21 3e 3d c2 ed 44 be 08 d7 61 be d3 1e 88 be
       0.046418626 -0.19231322 -0.22054684 -0.26586017
0003f0 54 c8 86 be dd f9 b2 be 72 75 48 be fd 91 42 3d
       -0.26324713 -0.34956256 -0.19576052 0.047502507
