models/model_octminst_2.pth (torch, 563411 bytes, 27 tensors)

weights f4 [4, 784]
0	0x3f790f55	0.9728902
1	0x3f451c82	0.76996624
2	0x3f398cef	0.7248067
3	0x3f34f50a	0.706864
4	0x3f7647b8	0.96203184
5	0x3f5ec351	0.8701678
6	0x3f83c445	1.0294272
7	0x3f6959db	0.91152734
8	0x3f6be488	0.92145586
9	0x3f6f9c6f	0.93598074
10	0x3f9414e8	1.156888
11	0x3f7b5339	0.9817386
12	0x3f54a96e	0.8307103
13	0x3f45885a	0.7716118
14	0x3f8ffd6b	1.1249212
15	0x3f79f473	0.97638625
16	0x3f6f0bad	0.9337719
17	0x3f775929	0.9662042
18	0x3f85e34f	1.0459994
19	0x3f834277	1.0254658
20	0x3f95c7ae	1.1701562
21	0x3f879d36	1.0594852
22	0x3f90764a	1.1286099
23	0x3f8024df	1.0011252
24	0x3f5460f1	0.8296042
25	0x3f5254a1	0.82160383
26	0x3f664ecb	0.8996398
27	0x3f48f087	0.78492016
28	0x3f5142c4	0.817425
29	0x3f21984c	0.6312301
30	0x3f430ee6	0.7619461
31	0x3f1f2123	0.6215994
32	0x3f66dc53	0.9017994
33	0x3f5186b0	0.8184614
34	0x3f567b0b	0.837815
35	0x3f508447	0.8145184
36	0x3f5932e7	0.84843296
37	0x3f56bb4c	0.8387954
38	0x3f5720e3	0.84034556
39	0x3f527a13	0.8221752
40	0x3f3f41c5	0.7470973
41	0x3f46f8d5	0.7772344
42	0x3f8efc88	1.1170816
43	0x3f6a51ef	0.9153127
44	0x3f4236db	0.7586495
45	0x3f2e225e	0.6802119
46	0x3f33038b	0.6992728
47	0x3f159da5	0.5844367
48	0x3f58f443	0.84747714
49	0x3f6292ef	0.8850545
50	0x3f533578	0.8250346
51	0x3f3a2869	0.7271791
52	0x3f2b2d18	0.6686568
53	0x3f231ada	0.6371285
54	0x3f5db4d1	0.8660403
55	0x3f549d0b	0.8305213
56	0x3f0d70a2	0.5524999
57	0x3ef3d420	0.47622776
58	0x3f59e92e	0.8512143
59	0x3f5733c9	0.8406339
60	0x3f763437	0.96173424
61	0x3f4c32d6	0.7976507
62	0x3f51c939	0.81947666
63	0x3f4e09fb	0.8048398
64	0x3f815d84	1.0106664
65	0x3f395beb	0.7240588
66	0x3f6232d7	0.88358825
67	0x3f678980	0.90444183
68	0x3f7ae626	0.9800743
69	0x3f554bc9	0.83318764
70	0x3f96f93b	1.1794809
71	0x3f5b0c2c	0.8556545
72	0x3f5da47e	0.8657912
73	0x3f27ea76	0.65592134
74	0x3f4eadca	0.8073393
75	0x3f4436ce	0.76646125
76	0x3f587038	0.8454623
77	0x3f515c47	0.8178143
78	0x3f5395bb	0.82650346
79	0x3f5e2620	0.86776924
80	0x3f61bf8e	0.88182914
81	0x3f3fab82	0.74871075
82	0x3f2314d9	0.63703686
83	0x3f14f463	0.58185405
84	0x3f1db5c0	0.61605453
85	0x3f086b0c	0.5328834
86	0x3f123e03	0.5712587
87	0x3f0e4eca	0.5558897
88	0x3f0e30be	0.55543125
89	0x3ede6b23	0.43441114
90	0x3edb54ff	0.42838284
91	0x3f07e81c	0.53088546
92	0x3f5b6543	0.8570139
93	0x3f3951b4	0.72390294
94	0x3f5914a0	0.84797096
95	0x3f30c4f6	0.6905054
96	0x3f624ac5	0.8839534
97	0x3f4e94ec	0.80695987
98	0x3f628cca	0.8849608
99	0x3f4df42c	0.804507
100	0x3f63fbfb	0.89056367
101	0x3f27c734	0.65538335
102	0x3f30e36a	0.69097006
103	0x3f0d0317	0.5508284
104	0x3f2416c2	0.64097226
105	0x3f0072c9	0.5017515
106	0x3ef589cc	0.47956693
107	0x3ebe0f24	0.37120926
108	0x3f15a54b	0.5845534
109	0x3ef2a5bc	0.4739207
110	0x3eef91fa	0.4679106
111	0x3eee6832	0.4656387
112	0x3f806065	1.0029417
113	0x3f631977	0.8871073
114	0x3f4e07bd	0.8048056
115	0x3f47f066	0.78101194
116	0x3f59287b	0.84827393
117	0x3f3f561f	0.74740785
118	0x3f381473	0.71906203
119	0x3f1de549	0.61677986
120	0x3f2905ce	0.6602448
121	0x3f407c46	0.75189626
122	0x3f8c1a90	1.0945606
123	0x3f484cd7	0.7824225
124	0x3f3af365	0.7302764
125	0x3f2b8e67	0.67014164
126	0x3f31f356	0.69511926
127	0x3ef866f7	0.48516056
128	0x3f1ac6fd	0.6045988
129	0x3f214043	0.6298868
130	0x3f324d37	0.6964907
131	0x3f2ac96c	0.66713595
132	0x3f2f3c74	0.6845162
133	0x3f33da07	0.7025456
134	0x3f44596d	0.7669895
135	0x3f38dc93	0.7221157
136	0x3f3732f3	0.7156212
137	0x3f355681	0.7083512
138	0x3f3842e6	0.7197708
139	0x3f147988	0.5799794
140	0x3f8cb049	1.0991298
141	0x3f8c9299	1.0982238
142	0x3f624a57	0.88394684
143	0x3f4cad6e	0.7995213
144	0x3f504a5c	0.81363463
145	0x3f3ef0e6	0.7458633
146	0x3f4cec94	0.8004849
147	0x3f351782	0.70738995
148	0x3f4d73a4	0.8025458
149	0x3f4fa897	0.8111662
150	0x3f7fa925	0.9986747
151	0x3f6dbd66	0.92867124
152	0x3f7080a1	0.9394627
153	0x3f7724ca	0.9654051
154	0x3f834753	1.0256141
155	0x3f5c7d1a	0.8612839
156	0x3f32147c	0.69562507
157	0x3f1f2d92	0.6217891
158	0x3f1e5e05	0.6186221
159	0x3f10fee4	0.5663893
160	0x3f11a55d	0.5689295
161	0x3efb9f8f	0.4914517
162	0x3f027fc0	0.5097618
163	0x3edc3b28	0.43013883
164	0x3f568854	0.8380177
165	0x3f512aa3	0.81705683
166	0x3f5da1dc	0.865751
167	0x3f3094c3	0.6897699
168	0x3f5750d1	0.8410769
169	0x3f83e759	1.0304977
170	0x3f86effb	1.0541986
171	0x3f7508ab	0.9571635
172	0x3f59b27f	0.8503799
173	0x3f606db0	0.8766737
174	0x3f67ef69	0.90599686
175	0x3f4c70f7	0.7985987
176	0x3f17aca1	0.59247786
177	0x3f4cc849	0.7999311
178	0x3f7985fc	0.9747007
179	0x3f72ca1a	0.9483963
180	0x3f6ad4a1	0.91730696
181	0x3f752280	0.9575577
182	0x3f8bc896	1.0920589
183	0x3f440b50	0.7657976
184	0x3f4fa501	0.8111115
185	0x3f33256a	0.69978964
186	0x3f571a46	0.84024465
187	0x3f4cb31b	0.79960793
188	0x3f1d9903	0.615616
189	0x3f423553	0.75862616
190	0x3f881129	1.0630237
191	0x3f9702b5	1.1797701
192	0x3f84186a	1.031995
193	0x3f89fa92	1.0779593
194	0x3f8ff213	1.124575
195	0x3f71e0d0	0.9448366
196	0x3f954a04	1.1663213
197	0x3f9dce83	1.2328647
198	0x3face2ef	1.3506755
199	0x3f97faca	1.187341
200	0x3f62acbf	0.8854484
201	0x3f5c5471	0.8606635
202	0x3f467f9c	0.77538466
203	0x3f4e734d	0.80644685
204	0x3f620fdb	0.88305444
205	0x3f6791d3	0.90456885
206	0x3f6d47bf	0.926876
207	0x3f4da0b9	0.8032337
208	0x3f32929b	0.6975495
209	0x3f1ad3ee	0.6047963
210	0x3f3ba519	0.73298794
211	0x3f1f1aa0	0.6215
212	0x3f4c7aa3	0.7987463
213	0x3f560653	0.836034
214	0x3f3eba7f	0.7450332
215	0x3f75eee8	0.96067667
216	0x3f5f9c75	0.8734811
217	0x3f5dd232	0.8664886
218	0x3f736f2d	0.95091516
219	0x3f51c752	0.81944764
220	0x3f5bde29	0.85885864
221	0x3f708f53	0.93968695
222	0x3f81bb9d	1.013538
223	0x3f4d0193	0.8008053
224	0x3f9cf1a4	1.2261243
225	0x3fb807d2	1.4377387
226	0x3fc52a47	1.5403527
227	0x3faf3de0	1.3690758
228	0x3f97b3a4	1.1851697
229	0x3f95b84f	1.1696872
230	0x3fa5fd2d	1.2967888
231	0x3f97dbe7	1.1863984
232	0x3f8076d7	1.0036267
233	0x3f8902a2	1.0703928
234	0x3f8a3136	1.0796268
235	0x3f86e021	1.0537149
236	0x3f8fc2a6	1.1231277
237	0x3f76f3f8	0.96466017
238	0x3f924123	1.1426128
239	0x3f6724e7	0.90290684
240	0x3f8da088	1.1064615
241	0x3fa66347	1.2999047
242	0x3f94c458	1.1622419
243	0x3f800cfe	1.0003965
244	0x3f752217	0.9575514
245	0x3f8eb556	1.1149089
246	0x3f9d3723	1.2282451
247	0x3fb6f165	1.4292418
248	0x3fb2412b	1.3926138
249	0x3fa3e867	1.2805299
250	0x3f6fc9b6	0.9366716
251	0x3ef45b54	0.47725928
252	0x3fa8b6da	1.3180802
253	0x3f8e0e94	1.1098199
254	0x3f8a84cb	1.0821775
255	0x3f7afc4c	0.98041224

encoder.model.0.weight f4 [8, 1, 3, 3]
0	0xbd06ac56	-0.032879196
1	0xbd123c79	-0.035702202
2	0xbd123e2b	-0.03570382
3	0xbd2a9e67	-0.04165497
4	0xbd32ede4	-0.0436839
5	0xbd30af0b	-0.043135684
6	0xbd1fd582	-0.039021976
7	0xbd27a86f	-0.040932115
8	0xbd248b8e	-0.040172152
9	0xbf4cdda4	-0.80025697
10	0x3e120412	0.14259365
11	0x3e31899f	0.17337655
12	0xbe96b34f	-0.29433677
13	0x3f1e3e08	0.618134
14	0x3e0de5f9	0.13857259
15	0x3e62deb6	0.2215527
16	0x3f0bc54f	0.54597944
17	0xbef30771	-0.47466615
18	0xbeaabffd	-0.333496
19	0x3d3127fe	0.04325103
20	0xbf2a43c3	-0.66509646
21	0x3e5d295b	0.21597807
22	0x3ea8df3d	0.32982817
23	0x3ef80e11	0.48448232
24	0xbe5cf20b	-0.21576707
25	0x3dbf574e	0.09342824
26	0xbd833a13	-0.06407561
27	0xbe35b9fb	-0.17746727
28	0xbf673848	-0.90320253
29	0x3f11a8b2	0.56898034
30	0xbe764030	-0.24047923
31	0xbfa7a4bf	-1.3097152
32	0x3f568b79	0.8380657
33	0x3ec71f96	0.38891286
34	0xbf1f1a99	-0.6214996
35	0x3e8f304e	0.2796654
36	0xbd907322	-0.0705321
37	0xbdeee151	-0.116640694
38	0xbd0180fe	-0.031617157
39	0xbece41a3	-0.40284452
40	0xbeac4f94	-0.33654463
41	0xbedc13a5	-0.42983738
42	0x3ee17734	0.44036257
43	0x3ed3a6d7	0.41338226
44	0x3eafec92	0.34360176
45	0x3e13db4d	0.14439125
46	0x3e26c279	0.16285123
47	0x3dec204b	0.11529597
48	0xbe33d51e	-0.17561767
49	0x3d30d104	0.043168083
50	0x3ed6c419	0.41946486
51	0x3e19045f	0.14943074
52	0x3e8f0122	0.27930552
53	0x3ebd3d9a	0.3696106
54	0xbebbeb24	-0.36702836
55	0xbe11e80b	-0.14248674
56	0x3f24d4de	0.6438731
57	0xbee45244	-0.44594014
58	0xbe5c70f5	-0.21527465
59	0x3f9ada93	1.2097954
60	0xbe9285a4	-0.28617585
61	0xbf32aaeb	-0.6979205
62	0x3f5be06f	0.85889333
63	0x3f05a518	0.5220504
64	0x3f005ca3	0.5014135
65	0x3e5c9ef8	0.21545017
66	0xbe0d50b0	-0.13800311
67	0xbef54616	-0.47905034
68	0xbe80cbd3	-0.25155506
69	0x3e54248b	0.20717065
70	0xbe71ccb2	-0.23613241
71	0x3ea45926	0.32099265

encoder.model.0.bias f4 [8]
0	0xbce0d704	-0.027446277
1	0x3bc8a8bf	0.0061236317
2	0x3c16de8d	0.009208334
3	0x3e75dd91	0.24010302
4	0x3c764291	0.015030519
5	0xbe8e5674	-0.27800333
6	0x3bb5fa8e	0.00555355
7	0xbe79dc8a	-0.24400535

encoder.model.2.weight f4 [16, 8, 3, 3]
0	0x00056bf9	4.97911e-40
1	0x0005a639	5.18807e-40
2	0x00056003	4.9362e-40
3	0x800627bd	-5.65268e-40
4	0x800566d7	-4.9607e-40
5	0x8005a137	-5.1701e-40
6	0x80060e86	-5.56223e-40
7	0x80056036	-4.93691e-40
8	0x80056989	-4.97036e-40
9	0x00056f5d	4.99127e-40
10	0x80055d1a	-4.92576e-40
11	0x00055aa2	4.9169e-40
12	0x00055fdf	4.9357e-40
13	0x8005671d	-4.96168e-40
14	0x00055ba5	4.92053e-40
15	0x800565bc	-4.95673e-40
16	0x80055a7d	-4.91639e-40
17	0x800557c0	-4.90656e-40
18	0x80064c45	-5.78373e-40
19	0x00057bf1	5.03639e-40
20	0x80056437	-4.95128e-40
21	0x00056351	4.94805e-40
22	0x80055b39	-4.91902e-40
23	0x80055c77	-4.92348e-40
24	0x80059746	-5.13444e-40
25	0x80057842	-5.02318e-40
26	0x8005f3e0	-5.46663e-40
27	0x00055b74	4.91985e-40
28	0x80055c58	-4.92304e-40
29	0x80055ca9	-4.92418e-40
30	0x0005583e	4.90833e-40
31	0x80055bab	-4.92062e-40
32	0x00055ab1	4.91711e-40
33	0x000562c4	4.94608e-40
34	0x00055f61	4.93393e-40
35	0x80055d68	-4.92685e-40
36	0x0005904b	5.1094e-40
37	0x00055f79	4.93427e-40
38	0x8005917f	-5.11372e-40
39	0x80056ef1	-4.98976e-40
40	0x0006dbec	6.29906e-40
41	0x8005dfbc	-5.39438e-40
42	0x0005638b	4.94887e-40
43	0x800566ed	-4.961e-40
44	0x80055aeb	-4.91793e-40
45	0x00055deb	4.92869e-40
46	0x0005683f	4.96574e-40
47	0x8005642c	-4.95112e-40
48	0x8005601f	-4.93659e-40
49	0x800558de	-4.91057e-40
50	0x00055fdb	4.93564e-40
51	0x000563ae	4.94936e-40
52	0x00056012	4.93641e-40
53	0x000563e6	4.95014e-40
54	0x80055aa3	-4.91692e-40
55	0x000564d2	4.95345e-40
56	0x80055779	-4.90557e-40
57	0x0005588b	4.90941e-40
58	0x80056420	-4.95096e-40
59	0x800560dd	-4.93925e-40
60	0x000558a8	4.90981e-40
61	0x00055b0a	4.91836e-40
62	0x80055c5c	-4.9231e-40
63	0x00056f7d	4.99172e-40
64	0x8005713b	-4.99797e-40
65	0x000579af	5.0283e-40
66	0x8005649e	-4.95272e-40
67	0x80057378	-5.006e-40
68	0x80056bc7	-4.97841e-40
69	0x0005586b	4.90896e-40
70	0x800574f8	-5.01138e-40
71	0x80056124	-4.94025e-40
72	0x3c78e3c1	0.0151910195
73	0x3d0fed77	0.035138573
74	0x3d0d62f2	0.03451819
75	0xbc0af05d	-0.008480159
76	0x3c93c0f4	0.018036343
77	0x3ca69a24	0.020337172
78	0xbc9edfb0	-0.019393772
79	0x3c88b2ba	0.016686786
80	0x3cc4a541	0.02400458
81	0x3e69a128	0.22815382
82	0x3e257b7b	0.16160385
83	0xbed56d00	-0.41684723
84	0x3e0e5d8e	0.13902876
85	0x3e830819	0.25592116
86	0xbe1ff298	-0.15619886
87	0x3c86c078	0.016449198
88	0xbcd64269	-0.026154714
89	0xbec17c51	-0.37790158
90	0x3ec7d7dc	0.39031875
91	0x3e8d8ee4	0.2764808
92	0x3f399bca	0.7250334
93	0xbe3a7528	-0.18208754
94	0xbe5c9b62	-0.21543649
95	0x3c6ad7fb	0.01433372
96	0xbed97e54	-0.42479193
97	0xbf29dd9f	-0.6635379
98	0x3eb2f275	0.34950605
99	0x3f06f5e0	0.52718925
100	0xbe9ef9c0	-0.3104992
101	0x3d028d54	0.031873062
102	0xbc356f8e	-0.01107396
103	0xbf118d59	-0.56856304
104	0xbe25e95c	-0.16202301
105	0xbefa677b	-0.48907074
106	0xbf02c53e	-0.5108222
107	0x3dc3c449	0.09558923
108	0x3e72fdd4	0.2372964
109	0x3e4b1fb8	0.19836318
110	0x3d18de66	0.03732147
111	0xbef4a045	-0.47778526
112	0xbc2fb4fd	-0.010724303
113	0x3e3b602d	0.18298407
114	0xbe381c74	-0.17979604
115	0x3e0b1a2c	0.13584203
116	0xbd0106e1	-0.0315007
117	0xbe3ab7e2	-0.18234208
118	0xbe8cd2a1	-0.27504447
119	0xbe3ecc12	-0.18632534
120	0xbecf79ce	-0.40522617
121	0xbef6e98a	-0.4822505
122	0xbe89e1ab	-0.26929983
123	0xbd43523f	-0.047685858
124	0xbeae6404	-0.3406068
125	0x3d9a7e52	0.07543625
126	0x3e5f20c3	0.21789841
127	0xbdcdf879	-0.10057158
128	0xbf0908da	-0.5352913
129	0x3e424440	0.18971348
130	0xbe1d9a44	-0.15390879
131	0x3daed8d1	0.08537448
132	0x3e3e90ef	0.18609975
133	0xba0eb9ff	-0.00054445857
134	0x3ebb6fc1	0.366087
135	0xbe6c008b	-0.23047082
136	0x3dac4ee4	0.08413485
137	0x3e88fb07	0.2675402
138	0xbe44449d	-0.19166799
139	0x3ede96d1	0.4347444
140	0x3ed38cce	0.41318363
141	0x3c562319	0.013069891
142	0x3ee180ad	0.44043484
143	0x3ec3a00d	0.38208047
144	0x8006a144	-6.08864e-40
145	0x0005789b	5.02443e-40
146	0x80057576	-5.01315e-40
147	0x80055fa4	-4.93487e-40
148	0x80057aa6	-5.03175e-40
149	0x80057d99	-5.04233e-40
150	0x8005b07c	-5.22488e-40
151	0x8005e046	-5.39632e-40
152	0x8005c66f	-5.30362e-40
153	0xb9e71609	-0.0004407617
154	0xbb1c9ca1	-0.002389707
155	0xba286166	-0.0006423205
156	0xbbf9ce41	-0.0076234643
157	0xbc322238	-0.010872416
158	0xbc24ad71	-0.010051117
159	0xba0c60fe	-0.0005355029
160	0xbb201912	-0.0024429006
161	0xba803fd5	-0.0009784648
162	0xb2400fbe	-1.117945e-08
163	0xb54a2c0c	-7.531496e-07
164	0xb40c70be	-1.3079531e-07
165	0xbc3b4d0e	-0.0114319455
166	0xbc4f13a1	-0.012638957
167	0xbc5a836e	-0.013336999
168	0xb2338444	-1.0449245e-08
169	0xb445688e	-1.8385091e-07
170	0xb31385f8	-3.434795e-08
171	0xbbf41d93	-0.0074498146
172	0xbc0ec85f	-0.008714764
173	0xbc0da01c	-0.00864413
174	0xbc1cacc4	-0.009562675
175	0xbc389c82	-0.011267783
176	0xbc33ff90	-0.010986224
177	0xbc432c41	-0.011912406
178	0xbc5a1617	-0.013310931
179	0xbc58b6ae	-0.013227148
180	0xb529ef7f	-6.330592e-07
181	0xb5d01e56	-1.5506037e-06
182	0xb65659a3	-3.194066e-06
183	0x9e2faf63	-9.300692e-21
184	0x247fcc0c	5.5467145e-17
185	0xa7ae871c	-4.8441187e-15
186	0xba01bdfb	-0.0004949269
187	0xba4ab65f	-0.0007732864
188	0xba8074f8	-0.0009800484
189	0xba4aa9db	-0.0007730999
190	0xbac59c33	-0.0015076458
191	0xbaf7f9cb	-0.0018919049
192	0xbaef7a93	-0.0018270783
193	0xbb521ca7	-0.0032060535
194	0xbba468eb	-0.00501739
195	0xb399a3c5	-7.154407e-08
196	0xb6fbc755	-7.503588e-06
197	0xb8974c26	-7.214425e-05
198	0xbbdb99e6	-0.0067016957
199	0xbc2c1cda	-0.010504926
200	0xbc068bcc	-0.008212041
201	0xbc4ad58c	-0.012380015
202	0xbc77090b	-0.01507784
203	0xbc65688e	-0.014001979
204	0xbbac276e	-0.005253724
205	0xbc136998	-0.0089973435
206	0xbbecbccf	-0.007224656
207	0xb81d5703	-3.7512753e-05
208	0xb97ed378	-0.00024302106
209	0xba6e90e1	-0.0009100568
210	0x1e72b429	1.28486296e-20
211	0x9e2d9e69	-9.191302e-21
212	0x9f05f623	-2.8367445e-20
213	0xb74db8fa	-1.226202e-05
214	0xb9303b63	-0.00016806791
215	0xba366ab3	-0.00069586484
216	0x3b3fa93b	0.0029245156
217	0xbc3dfcc8	-0.011595912
218	0xbc982ed2	-0.018577013
219	0x3c5dab1b	0.013529564
220	0x3b9f6cec	0.0048652794
221	0x3ac4025a	0.0014954314
222	0x3c52e1a8	0.012871183
223	0x3c576e82	0.013148906
224	0x3c824cff	0.015905855
225	0x3d0988b9	0.033577655
226	0x3e58e241	0.21180059
227	0xbec9de1f	-0.39427277
228	0x3d9877ce	0.07444726
229	0x3ea2641b	0.31717
230	0x3e0f3202	0.1398392
231	0x3be67f69	0.0070342314
232	0xbea1750e	-0.31534618
233	0xbd5ce564	-0.0539297
234	0xbf0f1dd3	-0.55904883
235	0xbf09f960	-0.5389614
236	0xbfd1bd0f	-1.6385821
237	0xbf2e79b1	-0.68154436
238	0x3e78b015	0.2428592
239	0x3c87bfeb	0.016571006
240	0x3d18ac2e	0.03727358
241	0xbe4b9f6d	-0.19885035
242	0xbef2f7e9	-0.47454765
243	0x3ef0c27c	0.4702338
244	0x3de02442	0.10944416
245	0x3d94c056	0.07263248
246	0xbd85ef84	-0.065398246
247	0xbe80f25c	-0.25184906
248	0xbec5ace9	-0.38608482
249	0xbe96b23b	-0.29432854
250	0xbe86f91b	-0.26361927
251	0xbdeb1156	-0.11477916
252	0x3e94752d	0.28995648
253	0x3ed9fa06	0.42573565
254	0x3b9d0c56	0.0047927303
255	0x3ea5f187	0.32410833

encoder.model.2.bias f4 [16]
0	0xb057b279	-7.847017e-10
1	0x3e806154	0.25074255
2	0xbcdc2b00	-0.026875973
3	0x3dd8469b	0.10560342
4	0x3c154e11	0.009112851
5	0x3e458dee	0.19292423
6	0x3de7ded5	0.11321799
7	0x3e2e3e48	0.17015946
8	0x3d946c9a	0.072472766
9	0xbcd78c0e	-0.0263119
10	0x3da06b2d	0.07832942
11	0x3ddac2e0	0.10681701
12	0x3d4c065f	0.049810763
13	0xbd5cba49	-0.053888593
14	0x3dbff0f9	0.09372134
15	0xbda94064	-0.08264235

encoder.fc.weight f4 [32, 784]
0	0x8005eadf	-5.43433e-40
1	0x8005617b	-4.94147e-40
2	0x80055c86	-4.92369e-40
3	0x80055d85	-4.92726e-40
4	0x80056325	-4.94744e-40
5	0x80055a26	-4.91517e-40
6	0x800557ee	-4.90721e-40
7	0x80056256	-4.94454e-40
8	0x800566cf	-4.96058e-40
9	0x8005667d	-4.95943e-40
10	0x80055b69	-4.91969e-40
11	0x8005592b	-4.91165e-40
12	0x0005647e	4.95227e-40
13	0x00055c1f	4.92224e-40
14	0x800561bc	-4.94238e-40
15	0x00055f40	4.93347e-40
16	0x8005f672	-5.47585e-40
17	0x80055ba5	-4.92053e-40
18	0x80055dde	-4.9285e-40
19	0x80056093	-4.93822e-40
20	0x8005bdbb	-5.2724e-40
21	0x800564d9	-4.95355e-40
22	0x00055e70	4.93055e-40
23	0x80055da7	-4.92774e-40
24	0x80056fd5	-4.99295e-40
25	0x000562b9	4.94592e-40
26	0x00055a8d	4.91661e-40
27	0x0005625e	4.94465e-40
28	0x80056596	-4.9562e-40
29	0x80055e12	-4.92924e-40
30	0x00055cb3	4.92432e-40
31	0x80056390	-4.94894e-40
32	0x80056e3a	-4.9872e-40
33	0x00057731	5.01935e-40
34	0x8005750c	-5.01166e-40
35	0x800572b5	-5.00327e-40
36	0x80057ae0	-5.03257e-40
37	0x8005663a	-4.9585e-40
38	0x000578d3	5.02521e-40
39	0x80056cd6	-4.9822e-40
40	0x80057b6a	-5.0345e-40
41	0x000566d1	4.96061e-40
42	0x000557d2	4.90681e-40
43	0x00055869	4.90893e-40
44	0x000573a2	5.00659e-40
45	0x80055a60	-4.91598e-40
46	0x0005711b	4.99752e-40
47	0x00056ec8	4.98918e-40
48	0x0005ae71	5.21755e-40
49	0xbeac9fe8	-0.3371575
50	0xbca5d4ab	-0.02024301
51	0xbe89dffd	-0.26928702
52	0xbe481dcb	-0.19542615
53	0xbda2d892	-0.07951464
54	0xbeb9d503	-0.36295328
55	0x3e4a8ef3	0.19781093
56	0xbc5f6cb2	-0.013636755
57	0xbe09d1f2	-0.13458994
58	0xbe13ff96	-0.14452967
59	0x3e8223f1	0.25418046
60	0xbd9935d8	-0.07480973
61	0x3da9700d	0.08273325
62	0xbc77e99e	-0.015131382
63	0xbde9f7f5	-0.11424247
64	0xbd45cc43	-0.048290502
65	0xbdb6fe96	-0.08935277
66	0x3ee9132e	0.45522445
67	0x3e6bee72	0.23040178
68	0xbe0e7832	-0.13913038
69	0xbe1bbccb	-0.15208738
70	0xbea603a7	-0.32424662
71	0xbcbf062a	-0.023318369
72	0xbdaadd45	-0.08342985
73	0xbda2c03f	-0.07946824
74	0x3d138a2d	0.036020447
75	0xbdb39c99	-0.08770103
76	0xbed213db	-0.41030774
77	0x3ea1c6a5	0.31596866
78	0xbccc3e5a	-0.024932075
79	0xbd1c2e38	-0.038130015
80	0xbedb32fb	-0.42812333
81	0xbeb662e8	-0.35622334
82	0xbe416c7b	-0.18889038
83	0x3ea34f5e	0.3189649
84	0xbdcb0be2	-0.09914376
85	0x3e153d1c	0.14574093
86	0xbd0f2961	-0.03495157
87	0xbe353e95	-0.17699654
88	0x3e9f1ca6	0.31076545
89	0x3e683117	0.22674976
90	0xbdc03070	-0.09384239
91	0x3d44e634	0.0480711
92	0x3cf5f7cb	0.030025383
93	0x3eb2374e	0.3480782
94	0x3ec5f188	0.38660836
95	0xbe9162ec	-0.28395784
96	0x3c9cb957	0.019131346
97	0xbe968ecb	-0.29405817
98	0xb8bfaba2	-9.139559e-05
99	0xb4186a93	-1.4194875e-07
100	0x9d98d63e	-4.0455586e-21
101	0x35039639	4.9019906e-07
102	0x38801c19	6.108749e-05
103	0x392d1ddf	0.00016509694
104	0x390e2c49	0.00013558673
105	0xb856957a	-5.1160787e-05
106	0xb806bbc0	-3.2122945e-05
107	0xb814f4ef	-3.5514062e-05
108	0xb88d3aa8	-6.7343295e-05
109	0xb7c24b71	-2.3161732e-05
110	0xb8888bb9	-6.511011e-05
111	0xb98edb82	-0.00027247897
112	0xb6caee3f	-6.0478046e-06
113	0xb9a5b14e	-0.00031603355
114	0xb9a1ef55	-0.0003088663
115	0xb80e2983	-3.38941e-05
116	0xb91e63c2	-0.00015105217
117	0xb889ccfe	-6.570852e-05
118	0xb8018f54	-3.088948e-05
119	0xbb23cd5b	-0.0024994228
120	0xbb2fb1aa	-0.0026808777
121	0xbb47eaed	-0.0030505017
122	0xbb0167b7	-0.0019745657
123	0xbb3d77d0	-0.0028910525
124	0xbb58154c	-0.0032971678
125	0xbb680935	-0.0035405878
126	0xb9ff7a69	-0.00048728593
127	0xb6ddecdf	-6.6138887e-06
128	0xb7e12fc2	-2.684433e-05
129	0xb8e4bcb1	-0.00010907034
130	0xb9fe3720	-0.00048487727
131	0xba7fbb54	-0.0009755392
132	0xba2f71fb	-0.00066927046
133	0xb90ad5aa	-0.00013240302
134	0xb6b30652	-5.3353515e-06
135	0xb5b5b216	-1.3537381e-06
136	0xb4a24f89	-3.023272e-07
137	0xb4dc4140	-4.102567e-07
138	0xb5a2bd02	-1.2124949e-06
139	0xb6b654b3	-5.433883e-06
140	0xbabc1d4e	-0.0014351995
141	0xbae5def6	-0.0017537761
142	0xbacdf6af	-0.0015713776
143	0xbae31da2	-0.0017327557
144	0xbacd682b	-0.0015671303
145	0xbaf85db6	-0.0018948826
146	0xbb086a78	-0.0020815413
147	0xbdc5d129	-0.09659035
148	0xbe00075f	-0.12502812
149	0x3d992582	0.07477857
150	0x3e000dfc	0.12505335
151	0x3d7666be	0.060156576
152	0x3d06a414	0.03287132
153	0xbdec0b8a	-0.115256384
154	0xbe2fcbdc	-0.1716761
155	0xbead9662	-0.33903795
156	0xbe8c1791	-0.2736173
157	0x3e163e4d	0.14672203
158	0xbe215344	-0.1575442
159	0x3ef07375	0.46963087
160	0xbcc3d622	-0.023905817
161	0xbdeacf02	-0.11465265
162	0xbe1286e5	-0.1430927
163	0x3db95e5f	0.09051203
164	0x3d241cdb	0.04006658
165	0xbd97b1f2	-0.07406987
166	0x3d5ddd7d	0.054166306
167	0xbdba9cb0	-0.09111917
168	0x3e08705b	0.1332411
169	0x3d467cc6	0.048458837
170	0xbe2a16b3	-0.16610222
171	0xbf242974	-0.6412575
172	0x3ec10ac3	0.37703523
173	0x3ea16d7a	0.31528836
174	0x3e73067c	0.23732942
175	0x3df16732	0.11787261
176	0x3ce9b069	0.028526502
177	0xba8fdb61	-0.0010975414
178	0x3e5b3ab0	0.21409106
179	0x3f12db65	0.5736602
180	0xbe8829dc	-0.26594436
181	0xbef319c8	-0.47480607
182	0xbd02c1e3	-0.031923186
183	0xbb0b91de	-0.002129666
184	0xbf03845b	-0.51373833
185	0xbe5fa929	-0.21841873
186	0x3e3494a5	0.17634828
187	0xbdf573eb	-0.11985
188	0x3f17fa9e	0.59366786
189	0x3e987aca	0.2978118
190	0xbe33ed2f	-0.17570947
191	0x3e58ab71	0.2115915
192	0x3eca8218	0.3955238
193	0x3ed1b6ea	0.40959865
194	0x3ec46ff9	0.38366678
195	0xbe4139bb	-0.18869679
196	0x3e83ecf2	0.25766712
197	0x3e76514e	0.24054453
198	0x3e84d74f	0.25945517
199	0xbe3e5ff4	-0.1859129
200	0x3e64e08e	0.22351286
201	0xbdfceacf	-0.12349474
202	0x3ea9944c	0.33120954
203	0x3eaee58f	0.34159514
204	0x3da3a4e0	0.07990432
205	0x3d0bce0f	0.03413206
206	0x3e33f46a	0.17573705
207	0x3eb06325	0.3445064
208	0x3e474922	0.19461492
209	0x3f1eb0f0	0.61988735
210	0x3eb95b51	0.3620248
211	0xbe2e543a	-0.17024317
212	0xbcf0b3e5	-0.029382655
213	0xbf221797	-0.63317245
214	0x3da52af3	0.080648325
215	0xbe93879b	-0.28814396
216	0x3f2a04cb	0.66413563
217	0x3e4d4d5c	0.20049042
218	0xbe9a9189	-0.3018916
219	0xbe807112	-0.25086266
220	0xbed1c3ca	-0.40969688
221	0xbca02b92	-0.019552026
222	0xbdb19bce	-0.086722955
223	0x3f1d110b	0.6135413
224	0x3e01998c	0.1265623
225	0xbf2a2d92	-0.66475785
226	0xbf43fb2e	-0.76555145
227	0xbe83fba5	-0.25777927
228	0xbe0b7d2e	-0.13621971
229	0xbd41a279	-0.047274087
230	0x3f9a309a	1.2046082
231	0x3dea28e9	0.11433584
232	0xbed7af6b	-0.4212602
233	0xbe9906f3	-0.29888114
234	0x3eb1469f	0.34624192
235	0xbee56ab7	-0.4480798
236	0xbdaf7061	-0.085663565
237	0x3f2020bd	0.62549955
238	0xbe92179d	-0.2853364
239	0x3e11278e	0.14175245
240	0xbe30120d	-0.17194386
241	0x3d98edf9	0.07467265
242	0xbe23beaf	-0.15990709
243	0xbe8517f7	-0.25994846
244	0x3ef00e32	0.4688583
245	0xbe9cd9d6	-0.30634946
246	0xbd2b8057	-0.04187044
247	0xbe2ce2c5	-0.1688338
248	0xbea655a1	-0.32487205
249	0x3dfc790a	0.12327774
250	0xbe1a807b	-0.15088074
251	0x3dcd3e02	0.10021593
252	0x3ce5886d	0.028019154
253	0xbc976226	-0.018479418
254	0xbe322708	-0.17397702
255	0x3f21f0bd	0.6325796

encoder.fc.bias f4 [32]
0	0xbce2d3af	-0.02768883
1	0x3d8017ab	0.06254514
2	0x3bc17e39	0.0059049395
3	0xbd043f0d	-0.032286692
4	0x3ca4444f	0.020052103
5	0x3d952ea2	0.07284285
6	0xbce11a49	-0.027478354
7	0x3dcd95de	0.100383505
8	0xbdfb32db	-0.12265559
9	0xbd8fcbaf	-0.070212714
10	0xbe096ad2	-0.13419655
11	0xbc45b79d	-0.012067703
12	0xbd3b646b	-0.045750063
13	0x3da6853b	0.081308804
14	0x3d101ac6	0.035181783
15	0x3e43c749	0.1911899
16	0xbd3f7ffc	-0.046752915
17	0xbe0216d5	-0.12704022
18	0x3d94f711	0.07273687
19	0x3ce7e471	0.028307172
20	0x3d86c387	0.06580263
21	0xbddafbab	-0.10692533
22	0x3ce0e1da	0.027451444
23	0x3dc63e0d	0.09679804
24	0xbc67f640	-0.014157832
25	0x3bf26b85	0.0073980712
26	0x3c56580a	0.013082514
27	0xbddaec6c	-0.10689625
28	0x3e03b9c4	0.12863833
29	0x3d6e2bc2	0.0581472
30	0x3d3423d7	0.043979492
31	0xbe32ae75	-0.17449363

decoders.0.model.0.weight f4 [16, 8, 3, 3]
0	0x3f0f45d0	0.559659
1	0x3f0767cf	0.52892774
2	0x3ec36774	0.38164866
3	0x3d4e5527	0.050374176
4	0xbe89481e	-0.26812834
5	0xbe505171	-0.20343567
6	0xbed6e132	-0.41968685
7	0x3e5dc183	0.2165585
8	0x3c7c0f5f	0.015384524
9	0x3e621cda	0.22081318
10	0x3c8f02cb	0.017457386
11	0x3d9405a0	0.072276354
12	0x3d7123d6	0.058872066
13	0xbb19bdad	-0.0023459003
14	0x3d1f819d	0.03894197
15	0xbeac7fe1	-0.33691314
16	0xbccb2974	-0.02480004
17	0xbd281a49	-0.041040692
18	0xbd409b8c	-0.04702334
19	0x3e39000c	0.18066424
20	0xbe83d800	-0.25750732
21	0xbc1a0772	-0.009401189
22	0x3e87a47c	0.2649268
23	0xbeafb9ae	-0.3432135
24	0xbd988754	-0.07447687
25	0x3e97959c	0.2960633
26	0x3e0aadf3	0.13542919
27	0x3e279e77	0.16369043
28	0x3ed24a41	0.41072276
29	0x3dbc1514	0.09183708
30	0x3e0d75a5	0.13814409
31	0xbe57361f	-0.2101674
32	0x3d71c792	0.059028216
33	0x3d361a6a	0.044458784
34	0xbe1dee09	-0.15422834
35	0xbe6ef04e	-0.23333856
36	0x3ddd3cbf	0.10802602
37	0xbedc1978	-0.4298818
38	0x3e6bb4ef	0.2301824
39	0xbe1824ea	-0.14857832
40	0x3d1a8835	0.037727553
41	0xbe823ea9	-0.2543843
42	0xbeb8bd6f	-0.36082026
43	0xbec720d5	-0.38892236
44	0x3ebf7e08	0.37400842
45	0x3d8fb01b	0.07016011
46	0x3eb4e052	0.35327393
47	0x3da9e90b	0.082964025
48	0xbe0b08f2	-0.13577631
49	0xbf16df2d	-0.5893429
50	0xbeba4a37	-0.36384746
51	0x3ef1ecab	0.47250876
52	0x3f1776cb	0.5916564
53	0xbed25200	-0.41078186
54	0x3dd336d7	0.10313194
55	0xbd085aca	-0.03328971
56	0x3e641571	0.22273804
57	0x3d1c6e35	0.03819104
58	0x3e4a9479	0.197832
59	0xbe7103b2	-0.23536566
60	0x3e39428a	0.18091789
61	0xbd60a964	-0.054849043
62	0xbe70ba27	-0.23508511
63	0x3e8e846b	0.27835402
64	0xbc86b909	-0.016445654
65	0xbdae3d90	-0.08507836
66	0x3d00c9ea	0.03144256
67	0x3e39adfc	0.18132776
68	0xbe093bac	-0.1340167
69	0xbbd233ef	-0.0064148824
70	0x3eccb61a	0.39982682
71	0x3efc690a	0.49298888
72	0x3e895bee	0.2682795
73	0xbe84fc0a	-0.2597354
74	0xbe7719ef	-0.24130987
75	0x3e991ac7	0.29903242
76	0xbf5d5d0c	-0.86470103
77	0xbd630dc5	-0.055433054
78	0xbf2bbce1	-0.6708508
79	0xbf06c34b	-0.52641743
80	0xbf175087	-0.5910725
81	0x3c2f4174	0.010696758
82	0xbd89a539	-0.06720967
83	0xbe9dfcec	-0.30857027
84	0x3dff3536	0.12461321
85	0x3da9ad0c	0.08284959
86	0xbe7a8214	-0.24463683
87	0x3e6e1157	0.23248802
88	0xbb26d4fa	-0.0025456534
89	0x3cd4c444	0.025972493
90	0xbe1e7932	-0.1547592
91	0xbe33a796	-0.17544398
92	0xbe816c62	-0.25278002
93	0x3ddc522f	0.10757863
94	0xbe82f0a9	-0.25574234
95	0xbe7bc8b8	-0.24588287
96	0xbe010e09	-0.1260301
97	0x3e560235	0.2089928
98	0x3e34b463	0.17646937
99	0xbe72197d	-0.23642536
100	0xbd832232	-0.064030066
101	0xbea4bcd0	-0.32175303
102	0xbdc438f8	-0.095811784
103	0xbec95150	-0.3931985
104	0xbe91412e	-0.2837004
105	0xbebaa19e	-0.3645143
106	0xbdbda1ac	-0.09259352
107	0xbdc5b2b5	-0.09653226
108	0xbdcf2a64	-0.10115507
109	0xbee3d060	-0.44494915
110	0xbecea161	-0.40357497
111	0xbe5f3210	-0.21796441
112	0x3f0ffc02	0.5624391
113	0xbe058df2	-0.13042429
114	0x3e638364	0.2221809
115	0x3ec7a7ed	0.38995305
116	0x3e425404	0.18977362
117	0xbe99c0a2	-0.3002978
118	0x3c8cc998	0.017185971
119	0x3e93df18	0.28881145
120	0xbd7156f1	-0.058920804
121	0x3da30620	0.079601526
122	0x3dde3016	0.108490154
123	0xbddb02a8	-0.10693866
124	0xbeaaa0a5	-0.33325687
125	0x3ebc3dea	0.36765987
126	0xbea9584d	-0.3307518
127	0x3e9062bd	0.2820033
128	0xbddf8e43	-0.10915806
129	0x3eb1b680	0.3470955
130	0xbb4c0f8b	-0.0031137194
131	0xbe4b7437	-0.19868551
132	0x3e1b461a	0.1516346
133	0xbec5e339	-0.3864992
134	0x3d9c2584	0.07624343
135	0xbd89116e	-0.066927776
136	0x3d14f2a7	0.036364224
137	0xbecf27d1	-0.40460065
138	0xbd18cd8a	-0.037305392
139	0xbe4f6497	-0.20253216
140	0xbee30add	-0.44344226
141	0x3e89eab2	0.2693687
142	0xbe3c4faf	-0.18389772
143	0xbd9962f1	-0.07489575
144	0x3e4a41dc	0.19751686
145	0xbc0de92f	-0.008661552
146	0xbdb2f9e3	-0.08739068
147	0x3cb523d3	0.022111809
148	0xbd6193bb	-0.055072527
149	0xbe1b622a	-0.15174165
150	0x3e54054b	0.20705144
151	0x3f014e35	0.5050996
152	0x3e9ba7e3	0.30401525
153	0xbe25b519	-0.16182365
154	0x374a53cc	1.2059649e-05
155	0xbeba38f9	-0.36371592
156	0x3e2456e6	0.16048774
157	0x3cbb8d66	0.022894572
158	0xbddc45cc	-0.107555
159	0x3d814c66	0.063134
160	0x3e87b594	0.2650572
161	0x3deb906e	0.11502157
162	0xbe2d1685	-0.16903122
163	0xbc85643d	-0.016283149
164	0x3e87a838	0.26495528
165	0xbe518a16	-0.20462832
166	0xbe781085	-0.24225052
167	0xbd389779	-0.04506633
168	0xbdd86a68	-0.105671704
169	0xbe400b3f	-0.1875429
170	0xbe4c7989	-0.19968237
171	0x3e503d97	0.20335995
172	0xbee592a8	-0.44838452
173	0xbe12c5cd	-0.14333268
174	0x3d3b843e	0.045780413
175	0x3e775ee5	0.24157293
176	0xbee40d19	-0.44541243
177	0x3e1eebe1	0.15519668
178	0x3e8c8d39	0.27451494
179	0xbd8ecb8a	-0.06972416
180	0x3edd1c45	0.4318563
181	0x3ed8d22a	0.42347842
182	0xbe85d520	-0.26139164
183	0xbea7646b	-0.326938
184	0x3e229a4e	0.15879175
185	0x3ef090ac	0.46985376
186	0x3e87fe6c	0.26561296
187	0x3e1642be	0.14673898
188	0x3e8c3071	0.27380708
189	0xbe507b83	-0.20359616
190	0xbe8e5e8b	-0.27806506
191	0x3e00a2f7	0.12562166
192	0x3ec15702	0.37761694
193	0xbefb937d	-0.49135962
194	0xbf072cc7	-0.528027
195	0xbe85fca8	-0.26169324
196	0xbf022456	-0.50836694
197	0x3c6399ec	0.013891678
198	0xbda8988e	-0.082322225
199	0x3efc32fe	0.49257654
200	0xbe20e190	-0.15711045
201	0xbe871e35	-0.26390234
202	0x3f4538d8	0.7703986
203	0x3d877566	0.06614189
204	0x3e9a8291	0.3017774
205	0xbdb505e9	-0.08839018
206	0x3d10cab1	0.03534955
207	0xbd17f84f	-0.03710204
208	0xbdfe747f	-0.124245636
209	0x3de3b71a	0.11118908
210	0xbe8299d5	-0.2550799
211	0xbe164c0f	-0.14677452
212	0xbdb80113	-0.0898458
213	0xbdd88206	-0.10571675
214	0xbe2b6e9b	-0.16741411
215	0xbe3c289d	-0.18374868
216	0x3e7b5deb	0.24547546
217	0x3d72eabe	0.0593059
218	0xbc8d87fd	-0.017276758
219	0x3d15f103	0.0366068
220	0xbe26ad4f	-0.1627705
221	0xbd1d2baf	-0.038371738
222	0x3c2abd2e	0.0104210805
223	0xbeb0ed3e	-0.34556
224	0xbe90f5a4	-0.2831241
225	0x3d98d416	0.07462327
226	0x3e9ce1d0	0.3064103
227	0xbcc99fc0	-0.024612308
228	0xbe277ca6	-0.16356143
229	0x3e831755	0.25603738
230	0x3ea6ab14	0.32552397
231	0x3ae85b50	0.0017727409
232	0x3e68a8f9	0.22720708
233	0xbdb02c4d	-0.086022
234	0x3d2bb72f	0.041922744
235	0x3e27f689	0.1640264
236	0x3dbd3527	0.09238654
237	0x3e0dafdc	0.13836616
238	0x3e4ae2ce	0.19813082
239	0x3e014dce	0.12627336
240	0x3e542132	0.20715788
241	0x3e36efc0	0.17864895
242	0x3e8dfab0	0.27730322
243	0x3e13b7e5	0.14425619
244	0x3e168810	0.14700341
245	0xbd713729	-0.058890495
246	0xbdabe2d5	-0.08392874
247	0x3ec1cac0	0.37849998
248	0xbba9cba8	-0.0051817484
249	0x3cc2af67	0.023765279
250	0x3d715276	0.05891653
251	0x3e9a417c	0.30128086
252	0xbdb028c4	-0.086015254
253	0x3d789d84	0.060697094
254	0xbcf42999	-0.029804992
255	0xbe82a48a	-0.25516158

decoders.0.model.0.bias f4 [8]
0	0x3d30b382	0.043139942
1	0xbe68d5f4	-0.22737867
2	0xbed8b7dd	-0.42327777
3	0xbef2a7ac	-0.47393548
4	0x3da9f548	0.08298737
5	0xbe0d2680	-0.13784218
6	0xbeae9836	-0.34100503
7	0xbe880cbf	-0.26572224

decoders.0.model.2.weight f4 [8, 1, 3, 3]
0	0xbe088c8b	-0.13334863
1	0xbf0342d6	-0.5127386
2	0xbeafd157	-0.343394
3	0xbede4823	-0.4341441
4	0xbf6a41eb	-0.9150683
5	0xbf106e02	-0.5641786
6	0xbe7fff03	-0.24999623
7	0xbefc13ab	-0.49233755
8	0xbea50212	-0.32228142
9	0x3e24cfc4	0.16094881
10	0x3e8cb6f2	0.27483326
11	0x3e41bf78	0.18920696
12	0x3e760332	0.24024656
13	0x3f045efb	0.5170743
14	0x3ed82d53	0.4222208
15	0xbd7dfcff	-0.062008854
16	0x3d1e7aa5	0.03869118
17	0x3df67750	0.12034476
18	0xbd9b403a	-0.075806096
19	0x3e1007ed	0.14065523
20	0xbdacc614	-0.08436218
21	0x3e8a833d	0.27053252
22	0x3ee7b50c	0.45255315
23	0x3e5519e1	0.20810653
24	0x3e3f5df9	0.18688191
25	0x3e9702ec	0.29494417
26	0x3e65d75e	0.22445437
27	0x3e0989e8	0.13431513
28	0x3e8ecbca	0.27889854
29	0x3e8c2081	0.2736855
30	0x3eb87635	0.36027685
31	0x3ef82b0b	0.4847034
32	0x3ec95aee	0.39327186
33	0x3ed20fa7	0.41027567
34	0x3f2e22bd	0.68021756
35	0x3f118161	0.5683804
36	0xbd20b3d0	-0.039233983
37	0xbe605079	-0.21905698
38	0xbe31e80b	-0.17373674
39	0xbedc81da	-0.4306782
40	0xbf72247b	-0.94586915
41	0xbf288e66	-0.6584228
42	0xbe18728d	-0.14887448
43	0xbed3767f	-0.41301343
44	0xbe99735a	-0.2997082
45	0xbc614488	-0.013749249
46	0xbe67712a	-0.22601762
47	0xbdffb101	-0.12484933
48	0xbec37df9	-0.38182047
49	0xbf51775a	-0.8182274
50	0xbee16912	-0.44025475
51	0xbe539997	-0.20664059
52	0xbf0ddd39	-0.55415684
53	0xbeb817ed	-0.35955754
54	0x3e508b28	0.20365584
55	0x3eab743e	0.33487123
56	0x3e89d115	0.2691733
57	0x3eb329c3	0.349928
58	0x3ede71fe	0.43446344
59	0x3ec1f78f	0.37884185
60	0x3d6e8703	0.058234226
61	0x3d2aac9c	0.04166852
62	0x3d5ed297	0.054400053
63	0xbebf23bb	-0.37331948
64	0xbf05e651	-0.5230456
65	0xbeb32614	-0.3498999
66	0xbe449934	-0.19199067
67	0xbc5ff192	-0.013668435
68	0x3e372979	0.17886914
69	0xbe6cc08a	-0.23120323
70	0xbe073aa4	-0.13205963
71	0xbdb47361	-0.08811069

decoders.0.fc.weight f4 [784, 32]
0	0x3dc22ce3	0.09481218
1	0xbe9aa2b7	-0.30202267
2	0xbcbf55c1	-0.02335632
3	0xbd3fcef7	-0.046828236
4	0x3d153f11	0.036437098
5	0xbe9850f0	-0.2974925
6	0x3bc07247	0.005872998
7	0xbde6556a	-0.1124676
8	0xbe5c8cb8	-0.21538055
9	0xbe09416e	-0.13403866
10	0xbcea77f6	-0.028621655
11	0xbd162fc1	-0.036666635
12	0x3e4ebd8f	0.20189498
13	0x3c4d11fc	0.012516495
14	0x3c0012f7	0.007817022
15	0xbe038c1e	-0.12846419
16	0xbe32904b	-0.17437856
17	0xbe9480ae	-0.29004425
18	0x3e7592f0	0.23981833
19	0x3d4d65b9	0.05014584
20	0xbd711aed	-0.05886357
21	0x3e79b482	0.24385265
22	0x3dd3b6a6	0.10337572
23	0xbd3e7a7c	-0.04650353
24	0xbdf11a0d	-0.11772547
25	0x3e8db8a4	0.27679932
26	0xbd940faa	-0.0722955
27	0x3e1c8528	0.1528517
28	0xbeb4408a	-0.3520549
29	0x3e3b99e3	0.18320422
30	0x3d789fff	0.06069946
31	0xbe555f28	-0.2083708
32	0x3df1742c	0.11789736
33	0x3df19132	0.11795272
34	0x3e6dd196	0.23224482
35	0xbcb62c11	-0.02223781
36	0x3d9c615b	0.076357566
37	0xbda404f6	-0.08008759
38	0x3e57ea53	0.21085481
39	0xbe4c155d	-0.19930024
40	0x3e6cb132	0.2311447
41	0x3ecff769	0.40618446
42	0x3e87b01d	0.2650155
43	0x3dcc184e	0.09965573
44	0x3dfaa72d	0.122389175
45	0xbea63c74	-0.32467997
46	0x3e34096d	0.1758172
47	0x3db8f47c	0.09031007
48	0xbe8c5edb	-0.2741612
49	0xbd13fc2e	-0.03612917
50	0x3ea46045	0.32104698
51	0x3d944969	0.072405644
52	0x3e5dfb37	0.21677862
53	0xbd99744b	-0.07492884
54	0x3dbf643e	0.093452916
55	0xbdeeb626	-0.11655836
56	0x3ecd24de	0.4006719
57	0xbde43ddf	-0.111446135
58	0xbc7daa20	-0.0154824555
59	0x3f0dff69	0.5546785
60	0xbe585ed3	-0.21129923
61	0x3cb4bb1b	0.022061875
62	0xbeee4ad4	-0.46541464
63	0x3e3628f7	0.17789064
64	0x3e2e3b22	0.17014745
65	0xbba9f040	-0.0051861107
66	0x3ea1a74c	0.3157295
67	0x3cb3882e	0.021915521
68	0xbe7f0f4d	-0.2490818
69	0xbd54843b	-0.051883917
70	0xbe01698d	-0.1263792
71	0x3e382e62	0.17986444
72	0x3e9db778	0.30804038
73	0xbeb580e2	-0.35449892
74	0x3d6f6fe7	0.058456328
75	0xbd2efda8	-0.042722374
76	0x3efa1b4e	0.48848957
77	0x3e1aaacc	0.15104216
78	0xbd2bdd6b	-0.041959208
79	0xbddfe7d0	-0.109328866
80	0xbe858086	-0.26074618
81	0x3e419bce	0.18907091
82	0xbe82febb	-0.2558497
83	0xbdb65ce6	-0.08904438
84	0x3c6e01a5	0.014526759
85	0xbd892032	-0.06695594
86	0x3e89f94f	0.2694802
87	0xbe230336	-0.15919194
88	0xbe2bec8c	-0.16789454
89	0x3c8bd3b9	0.01706873
90	0x3e2c10ae	0.16803238
91	0x3e210cb6	0.15727505
92	0x3e218f92	0.15777424
93	0x3e7e043d	0.24806304
94	0x3e22b123	0.15887885
95	0xbe28c160	-0.16480017
96	0xbda56d82	-0.080775276
97	0xbcca567d	-0.024699444
98	0xbc70c576	-0.014695516
99	0xbdd2cb1a	-0.10292645
100	0xbe8ef878	-0.27923942
101	0x3cc12c87	0.023580803
102	0x3e57cc4e	0.2107403
103	0xbd3669cc	-0.04453449
104	0xbd929420	-0.07157159
105	0x3e75a66a	0.23989263
106	0x3e89b799	0.26897886
107	0xbd52d8eb	-0.0514764
108	0x3e98720d	0.29774514
109	0xbd9677e0	-0.07347083
110	0xbcf0ef85	-0.029411087
111	0xbdb8146a	-0.08988269
112	0xbe6ae16a	-0.22937551
113	0xbed4d075	-0.4156529
114	0x3db3e7f7	0.08784478
115	0x3e8f4200	0.27980042
116	0xb9928731	-0.00027948015
117	0x3e87143f	0.26382634
118	0x3db8b53a	0.09018941
119	0x3dc73871	0.09727562
120	0xbd5637a4	-0.052299157
121	0x3e472a17	0.1944965
122	0xbe717073	-0.23578052
123	0x3ea62abb	0.32454476
124	0xbd3f145e	-0.046650283
125	0x3e165a4d	0.14682885
126	0xbe34520b	-0.17609422
127	0x3dd9fc50	0.10643828
128	0xbb690511	-0.0035555998
129	0xbe67f523	-0.22652106
130	0xbe1722cb	-0.14759366
131	0xbebd5cca	-0.36984855
132	0xbec14bb1	-0.3775306
133	0x3e500916	0.20315966
134	0xbb5757a9	-0.0032858646
135	0xbe2736b0	-0.16329455
136	0x3e39b99e	0.18137214
137	0x3de10871	0.10987938
138	0x3c10baa4	0.008833561
139	0xbe45c1c0	-0.19312191
140	0x3e4407ae	0.19143555
141	0x3e88fd90	0.26755953
142	0xbda81acb	-0.08208235
143	0xbdb64a7f	-0.08900928
144	0xbe12b924	-0.14328438
145	0xbe39f7ad	-0.18160887
146	0x3e539094	0.20660621
147	0x3ee52843	0.4475728
148	0xbe329e19	-0.17443122
149	0x3e800519	0.2500389
150	0xbe733bc1	-0.23753263
151	0x3dfdc80f	0.12391674
152	0xbda597ce	-0.08085595
153	0xbe0c095f	-0.1367545
154	0xbe5db932	-0.21652678
155	0x3e33bfc8	0.17553627
156	0xbc119ed7	-0.008887968
157	0xbe27b787	-0.16378604
158	0x3e0f95ac	0.14021939
159	0xbdb71cf3	-0.089410685
160	0x3e8f3ddf	0.2797689
161	0x3dada2e5	0.08478335
162	0xbd38d942	-0.04512907
163	0xbdc8f640	-0.098125935
164	0xbe36dd0f	-0.17857765
165	0xbe05b4ee	-0.130573
166	0x3dacf09d	0.08444331
167	0xbe413506	-0.18867883
168	0x3e840da0	0.25791645
169	0x3d53fb26	0.051753186
170	0xbcdfc718	-0.027316615
171	0xbe2ec2b4	-0.17066461
172	0x3e66f7e6	0.22555503
173	0xbad06381	-0.0015898795
174	0x3de954cf	0.11393129
175	0xbd84f8e9	-0.06492788
176	0xbd92f168	-0.07174951
177	0xbd3b9c98	-0.045803636
178	0x3e4b1e48	0.1983577
179	0x3d6a6f46	0.057235025
180	0xbd8b822d	-0.068119384
181	0xbc03238e	-0.008004082
182	0xbd1d174d	-0.0383523
183	0xbd2e1b2b	-0.04250638
184	0x3d28c9a5	0.04120793
185	0x3dce9b90	0.10088265
186	0xbd9fef09	-0.07809264
187	0x3edb19fd	0.42793265
188	0xbea4b6c4	-0.3217069
189	0x3e9ce091	0.3064008
190	0xbe683aa3	-0.22678618
191	0x3e0670c4	0.13128954
192	0xbde8253e	-0.113352284
193	0xbe007128	-0.12543166
194	0x3de5d038	0.11221355
195	0x3c724d7c	0.0147889815
196	0xbeb833e1	-0.3597708
197	0x3e91ab75	0.28451124
198	0xbcce51ae	-0.025185432
199	0x3dba0144	0.09082273
200	0x3e86531f	0.2623529
201	0x3e6127e8	0.2198788
202	0x3dae887b	0.08522125
203	0xbc789003	-0.015171054
204	0x3e226f7e	0.15862843
205	0x3d16d0cc	0.036820218
206	0xbd8f9900	-0.07011604
207	0xbdc9f7ea	-0.09861739
208	0xbe3565dc	-0.17714638
209	0xbcc1a000	-0.023635864
210	0xba83b719	-0.0010049074
211	0x3d2bb626	0.041921757
212	0x3e2678b3	0.1625698
213	0x3cf9473c	0.030429475
214	0x3dab6fef	0.08370959
215	0xbb70eea8	-0.0036763344
216	0xbc57a8b0	-0.013162777
217	0xbe45e4c5	-0.1932555
218	0xbc4f3be5	-0.012648557
219	0x3eb6670b	0.3562549
220	0xbe1f3d95	-0.15550835
221	0x3e473b1a	0.19456139
222	0xbeafcb5e	-0.34334844
223	0xbddb8f73	-0.1072072
224	0xbd636f7e	-0.05552625
225	0xbdfaf391	-0.12253488
226	0xbd8c7102	-0.06857492
227	0xbe665b70	-0.22495818
228	0x3dc6f240	0.09714174
229	0xbca7ddf0	-0.02049157
230	0x3c536ae2	0.012903901
231	0xbe1b97ef	-0.15194677
232	0x3d311657	0.043234196
233	0x3e84a386	0.25906008
234	0xbd39e0a3	-0.045380246
235	0xbd89d5de	-0.06730245
236	0xbd8b2c63	-0.067955755
237	0xbd938344	-0.07202771
238	0x3ec62191	0.38697484
239	0x3e91c8e0	0.28473568
240	0xbe139661	-0.14412834
241	0xbdc17882	-0.09446813
242	0x3e0bcb84	0.13651854
243	0xbcb70dbc	-0.022345416
244	0xbe758bdb	-0.23979132
245	0xbdef65be	-0.11689328
246	0x3dd95eb7	0.106137685
247	0xbe2c1ee5	-0.1680866
248	0xbde46599	-0.11152191
249	0xbe207a7a	-0.15671721
250	0xbd5feeb9	-0.054671023
251	0xbe128b93	-0.14311056
252	0x3df49b54	0.11943689
253	0xbdac9983	-0.084277175
254	0x3e1a6140	0.1507616
255	0x3d11985c	0.03554569

decoders.0.fc.bias f4 [784]
0	0x3e3bdc2b	0.18345706
1	0xbeb33f60	-0.3500929
2	0x3ebc8369	0.36819008
3	0xbe238e4c	-0.1597225
4	0x3e85c269	0.26124886
5	0xbe8c0e79	-0.27354792
6	0xbe652196	-0.22376093
7	0x3dce64a8	0.100777924
8	0xbe7fe83b	-0.24990933
9	0xbe35a8f3	-0.1774023
10	0xbdb8e74b	-0.09028491
11	0xbe775557	-0.24153648
12	0x3db03f23	0.086057924
13	0xbea2988b	-0.31757006
14	0x3dcf4536	0.10120623
15	0xbe08af78	-0.13348186
16	0xbd452582	-0.048131473
17	0xbe80319c	-0.2503785
18	0x3d07a5f8	0.033117265
19	0xbe2e70dd	-0.17035241
20	0xbd408e1a	-0.04701052
21	0x3b9d8236	0.004806782
22	0xbd6298b4	-0.05532141
23	0x3d39f3bb	0.045398455
24	0xbdb5989c	-0.088669986
25	0xbeecabaa	-0.4622472
26	0xbe0bacd1	-0.13640143
27	0xbe32056e	-0.17384884
28	0xbed0a7ae	-0.4075293
29	0xbea6005b	-0.32422146
30	0xbe23950b	-0.15974824
31	0x3d4a10e0	0.0493325
32	0x3dfa93bf	0.122352116
33	0xbd8863ac	-0.06659636
34	0xbe494e94	-0.19658881
35	0xbebadb23	-0.36495313
36	0x3ec27478	0.37979484
37	0xbe23d250	-0.15998197
38	0x3eb426ca	0.35185844
39	0x3dab5573	0.083659075
40	0x3ec66d57	0.38755295
41	0xbd601b4b	-0.05471353
42	0x3e36fbc1	0.17869474
43	0x3e38207b	0.1798114
44	0xbda8c9d7	-0.08241623
45	0xbe5e8433	-0.21730117
46	0xbe760bec	-0.24027985
47	0xbe4ef785	-0.20211609
48	0x3e572c0b	0.21012895
49	0x3be2bad8	0.006919246
50	0x3efd3bd1	0.494597
51	0xbcec2697	-0.028826995
52	0x3e94b68a	0.29045516
53	0x3caf712a	0.021416266
54	0xbebf8b6a	-0.37411052
55	0x3e465de8	0.1937176
56	0x3dc23158	0.09482068
57	0x3e0d0f88	0.13775456
58	0xbe9780c4	-0.29590428
59	0xbe0bd08a	-0.1365377
60	0x3e973327	0.29531214
61	0x3aaa13cc	0.0012975871
62	0x3d39b2a1	0.04533637
63	0x3eb33e9f	0.35008714
64	0x3a52039b	0.00080114015
65	0xbdf4dd3b	-0.11956259
66	0x3e13f50e	0.1444895
67	0x3e548b0d	0.20756169
68	0x3d23708b	0.03990225
69	0x3bfea7ff	0.0077714915
70	0x3de5fb2e	0.11229549
71	0x3d66fdd9	0.05639443
72	0xbe24f9f5	-0.16110976
73	0xbd57a4ed	-0.05264752
74	0x3db09893	0.08622851
75	0x3e39f453	0.18159609
76	0x3e1bc002	0.15209964
77	0x3e0262cd	0.12733002
78	0xbe854cd0	-0.26035166
79	0x3d40d92c	0.04708211
80	0x3db14457	0.08655613
81	0xbcf752b7	-0.030190809
82	0xbd777e50	-0.060423195
83	0xbe3f1be8	-0.18662989
84	0xbe98d9b1	-0.29853585
85	0xbe080baf	-0.13285707
86	0x3e72f9c2	0.23728088
87	0x3def81b6	0.11694662
88	0xbe5b9668	-0.21444094
89	0x3e82f44c	0.2557701
90	0xbecbb827	-0.39788935
91	0xbe3d9d76	-0.18517098
92	0xbddec1d2	-0.10876812
93	0x3e6f5b6c	0.23374718
94	0x3efcc5cc	0.49369657
95	0x3d4d9b0b	0.05019669
96	0xbd94b3df	-0.0726087
97	0x3ea24002	0.3168946
98	0x3ded9261	0.11600185
99	0x3e28c6d1	0.16482092
100	0xbd560949	-0.05225495
101	0x3c68a82f	0.014200254
102	0x3da20187	0.079104476
103	0xbd2320c2	-0.039826162
104	0x3e9fbaf1	0.31197312
105	0xbf0fdc56	-0.5619558
106	0x3eac4700	0.3364792
107	0xbe903c37	-0.2817094
108	0x3dbb88ef	0.091569774
109	0xbeacf556	-0.33780926
110	0x3ea06045	0.31323448
111	0x3f01795b	0.505758
112	0xbdd3f4af	-0.10349404
113	0x3eb7d707	0.3590624
114	0x3d6e49cc	0.058175847
115	0x3c63f6bd	0.013913807
116	0xbe0123b2	-0.12611273
117	0x3e121b7b	0.14268295
118	0x3e836a4d	0.2566704
119	0xbdb2f980	-0.087389946
120	0x3dde1da4	0.10845497
121	0xbdaf33f0	-0.08554828
122	0x3e973483	0.2953225
123	0x3d8e223e	0.06940125
124	0x3da69aa7	0.08134966
125	0xbd444259	-0.047914837
126	0x3e4ce2f9	0.20008458
127	0x3e8fd248	0.2809012
128	0x3dc2c362	0.095099226
129	0xbe9ae87b	-0.30255494
130	0xbdce85c1	-0.10084105
131	0xbe32add4	-0.17449123
132	0x3f2016f1	0.62535006
133	0x3eabf02d	0.33581677
134	0x3ca1be72	0.019744132
135	0x3e34d305	0.17658623
136	0xbe0f81f3	-0.14014415
137	0xbee04919	-0.4380577
138	0xbea0f406	-0.31436175
139	0x3e8bf0b6	0.27332085
140	0x3d88bcd8	0.06676644
141	0xbe3da160	-0.18518591
142	0xbd9bc164	-0.07605246
143	0xbd151ebf	-0.036406275
144	0x3dcc868e	0.09986602
145	0xbde0e4c5	-0.10981134
146	0xbe89149e	-0.26773542
147	0xbdf55585	-0.11979202
148	0xbe052e25	-0.13005884
149	0xbce760c4	-0.028244384
150	0x3e48937f	0.19587515
151	0x3d984693	0.07435336
152	0xbd1fec72	-0.03904385
153	0x3dfa6a7a	0.1222734
154	0xbe5ef541	-0.21773244
155	0xbde4751e	-0.11155151
156	0xbe12567c	-0.14290804
157	0x3dde287e	0.10847567
158	0xbd36fd97	-0.044675436
159	0xbea0ac2d	-0.3138136
160	0xbdcf9946	-0.101366565
161	0x3dbac54a	0.09119661
162	0xbd648b5b	-0.055796962
163	0xbe458fd2	-0.19293144
164	0x3e3e7bfd	0.18601985
165	0x3d0bed9f	0.03416216
166	0xbe3adbfd	-0.18247981
167	0xbd71d98d	-0.059045363
168	0xbde655e3	-0.1124685
169	0xbe0ca44b	-0.13734548
170	0xbd622da3	-0.055219304
171	0x3e247b26	0.16062602
172	0x3c27b7aa	0.01023666
173	0xbe14ec8c	-0.1454336
174	0x3d8c1667	0.068402104
175	0xbe9b2684	-0.30302823
176	0xbd90b9e3	-0.07066705
177	0xbdeb63a2	-0.11493613
178	0xbd448bfb	-0.04798506
179	0xbe253968	-0.1613518
180	0x3e2e9dd8	0.170524
181	0xbe4f83c6	-0.20265111
182	0xbdb25687	-0.0870791
183	0x3cc57edf	0.024108348
184	0x3ce505d8	0.027956888
185	0xbd96440e	-0.07337199
186	0x3e105248	0.14093888
187	0xbd1133db	-0.035449844
188	0xbe23c182	-0.15991786
189	0xbe8fe8c2	-0.28107268
190	0xbce29ccd	-0.027662659
191	0x3e9518f6	0.29120606
192	0x3dad408c	0.08459577
193	0xbe0b2817	-0.13589512
194	0xbdc27359	-0.09494657
195	0x3c171ea1	0.009223611
196	0x3d810907	0.0630055
197	0x3e309d55	0.17247517
198	0xbdd3435b	-0.103155814
199	0x3e3cdbe8	0.18443263
200	0xbc433532	-0.011914538
201	0x3dd3459b	0.103160106
202	0x3e361fe4	0.17785603
203	0xbe8734c2	-0.2640744
204	0x3e08e0af	0.1336696
205	0xbd451765	-0.048118014
206	0x3af929c6	0.0019009642
207	0xbe1aa60f	-0.15102409
208	0x3e7e67f7	0.24844347
209	0x3e3f87c9	0.18704142
210	0xbe8b911c	-0.27259147
211	0x3e46dffb	0.1942138
212	0x3e763350	0.24043012
213	0x3d5d802e	0.05407732
214	0xbe456746	-0.19277677
215	0xbbd4851d	-0.006485595
216	0x3de1e592	0.11030115
217	0xbd4d5999	-0.050134275
218	0xbda85544	-0.08219388
219	0x3cc9a4a2	0.024614636
220	0xbe435394	-0.19074851
221	0x3b5de01e	0.0033855508
222	0x3db81f49	0.08990342
223	0xbd90df34	-0.070738226
224	0x3ed38c0c	0.41317785
225	0x3e2380d0	0.15967107
226	0xbda60fcc	-0.08108482
227	0xbeced9e8	-0.40400624
228	0xbdd57af2	-0.104238406
229	0xbd3b5c22	-0.04574216
230	0x3de5e802	0.112258926
231	0x3e976de2	0.2957602
232	0x3e082f73	0.1329935
233	0x3b9414d5	0.004519085
234	0xbdaa58df	-0.08317732
235	0xbeece0a6	-0.46265143
236	0xbeef1674	-0.46696818
237	0x3e706127	0.2347456
238	0x3e828fd4	0.25500357
239	0xbe065cd2	-0.13121346
240	0x3e4a0c80	0.19731331
241	0xbe26f944	-0.16306025
242	0x3c9d7de5	0.01922507
243	0x3d9d9eaf	0.07696282
244	0x3d37c063	0.04486121
245	0x3e03ebaa	0.12882867
246	0xbdd46609	-0.10371024
247	0x3ebd5e57	0.36986038
248	0x3e582a9c	0.21110004
249	0xbe06b200	-0.13153839
250	0x3d2b75bd	0.04186033
251	0x3e3af013	0.18255644
252	0xbe0dd62d	-0.13851233
253	0xbe50663e	-0.20351502
254	0x3e877e67	0.26463625
255	0xbc56c7c5	-0.013109152
